notebooks/archive/DCRNN/Adj_No_Dropout_15mins/dcrnn_best.pt (torch, 120760 bytes, 7 tensors)

cell.diff.theta f4 [65, 64]
00000000: 58c8 963d aa2e 62be ead4 1bbe 3fce be3d
00000010: d326 06be 5acf 81bc af4e 26be e6eb 9b3d
00000020: 110c 463e 1712 3d3e db0b 00be 31cb 29be
00000030: ff8d 943d 4635 a73d 8f8d adbd 6991 123e
00000040: 9cc3 20be d242 d1bd a046 f5bd 04ca 9f3d
00000050: 1afa 2d3d 95d8 57bd 50e0 e23d ed42 593e
00000060: 65e1 703c 9c65 3abe e20c 45be 13b0 b13d
00000070: 3088 e7bd 47c3 f13d 46b5 3a3e 34ec 593e
00000080: 1bfa 44bb fcd2 54bd 244a 293d 0023 7dbd
00000090: f86d 41be e9ef 493e 2727 9f3d 1498 83bd
000000a0: e773 0dbe daea 13bc bb86 c8bd 3a0f c53d
000000b0: d2dc a13d 0662 7c3e f15f 47be b809 0bbe
000000c0: f111 fdbc ae1e 41bc 59fc 153e 8188 dd3a
000000d0: ab6f bfbd 3810 163e 8306 4b3e 661e 133e
000000e0: e261 4c3e 5cf4 353d cdc5 1abe afcf 143e
000000f0: ac00 0b3e 61ab 3d3e eca3 713d 3641 483d
00000100: a42b aabd d4d6 573e b908 fa3b ec63 1fbc
00000110: ab68 11be 54a3 e83d da3f 00bc 0f48 53bd
00000120: d3e2 3bbe 0ae6 1c3d ba15 59be 8d20 3cbe
00000130: fc68 eabc c1e7 de3d bf7d 88bd beb8 b43d
00000140: 6198 2c3e 8d93 613d d304 b7bd e988 c3bd
00000150: 9065 953c 1bd9 babd 3063 eabd fac0 5a3e
00000160: 10ae 47be 7a57 ff3c fc96 f63d 2644 1fbe
00000170: 279b 32be 8d00 3bbe 2318 ccbd 7e54 c9bc
00000180: da8c 71bd a1d5 393e 5970 f63c af10 0ebe
00000190: 647f de3d 2892 d6bd aa02 5a3e 7fe5 453e
000001a0: b5a2 99bd 997e e8bb 970b 6a3e 9972 d83d
000001b0: 906e a53d 7bcd 293b 5226 34be e7bf 683c
000001c0: 1f60 c83d 80a9 b93b 3638 03bd 173a 4d3e
000001d0: 197a 473e 1458 7c3e bd30 c4bc ffc2 443e
000001e0: a387 e03d 56c7 3f3d b869 85bd ea13 c3bc
000001f0: 0f7f 113d e999 70bc fbd1 00be c8bc 8a3c
00000200: 7115 8abd 2a0f 293d 68d3 fb3d 448f 18be
00000210: fc5a 5c3d 9c12 f73d fece 0d3e 9942 483e
00000220: 061d 273e ecbc dc3d 82b4 6abd a4e4 9dbd
00000230: c600 abbb 9389 31be fa85 ca3d 1c1c 1bbe
00000240: aa4a 4b3d 8431 cb3d 100e 283e 1b82 e9bd
00000250: 000a d9bd 9bc6 433d 745f 86bb a559 58bd
00000260: 8c9a 07be d2c7 16be 836c 06bd b941 8ebd
00000270: f541 283e 8184 9b3d db44 a5bd 245b e03c
00000280: c8e1 1abe 8592 4c3d 51f8 2f3e 1130 febd
00000290: ab94 7c3b 9a1d 15be ab7f e43d 5e9e 163d
000002a0: 1d00 1f3d c467 dd3d 1411 b23d 0b51 6fbd
000002b0: 8972 0fbe 58e8 0fbe 2ed0 13be 8ebe 04bd
000002c0: 8795 8bbd 0d9a cebc 36ed c2bd f7f8 c23c
000002d0: 7a5e 79bd 1bf9 813d 89f6 b23d fb15 c1bc
000002e0: c6a2 ad3d 087c af3d 9f02 ad3d 5165 213e
000002f0: 6662 2a3e f9f5 00be 9a9a f0bd 4524 bf3d
00000300: 1154 d3bd e5db 053e 5f8d f93b 3245 353e
00000310: 3338 2ebe b2cd 64be 76e2 30be 8ea9 b73d
00000320: 1815 d73d be18 203d 5140 823d 9f40 943d
00000330: 31f1 14be a991 4d3e 5545 bfbd 2f94 623d
00000340: 558a 243e 677e 0b3e de1d 19be 32c5 1bbe
00000350: 8c68 c1bd 9057 44bd af66 c4bd 2072 3e3e
00000360: 446b a93d 58ec c3bd 8a91 ec3b d451 113e
00000370: c841 ebbd b6cf 073e 64ec b53d 6099 18be
00000380: 38b3 133e 27ad 30be b0aa 00bd 88b0 94bd
00000390: 75ae 89bd 34ef 8a3d 44f4 14be 4f26 6bbd
000003a0: 502d eebd e978 183d f571 f23d 76f5 b83c
000003b0: cfde 74bd 2324 69bd 8582 c9bd 8978 1b3e
000003c0: 3be2 a73d b858 2bbe 87f9 093e 18cd 0bbc
000003d0: 856e ba3d 334e e3bd 492d eabd 1d18 e73d
000003e0: 537a e63d 5a5c a6bd 0096 533e f33b 01be
000003f0: 2635 373e 25cd a7bd 2ede 063e f261 18be
0.07362431 -0.22088113 -0.15217939 0.09316682 -0.13100748 -0.015845943 -0.16240953 0.076133534
0.1934054 0.18463932 -0.12504523 -0.16581418 0.07253646 0.08164458 -0.08474266 0.14313282
-0.15699619 -0.10217823 -0.11976361 0.07802203 0.042474844 -0.052696783 0.110779405 0.21216936
0.014702176 -0.18202823 -0.19243196 0.086761616 -0.113052726 0.11804824 0.18233213 0.2128151
-0.00300563 -0.051959023 0.04133047 -0.061800957 -0.18889606 0.19720425 0.077711396 -0.06425491
-0.13813744 -0.009028161 -0.09791323 0.09622045 0.07903446 0.24646768 -0.19470192 -0.13577926
-0.030892344 -0.0117871 0.14647044 0.0016901643 -0.09347471 0.14654624 0.19826703 0.14367065
0.19959214 0.044422492 -0.15114518 0.1453235 0.13574475 0.18522407 0.05899422 0.048890315
-0.08309105 0.21078044 0.0076304344 -0.009728413 -0.14200084 0.11359277 -0.007827723 -0.051582392
-0.18348245 0.03830532 -0.21199694 -0.18371792 -0.028614514 0.10884047 -0.06664609 0.08824299
0.16855003 0.055072356 -0.08936467 -0.09547598 0.018236905 -0.09123441 -0.114447 0.21362677
-0.19499993 0.031169642 0.12040517 -0.1555334 -0.17441998 -0.18261929 -0.09965541 -0.024576422
-0.058972217 0.18147899 0.030082868 -0.13873552 0.108641416 -0.10477096 0.21290079 0.19325827
-0.07501737 -0.0070951697 0.22855984 0.10568733 0.08077729 0.002590983 -0.17592743 0.014205909
0.09783959 0.005665958 -0.03203603 0.20041691 0.1948017 0.24642974 -0.023949021 0.1921501
0.10963371 0.04682096 -0.06514305 -0.023813207 0.035521563 -0.014685133 -0.12580101 0.016935721
-0.06742371 0.041274227 0.12296182 -0.14898401 0.053797707 0.12064096 0.13848493 0.19556655
0.16319665 0.107782215 -0.057301052 -0.07709625 -0.005218598 -0.17337637 0.09888835 -0.15147442
0.049631752 0.09921554 0.16411614 -0.11401769 -0.105976105 0.047796827 -0.0041007344 -0.052819867
-0.13242549 -0.14724663 -0.03281833 -0.06946129 0.1643141 0.075936325 -0.08069774 0.02738721
-0.15125191 0.04994442 0.17184569 -0.12411512 0.0038540761 -0.14562073 0.11157163 0.036772124
0.038818467 0.10810807 0.08694664 -0.058426898 -0.14008535 -0.14053476 -0.14434883 -0.03240829
-0.068156295 -0.025219942 -0.09517901 0.023800356 -0.060881115 0.06346341 0.08738429 -0.023570051
0.08478312 0.08568579 0.084477656 0.15761305 0.16639099 -0.12593831 -0.11748238 0.0933309
-0.10318769 0.13072164 0.0076157297 0.17702177 -0.17013626 -0.22344092 -0.17273888 0.08967887
0.1050207 0.039086096 0.06359924 0.07238888 -0.14545132 0.20075096 -0.09339396 0.0553171
0.16068394 0.13622437 -0.149528 -0.15211943 -0.09443769 -0.04793507 -0.09589898 0.18598223
0.082724124 -0.09566563 0.007219498 0.14191371 -0.11487156 0.13262829 0.088829786 -0.14902258
0.14423835 -0.17253552 -0.03141278 -0.07260233 -0.06722728 0.067839056 -0.14546305 -0.05740958
-0.116297364 0.037224684 0.11838142 0.022577982 -0.0597828 -0.05691923 -0.09839348 0.151827
0.08197447 -0.16733062 0.13474093 -0.008532785 0.09103111 -0.110989 -0.11434419 0.11283896
0.112538 -0.081230834 0.20662689 -0.12620525 0.17891368 -0.08193425 0.13170692 -0.14881113

cell.gru.weight_ih f4 [192, 64]
00000000: 28fe 92bc f6a5 673d 2714 38be 7af2 96bc
00000010: a78b 53bd 4c42 81bd b212 033c aefa 133e
00000020: 96f9 4dbd b576 c13c 5d03 993d 9aa4 32be
00000030: 50ca 8f3d 8b91 a83c cc1c 58be 5bb3 c93d
00000040: 493a 163d 8c5f c9bc 1da1 df3d f619 e63d
00000050: 0cf6 023e ac60 753d 2b8c 423e 2ca0 463d
00000060: 7776 383d 0c2d a0bd 3a1e fe3c 8b36 543c
00000070: e241 b8bd 94e4 043e ab8d 3a3d 0bc6 6e3e
00000080: 9f44 cd3d 2a3a 883a 1770 ab3c 5fa0 b3ba
00000090: 96a5 88bd b059 cc3d ae94 c2bd cb60 9abd
000000a0: 0761 02bd 8985 f03d 2ae8 923d e647 173d
000000b0: 377b 793e 7dbd 0cbd 7cf9 f9bd 1935 e6bd
000000c0: 57b2 e8ba e0ba ce3d 1cc2 0e3e 6d9f 30be
000000d0: fe64 013d 866f 123e cba0 473d 08ea 5c3e
000000e0: 8c66 9d3d d001 613c cf71 88be aa8e 973d
000000f0: 5361 6c3d 1de4 a83d 09ef 2d3c 1e89 58bd
00000100: 3606 99bd 98fa 00bd 0623 e4bc b5f2 f33c
00000110: 1823 803d a63d d3bd bb31 f1bd 7193 abbd
00000120: 2182 74bb 655c d0bd fb65 883d 3663 adbd
00000130: 9600 c7bb 6e88 36bd 2b3f 6e3c 8847 c2bd
00000140: fe4c f7bc 6c6d 223d 432d 2cbc c879 ebbd
00000150: 66e9 573e 7389 27bd 2516 76bc a676 7cbd
00000160: 81a3 00be 7a8a 283d 5fa3 1d3e 33d0 aa3d
00000170: a57f 213c 8607 823d 4889 373e 5745 0d3e
00000180: acaf 2dbc c4fc 05be 33e5 abbb 3a7a 09bd
00000190: 9b03 57bc e178 19bc b8e6 f3bc 12d2 833b
000001a0: 0697 90bd 06ec eb3d dd4a 17bd c873 cebc
000001b0: 1608 0fbe 078a b43d fcf0 6d3b 824e bc3c
000001c0: 509c 99bd 70b1 1b3c 8fa1 29bd e231 c8bd
000001d0: 7687 2fbe 73ad 8e3c e982 b33d 115e ac3b
000001e0: b848 cc3d 1cd2 8ebd f924 32bb 4bcb 98bd
000001f0: d6b0 fcbd 154b d23d 0f8d 91bb 5ffc 043e
00000200: a921 613d 54bd 31bd 677e b53d b9c4 033e
00000210: 74e2 3d3c 81e6 01bd 80f1 e3bb fb1c 2c3d
00000220: 3fc3 853d ee05 4cbc e2da 1dbd 0bd0 383e
00000230: 15e1 6abb 6654 713c 6f42 9fbd 5765 593d
00000240: fb8a 163d c93e 6b3c f916 133d 9694 bcbd
00000250: 2a09 123c d444 03bd be1e 563d b06f c2bd
00000260: b104 53bc 845d 283d ee4c 00be a3c0 e13b
00000270: 845d a0bc 8125 863d 587e 0ebb 6658 0fbd
00000280: 4664 913d 854d 89bd a89e afbd b8c4 bcbd
00000290: 49fe 0b3d edce 8d3d fa8d 98bd 1eb5 313d
000002a0: c140 7abb f0fb 9fbd 7e48 17be c6c9 0ebd
000002b0: 3d7e 5dbe ffcf 173e ef4e 433e 5542 763c
000002c0: 2b2c 023c 39e5 21bc 91f2 a63d 7c38 abbd
000002d0: 03f3 cabd 909f d1bd ba1d 603c 0afc 5b3b
000002e0: 603d e0bd 867f d83b 651f ccbc af06 153d
000002f0: 2a89 a53d f5b9 33bd f3cc 073e a9ad b5bc
00000300: db6f 1e3b ae7a 533d 9a18 01be 67e3 a1bd
00000310: c6b0 b0bd 42a0 63bd 7287 aebd 21d9 023e
00000320: d1ab 50bb ea7c 843d 30a6 483d 536c e63d
00000330: 50a3 b83d 8f48 ed3d a3e4 46bc b264 3d3d
00000340: 1715 b13d 8306 e13d a644 edbd 78b5 a83d
00000350: ce0b 65bd df55 edbc e350 94bd 2585 c6ba
00000360: 2f1d fabc 877d d1bc 3e0a b5bc 58d6 d3bb
00000370: 4db0 cf3d eba5 79bd 1773 073e 9f95 a43c
00000380: 1e9f 073d fc56 8dbd 2a41 3bbd 9e90 ccbd
00000390: a4fa abbc 014c f0bd fc39 c43d 1fbe 49bd
000003a0: 9f77 7cba e088 3e3d 92b5 8cbd e760 d8bd
000003b0: 2b07 18be 1d21 4d3d 882c 233d aad4 843d
000003c0: d980 2e3d 88eb 743d a732 b23d f037 4f3e
000003d0: 45b8 283d 658d 9b3b 60cb 783d 8493 4cbd
000003e0: 1abc 9bbd b248 b6bc e35e 8a3d 5861 f73d
000003f0: 317d bf3c 5180 b9bc 6322 35bd 20e1 893d
-0.017943457 0.056554757 -0.17976438 -0.018426169 -0.051646855 -0.06311473 0.008000063 0.14451095
-0.05028685 0.023616174 0.074713446 -0.17445603 0.0702101 0.020577213 -0.21104735 0.098486625
0.03667668 -0.024581693 0.10919402 0.112354204 0.12789172 0.059906647 0.18998782 0.048492596
0.045034852 -0.07821092 0.031020273 0.012952457 -0.08996941 0.1297782 0.04554526 0.23317735
0.10022854 0.0010393311 0.020927472 -0.001370441 -0.06672208 0.09978044 -0.09501015 -0.07537993
-0.031830814 0.1174422 0.07173188 0.036933802 0.24363409 -0.034360398 -0.122057885 -0.11240596
-0.0017753345 0.10094237 0.13941234 -0.17248316 0.031590454 0.14300355 0.04873733 0.21573651
0.07685575 0.013733342 -0.2664933 0.07400258 0.057710003 0.08246634 0.010616072 -0.05286514
-0.07471888 -0.031488985 -0.027848732 0.029778818 0.062566936 -0.10314493 -0.117770635 -0.083777316
-0.0037309008 -0.10173873 0.06660076 -0.084661886 -0.006073068 -0.044563703 0.014541428 -0.094863
-0.03018808 0.039655134 -0.010508838 -0.11497837 0.21085128 -0.040902566 -0.015019928 -0.06163659
-0.12562372 0.041147687 0.15394352 0.08340492 0.009857093 0.06349091 0.17923462 0.13795982
-0.0106009655 -0.13084704 -0.0052458285 -0.03356383 -0.013123418 -0.009367199 -0.029773101 0.004022845
-0.070600554 0.11519627 -0.03693663 -0.025201693 -0.13967928 0.08815389 0.0036306968 0.022986654
-0.07500517 0.009502754 -0.04141384 -0.097751394 -0.17141518 0.017416691 0.087652035 0.005260237
0.099748075 -0.06973669 -0.0027182682 -0.0746065 -0.12338416 0.10268227 -0.0044418643 0.12986897
0.05496374 -0.043393448 0.08862 0.12868012 0.011589635 -0.031713966 -0.0069562793 0.042019825
0.06531381 -0.012452586 -0.03853882 0.18048112 -0.0035839726 0.014729595 -0.07776343 0.05307516
0.036753636 0.014358231 0.03591058 -0.09208028 0.008913318 -0.03204806 0.05227541 -0.09493959
-0.0128795365 0.04110481 -0.12529346 0.006889419 -0.019575842 0.06550122 -0.0021742787 -0.034996413
0.07099204 -0.06704239 -0.08575183 -0.092172086 0.034178052 0.069242336 -0.07448955 0.043385617
-0.003818557 -0.07811725 -0.14773747 -0.034860395 -0.21630187 0.14825438 0.1907308 0.015030463
0.007945101 -0.009881311 0.081517346 -0.08360383 -0.09909632 -0.10235512 0.013678962 0.0033566975
-0.10949206 0.006606999 -0.024917314 0.036383327 0.080828026 -0.043878514 0.13261776 -0.022177534
0.0024175558 0.05163067 -0.12607041 -0.07904702 -0.08627467 -0.055572756 -0.08521928 0.1277814
-0.0031840692 0.06469138 0.048986614 0.1125113 0.090155244 0.11586105 -0.012139472 0.04623861
0.08646601 0.1098757 -0.11585359 0.082377374 -0.05591946 -0.02897161 -0.072419904 -0.0015145881
-0.030531494 -0.025572551 -0.02209961 -0.0064647608 0.101410486 -0.060949247 0.13227497 0.020090876
0.03311073 -0.069013566 -0.045716442 -0.09988521 -0.020993538 -0.117332466 0.09581372 -0.04925358
-0.0009630862 0.046517253 -0.06870569 -0.10565358 -0.14846484 0.050080407 0.03983739 0.06485875
0.042603347 0.059794933 0.087010674 0.20236182 0.041191358 0.00474708 0.06074083 -0.04994537
-0.07604237 -0.02225146 0.067563795 0.12079114 0.023375126 -0.022644194 -0.044222247 0.06732392

cell.gru.weight_hh f4 [192, 64]
00000000: ebc3 3b3e 3fc0 bcbd 025b e1bd 94c4 2c3e
00000010: 1cbb 25be 08ee e23d e039 d73d aec6 f43d
00000020: 405e 873d 9934 ddbc ebe0 eebc 18ee 54be
00000030: 4d29 d13d f81f b03d c9a6 acbd 9adf 4e3c
00000040: ccc8 b3bd 7926 9ebd c810 b6bd 1628 c0bc
00000050: 468a 043d 96b7 013e 267a c93d d909 053d
00000060: 1c2c 693e e02d b6bc 32cc e93d 1e6b 69bd
00000070: b367 1fbe d7fa 73bd cff9 46bd 7ffc 063e
00000080: cb71 b23c f3c4 22be f39d 3bbd 6dcf f33d
00000090: 6196 103d 4032 903d b33b 693e 864e f73d
000000a0: 4afa cc3d 2f8c 2dbd 159d 613b a3fe c6bd
000000b0: 3557 6c3d 3d95 f43d 292d 7cbc 170a 4c3d
000000c0: e992 c3ba 5ea9 fd3b e8bb 9abd dc69 aebd
000000d0: d7d4 f83d 3c3e b4bd d419 103e 26aa 0e3e
000000e0: 7334 49be 8713 823e b886 9cbd 0973 983c
000000f0: ecea 513d 721c 923d 8172 903d f6a1 0ebe
00000100: 9fbc 4ebe fd56 073f 4291 00bc 3b22 24bd
00000110: 6d5f a5bd ca4d 4e3f ef82 853e 76ca 60be
00000120: 2ab0 373d 4ba0 61be 659b 4dbe 2bf9 40be
00000130: ccdf 5cbe 7cb2 72be 1bc2 4dbd 3c14 59be
00000140: c74d 1ebd e4f7 d9bd 6d97 943d 9344 86bd
00000150: 1905 a13d 0ef1 99be 9039 3e3e 8e87 56be
00000160: 9040 b8be 03d9 b73e 3243 c0bc e41e f33d
00000170: ff19 ff3d 6f93 863e 0682 10bd 32ba 953e
00000180: 6c41 813c 204b d03c 1801 80be 7bd8 53be
00000190: 7900 353e 780c 773e 4d18 a6bd 9db6 45bd
000001a0: 3c07 32be 218d cc3d 191f c4be 06eb 693e
000001b0: fce8 b9bc d157 81be b5b3 ba3d 1af6 0c3d
000001c0: 0edf 9cbe 26bd 893e 9fb3 dbbd ac49 33ba
000001d0: fdf9 7fbe b0ef 8dbe 99bd 373e 012b 9dbc
000001e0: 0940 1a3e 34d0 193f 03c5 413e ec42 50be
000001f0: 64f7 90bd c34d 9f3e 6327 e7bc 31ad 37bc
00000200: 341f 213d 229b d1bd ef9d 04be 9f2d ad3d
00000210: 60ce a33d 2285 56be c374 e73d df43 893d
00000220: b27a 93bb 65c0 38bd 063f 3b3e 495a 113c
00000230: 430a b9bb fef2 4a3c fc4d 163e e89d 1b3e
00000240: 7e77 f33c 5552 a8bd 7213 883d 2b27 4d3d
00000250: cfef f43d 787e 003d dc9f 92bd 5d93 10bc
00000260: dd00 35bd 2714 5a3d 998a 03be 39dc 7bbd
00000270: b851 2abe 9895 f8bd 9088 35be f219 3a3e
00000280: a1aa 20bd ed35 bcbd 4244 5bbd ae9d f1bd
00000290: 852e 20be 4611 29bd f19d c7bd d811 033b
000002a0: 5763 893c 5c7e 9d3d 77a2 483b 4251 6fbc
000002b0: a1a9 2ebe ff6d c8bc 725e f3bd 6990 303d
000002c0: d2c0 033e 4576 033e 22ae 313e a568 33bc
000002d0: ef6a bd3d 2d94 143d b1b6 aa3c 0c97 d63d
000002e0: fd63 84bd cd20 343c db13 d0bd a5df 10be
000002f0: f5ba 07be bf73 f73c ecde f03b 585f f43d
00000300: 8966 c13b b123 083e 77fc aabd 0b5f c2bc
00000310: 02d4 acbc c3e3 99bd 5452 063d 67ba be3d
00000320: 0024 2cbd 59d5 f63d 3780 36bd b792 9dbd
00000330: 3a6a 0abd b1e1 143d cc27 b4bd 8f3d f3bd
00000340: 3748 c03c 6785 b73d 04dc 163d e6db 5bbc
00000350: f1a7 053d 3ef3 b1bc 4bb0 123e dfc5 1d3e
00000360: 03f7 2bbe d3d5 4c3d ee19 0a3e ce33 583e
00000370: 9060 a7b8 ba31 75bd 08b5 5fbe 8c25 06be
00000380: 29b8 31be 9979 3abd b00a 2b3d 1fe5 76bd
00000390: c462 173e 0800 9dbc 608f 00be 722c 26be
000003a0: e758 a03d db48 c63d 2ba5 513d f357 07bd
000003b0: ce46 d83c 0794 60bd fd7e 013d f803 d8bd
000003c0: 5b55 02be 2b59 0d3d 53ec 88bd e925 cbbc
000003d0: 1ad3 9ebd 01b6 713e c937 dfbd 0ed2 af3d
000003e0: 7b2a 3abd adce 88bd 46c6 30bc d103 5c3e
000003f0: 3183 ca3c 7cdd 723e 983d 62bd 0f90 89bd
0.18336456 -0.092163555 -0.110036865 0.16871864 -0.16184658 0.11080557 0.10509086 0.11951958
0.06609774 -0.02700262 -0.029159984 -0.2079395 0.102129556 0.085998476 -0.08430249 0.012626553
-0.08778533 -0.07722182 -0.088899195 -0.023456614 0.03235843 0.12667689 0.09837751 0.032480095
0.22770733 -0.022238672 0.114159 -0.05698692 -0.15566902 -0.05956539 -0.04857808 0.13182257
0.021782776 -0.15895443 -0.04580493 0.11904798 0.035299663 0.070408344 0.2277668 0.12075524
0.10008676 -0.042370018 0.0034425904 -0.09716537 0.057700355 0.119425274 -0.015391626 0.04981431
-0.0014921102 0.0077411374 -0.075553715 -0.08516285 0.12149971 -0.08800933 0.14072353 0.13932094
-0.19648914 0.25405523 -0.07642883 0.01860954 0.05124943 0.07134332 0.0705309 -0.1392897
-0.2018914 0.5286711 -0.007847132 -0.040071707 -0.08074842 0.80587447 0.26076457 -0.21952233
0.044845738 -0.22033803 -0.2007881 -0.1884505 -0.21569747 -0.23700899 -0.05023394 -0.21199125
-0.038648393 -0.106429845 0.07255445 -0.06556048 0.078623004 -0.30066723 0.18576646 -0.20950148
-0.35986757 0.35907754 -0.023469541 0.11871126 0.1245613 0.26284358 -0.03528025 0.29243618
0.015778266 0.025426447 -0.25000834 -0.2068805 0.17675962 0.2412585 -0.08110104 -0.048269857
-0.17385572 0.09987856 -0.38304976 0.2284356 -0.022694103 -0.2526231 0.09116308 0.03441439
-0.30638927 0.2690212 -0.107276194 -0.0006839286 -0.24997707 -0.2772193 0.1794342 -0.019185545
0.1506349 0.6008332 0.1892281 -0.20338029 -0.07078436 0.31114015 -0.028217023 -0.011210726
0.0393364 -0.10234667 -0.12950872 0.08455967 0.07998347 -0.20949224 0.113015674 0.067023985
-0.0045007104 -0.045105357 0.1828576 0.008871623 -0.0056469752 0.012387035 0.14678186 0.15196955
0.029720064 -0.082188286 0.06644334 0.05008618 0.11959802 0.03137061 -0.07159397 -0.008824197
-0.044190276 0.053241875 -0.1284584 -0.061489318 -0.16632736 -0.12137908 -0.17727876 0.1817396
-0.039225224 -0.09189973 -0.053531893 -0.11797653 -0.15642746 -0.04127624 -0.09746922 0.001999965
0.016771002 0.07690117 0.0030614415 -0.014606776 -0.17056896 -0.024466513 -0.118832484 0.04310647
0.12866524 0.12838085 0.17351583 -0.010950242 0.092489116 0.036274124 0.020839067 0.10478029
-0.06464384 0.010994148 -0.10160037 -0.14147814 -0.13254912 0.03020656 0.007350793 0.11932248
0.0059021157 0.13294865 -0.08348935 -0.02372696 -0.021097187 -0.07514145 0.032793358 0.09312897
-0.04202652 0.120524116 -0.04455587 -0.07693999 -0.03379271 0.03634805 -0.08796653 -0.11876976
0.023471935 0.08960991 0.036830917 -0.013419127 0.032630865 -0.021722432 0.14325063 0.15407513
-0.16793446 0.050008606 0.13486454 0.21113512 -7.981167e-05 -0.059861876 -0.21846402 -0.1310026
-0.17355408 -0.04552612 0.04175824 -0.0602771 0.1478377 -0.019165054 -0.12554693 -0.16227892
0.07829457 0.09681865 0.051182907 -0.03304286 0.02640095 -0.05482867 0.031615246 -0.10547632
-0.12727873 0.034508865 -0.066857 -0.02479835 -0.07755108 0.23604585 -0.10899312 0.085849866
-0.04545067 -0.06680045 -0.01078946 0.21485831 0.02472076 0.23717302 -0.05523452 -0.0671693

cell.gru.bias_ih f4 [192]
00000000: 87f8 e53d 01d8 833d b18c 00be 6ec0 4f3d
00000010: 2a3c 8e3d 36a4 5f3d 3c07 08be 3b93 c5bd
00000020: 22d1 0abe 70a5 9a3d 2c86 823a f060 8d3d
00000030: 42ad 263d 6e83 1d3c 952f e5bd 0bdb ddbd
00000040: 8c4f 44be 4542 843d 2407 81bd 5030 b3bd
00000050: 352d ff3d b7cb 113c a106 74bd 758f e33c
00000060: 4012 ecbd 0d5f 9dbd 2916 d4bd 4fb8 02bc
00000070: 6229 cbbd 6f55 13be 2b3f 15be 9907 373e
00000080: c1c9 b13d 0368 86bd d540 8f3d 29fc 8ebd
00000090: be80 aabc bdd7 913d 658b 01be fee9 093e
000000a0: 7eab b1bd ed45 a53d 2710 2abe 57b4 12bc
000000b0: 8c1e cc3d 3163 493d cbc6 2c3d 4a88 75bd
000000c0: 54fb 8b3d 4931 c5bc 6ae4 3fbd dc88 92bd
000000d0: 4239 cebd 0075 14bd c226 88bb 687a 49bc
000000e0: f045 863a 2bc6 8c3d 3058 52bd 339e 3fbd
000000f0: f1cf d23b 044b f13b 26df 56bc b6be 913d
00000100: 6f5f 543d 990b 8fbc 08b1 c93d 9d0e d83c
00000110: 897b b9bd ae29 1dbd fb86 92bd 8163 a93d
00000120: ce80 733c 26f9 0f3e 6da7 eebc 2297 073e
00000130: e933 e23c 3f3a 173d 15bf 243e 621f cabd
00000140: c618 a6bd 4fb7 213e 07a0 e83c aead b23d
00000150: a788 3dbc f740 babd 4aba d93c b419 8c3d
00000160: f06a 773c 0a3f f0bc 8f3f 313e 90db cc3d
00000170: 6644 19be 8997 e33d f9e4 74bd 9079 91bc
00000180: aa71 aa3d ab65 cd3d 25ea bc3d 2a65 b5bd
00000190: ca00 db3d 95ea 193e bc12 423e a17e bf38
000001a0: 49be b5bd 086b b63d 8bc8 523e b485 dc3c
000001b0: 3dfa a13d ea17 dcbc 1495 453e 274a 183e
000001c0: b1df 493e c2a6 353e 9a7c 5bbd d238 d7bd
000001d0: 2a84 123e 40fa febb 3ca0 05ba dea1 a93d
000001e0: 06ef fc3c 48d5 ba3d 0a10 c43c 3763 e1bc
000001f0: 859d f43d 4a23 13bd 4ea2 8b3d 4862 d8bd
00000200: 6e54 12bd beb1 80bd 5f2c 59bd 1fa5 8ebd
00000210: 01f3 773d f9d0 83bd 8e08 a53d 5296 373c
00000220: a596 d33d abb7 0f3d d53a 26bd 6b14 953c
00000230: e71f de3d af91 32bd f6b1 e5bc 54d0 9fbd
00000240: 6511 cd3d a71f a9bc 42ba e1bc 8952 0ebe
00000250: 2904 3fbc 0f35 60bd 223a a23d 010a a9bd
00000260: cd7b a63d 09d4 9d3d 2de7 733d 3a8b 5f3d
00000270: 1769 a83d 42cf dc3b a9b9 2dbc f976 613d
00000280: 1f69 e13d b8d1 49bd 8177 fbbb ca83 ff3b
00000290: bbf9 f23d e1df 913d 15dd 39bd e562 8d3d
000002a0: 95df 7cbd fbb8 913d 4052 16bc 2fc6 b73c
000002b0: a23e 5ebc 5afc 2e3d f5c2 68bd 37cd 87bc
000002c0: 962d 96bd 5df8 eb3b 7227 c03d 6d21 503c
000002d0: d466 c8ba 0e26 9d3d 3989 373d c891 f6bd
000002e0: 9f53 a2bc 5b23 533d 0726 c6bb aa63 80bd
000002f0: 69d9 853d 438b a33d d7bb ae3c cdab a83b
0.112290435 0.06437684 -0.1255367 0.050720625 0.06945069 0.054599963 -0.1328401 -0.096472226
-0.1355634 0.07551086 0.0009958199 0.06903255 0.040692575 0.009613855 -0.11190716 -0.10832795
-0.1917097 0.064579524 -0.0630019 -0.08749449 0.124597944 0.008898667 -0.059576634 0.027778367
-0.115269184 -0.07684145 -0.10355789 -0.007978513 -0.099200025 -0.14388059 -0.14574878 0.17873992
0.0868106 -0.065628074 0.069947876 -0.069816895 -0.020813342 0.07121227 -0.12650831 0.13468167
-0.08675288 0.08069978 -0.16607724 -0.008954129 0.09966764 0.049166862 0.04218177 -0.05994443
0.068350464 -0.024071353 -0.046848692 -0.0715501 -0.10069515 -0.036244392 -0.004155011 -0.01229725
0.0010244232 0.06873735 -0.051353633 -0.04678173 0.00643348 0.007363679 -0.013114726 0.07116453
0.051848825 -0.017461585 0.09848219 0.026374156 -0.090567656 -0.038369827 -0.07154652 0.08270932
0.014862252 0.14059886 -0.02913257 0.13241246 0.027612643 0.036920782 0.16088517 -0.09869267
-0.08110194 0.15792583 0.02839662 0.08724533 -0.011568225 -0.09094422 0.026578087 0.0684084
0.0151011795 -0.029326934 0.17309402 0.10002816 -0.14967498 0.111128874 -0.059788678 -0.01775816
0.08322461 0.10029157 0.09224347 -0.08857186 0.1069351 0.15030892 0.18952459 9.131176e-05
-0.08874185 0.08907133 0.20584314 0.026919223 0.07909057 -0.026866872 0.1929515 0.14872037
0.19714238 0.17739394 -0.053585626 -0.105088845 0.14308229 -0.007781297 -0.0005097424 0.08282827
0.030875694 0.091227114 0.02393343 -0.02751313 0.11944107 -0.035922326 0.068180665 -0.10565621
-0.03572505 -0.06283902 -0.05302083 -0.06965088 0.06053448 -0.06436343 0.08058272 0.011205273
0.103314675 0.03508727 -0.04058345 0.018198213 0.10845929 -0.043595966 -0.02803896 -0.07803407
0.10013083 -0.020644976 -0.027554635 -0.13898672 -0.011658707 -0.0547381 0.07921244 -0.08253861
0.08129082 0.07706458 0.05954664 0.054576136 0.08223169 0.0067385742 -0.010603347 0.0550451
0.110063784 -0.04927227 -0.007674158 0.007797693 0.118640386 0.0712278 -0.045376856 0.06903628
-0.061736662 0.0711536 -0.009174883 0.022433368 -0.0135647375 0.04272113 -0.05682655 -0.016577346
-0.073329136 0.007201238 0.093825236 0.012703282 -0.0015289434 0.07673274 0.0448086 -0.12039524
-0.019815264 0.05154739 -0.0060470137 -0.062690094 0.06535608 0.079855464 0.021329803 0.0051474334

cell.gru.bias_hh f4 [192]
00000000: 2edb 28bd daff 8a3d fa15 c4bd db7c 21be
00000010: db0e abbd 03ad 803d bcdc 09be 8828 96bc
00000020: c44c 07be 1f3a e0ba 5bec 9abc d427 3ebd
00000030: 80fc 0fbb 3543 51bd 01cd 80bd 1dbd a23d
00000040: b0fe c4bb f2d1 8e3d 1563 95bd 6486 13be
00000050: 9602 b9bc a52f 253e 6476 703d 42d5 96bd
00000060: 79a7 84bd 72e6 e33d ff00 f7bd 1e25 18be
00000070: 53a3 b0bb fef4 c4bd 4e6e 133d bc63 46bc
00000080: 3e18 85bd ceaf bdbc 7814 8abd aa78 86bc
00000090: 687f be3d 2d9d 3f3d c5a0 37be 3412 033d
000000a0: 83c6 53bd d410 d83d 18fc d5bd 5449 57bc
000000b0: 91d0 853d 3b73 29be 1fe2 53bd a8e0 343d
000000c0: c84f cabd 2247 473d 7f56 853c f27d df3d
000000d0: 6933 dabd 4685 aebd 8a61 21bd 0c74 363b
000000e0: e541 feba 1b30 823d 4592 dfbc 38cf 363d
000000f0: 9850 bebd 247f 27bd 7aab 01be 377d 013e
00000100: 6432 d1bc c1e7 063e f754 443e e649 673e
00000110: 2daa cb3c 24fb 04be e081 f3bd 7ce0 f43d
00000120: c44b 113e f8da 113c a43c f93c 1c15 14bd
00000130: 939a 20bd 56e3 803c 1735 3e3c aa85 67bc
00000140: 207b a4bd dfc3 0d3e 9d46 373d 4497 abbd
00000150: 737a 3e3e 90db 0a3c 9456 5b3c 1ca4 f93d
00000160: 2a04 bfbd a384 a1bb 073d a23d 38ac 29bd
00000170: 0340 8abe 5a12 1c3e 1a07 86bd f225 853a
00000180: c3b9 353d bed7 aabc a3e5 a7bd e9cb 8bbd
00000190: 1e27 333c ebe5 3e3e 5707 5c3d 1c95 393e
000001a0: 9251 053c c9c3 45bd df90 c13a 01b8 91bd
000001b0: d7f2 6ebd fbe1 263e 6469 543d 96bd 703c
000001c0: 3150 163d 4ccb ba3d ed67 06bd 775b ee3c
000001d0: 443d 83bc f6ac a0bd 65ff ed3d e7f2 123e
000001e0: c62c 163c 24fd 103b f691 8ebc 4db5 e43c
000001f0: 9f82 103e 1139 b13b 778f dbbc 7d84 8abc
00000200: aea8 fabc 9e1e 5e3c 09ef 08bd 352b 97bd
00000210: faa0 db3c 125c e93c 5b3c 3ebd 5262 a9bd
00000220: f5e5 5abc 3e9d bb3c 1bd8 ce3d 6c84 d83c
00000230: f5d1 183d d55d 1dbd 7b6a 2e3d 0b35 febd
00000240: faea 76bb 65aa 60bd 0477 aa3d 8a63 cc3d
00000250: 8f09 cb3d 09fa 793d 0118 aabd aba8 15bd
00000260: 1852 d13d 65b7 dcbd 08b0 bd3b 438b 5b3d
00000270: a1d2 c3bc 788d e33c fdbd 42bd 6dc6 f7bc
00000280: 9e9c 043d b1d0 d73d 181b e7bd d0c0 a1bd
00000290: 5ff1 6f3d 9f6d af3d 41a9 77bd 34fa c1bd
000002a0: 0b63 64bd ded2 a23d 731d f7bb be40 d23d
000002b0: 7992 fcbd 02d7 8d3d cfb6 0d3e a13d 483d
000002c0: 886d ec3c 66bd d03d c531 723c 5be2 05be
000002d0: 3c4d 9dbd 268f 423d 4eb1 87bc 6d6f 19bb
000002e0: ea4a e83c 5438 e2bd d954 75bd 3e75 d33d
000002f0: c599 903d 7f4a 77bd d487 88ba 2a10 31bd
-0.04122465 0.06787081 -0.09574504 -0.15770285 -0.08352443 0.06282999 -0.1346311 -0.018329874
-0.13212878 -0.0017107165 -0.018911531 -0.0464247 -0.002197057 -0.051089484 -0.062891014 0.07946227
-0.0060118064 0.06973638 -0.07294289 -0.14406735 -0.02258424 0.16131456 0.058706656 -0.073648944
-0.064772554 0.11127938 -0.12060737 -0.14857909 -0.0053905635 -0.09617041 0.035993867 -0.012108739
-0.064987645 -0.02315512 -0.06742185 -0.016414959 0.093016446 0.046780754 -0.17932422 0.03199978
-0.051702987 0.10550085 -0.10448474 -0.013140041 0.065339215 -0.16547863 -0.051729318 0.04415956
-0.09878498 0.048651822 0.016276596 0.10912694 -0.10654337 -0.08521514 -0.03939966 0.0027840165
-0.00193983 0.06356832 -0.027291426 0.044631213 -0.09292716 -0.040892735 -0.1266307 0.12645422
-0.025536723 0.13174345 0.19173037 0.22586784 0.02486142 -0.12986428 -0.11890006 0.119568795
0.14189059 0.008902304 0.030424424 -0.036152944 -0.039209913 0.015733402 0.011609337 -0.014130989
-0.08031297 0.1384425 0.044745076 -0.08378461 0.18601398 0.008475199 0.013387341 0.121895045
-0.09326966 -0.0049291416 0.07921796 -0.041424006 -0.27001962 0.15241376 -0.06544323 0.0010158403
0.04436661 -0.020854827 -0.081980966 -0.06826002 0.010934619 0.18642394 0.053717937 0.18123287
0.008137124 -0.04828242 0.0014767906 -0.07115174 -0.05833706 0.16297142 0.05185832 0.014693638
0.03669757 0.09120807 -0.032813955 0.029096348 -0.016020425 -0.0784549 0.11620978 0.14350472
0.009165948 0.002212354 -0.017403584 0.027918482 0.14112328 0.005408414 -0.026801808 -0.016908878
-0.03059801 0.013557104 -0.033431087 -0.07381288 0.026810158 0.028486285 -0.04644428 -0.08270706
-0.01336049 0.022902127 0.100998126 0.026430331 0.037309606 -0.038419563 0.042582016 -0.12412461
-0.0037676678 -0.05485 0.08323482 0.09979923 0.099139325 0.061029468 -0.0830536 -0.036537807
0.10220736 -0.10777167 0.005788807 0.053599607 -0.023904147 0.027777418 -0.04754447 -0.030245984
0.032375924 0.105378516 -0.112844646 -0.07898104 0.0585798 0.085658304 -0.060464147 -0.094715506
-0.055758517 0.07950376 -0.0075413524 0.10266255 -0.12332625 0.06925775 0.13839267 0.0488869
0.028860822 0.10192375 0.014782374 -0.13074629 -0.07680747 0.0474998 -0.016564038 -0.0023412362
0.028356034 -0.110459 -0.05989537 0.103250965 0.07060579 -0.06037378 -0.0010416456 -0.043228306

fc_out.weight f4 [3, 64]
00000000: 4851 c2bc 2c0a 0a3f d62c 9e3c 1de1 ebbc
00000010: ebe1 bc3d 6e45 6a3e 637c 093d 7cfe 903d
00000020: e676 fabe a22c 053e e9d0 42be 81a4 40bf
00000030: 05db fc3d e819 893e 2b2b b3be 9a13 f7bd
00000040: a64b 42be a001 073e 6138 633e aca6 07bd
00000050: 87b0 a8be 70ba 47be 894e d5bd dd8a a5be
00000060: 755e 9c3e 4f09 d1bd 7adf 343e 53cc fb3d
00000070: 112e 2a3e d7db 90bc 44c6 54bc bc25 753e
00000080: 978b 5dbd 119e 893d 7ba2 9b3d e8f4 11be
00000090: e927 e13d ce5d 65bd 443a f3bd 45f2 b43b
000000a0: eb89 9b3d f192 b3bc 7d03 313b 3d63 193e
000000b0: 58a1 af3c f799 19be bda4 293e a5f6 31be
000000c0: a9b6 893c 1c7c 87bd 6618 263d 3930 273d
000000d0: 31ad 3bbe b148 ae3d 6b3b 7ebd 1f16 ad3e
000000e0: 378a 1c3e 63da 323f 7281 373e a3d9 03bd
000000f0: 4f4e 983d f098 923e 7822 77bd fe2f 4fbf
00000100: dfc8 1d39 cb6f f83e 198c f0bd d4aa 27bd
00000110: 251b c33c fa2b 4e3e 30cc 31bd 3098 1d3e
00000120: 3aed d4be ca26 a33c 9b4c a4bd d033 37bf
00000130: 353b 0c3d 7722 443e 127c a9be 8f72 ffbd
00000140: 9130 1ebe b102 443c 0189 0a3e 0226 52bd
00000150: 76ab b2be 3455 1fbe b7d0 07be fa12 91be
00000160: f45a 993e dbde 1cbe 2b14 173e 0c8a ec3d
00000170: 7ad3 c73d 1dfd 673d 12ad 16bc 27f0 883e
00000180: 5db9 54bd 129b 0f3e 7b5e 51bd 3a56 10be
00000190: d149 233e 9600 34bc 31c3 78bd 0e5a 03bd
000001a0: d9bc b73d a62f 4dbd ca1d 9c3c 4d03 0c3e
000001b0: ef35 253d 21dd 13be 6341 773e ebd4 3ebe
000001c0: f1e3 9a3b d7f5 93bc 35b6 053e eb3e 0b3e
000001d0: 5e36 1cbe 7c62 40bb 3394 a3bd 7e41 bc3e
000001e0: b9b5 dd3d 17fa 2d3f 26b5 613d 49ec 443d
000001f0: c094 543d 1ca0 4c3e 6add 38be 02bd 47bf
00000200: a65c 1cbb 5fbf d93e 0cdf b1bd 6fb4 a1bd
00000210: b6b6 093d 50b3 363e eb44 5abd 27fe 8b3d
00000220: f937 b3be ac3e 92bd 0b11 20bd 2166 30bf
00000230: 841a 063e 9084 353e 136b aebe 0972 00bd
00000240: e70d 02be ed95 013e 6c5b 413d 85ef 4fbd
00000250: 04d4 bdbe 1c65 60be dddb fbbd 8c82 87be
00000260: e06d 993e b474 3dbe 51d0 063e 5070 e73d
00000270: e47f 1e3e 5d2d 843d 762d 88bd 50ca 883e
00000280: d704 58bd 8c26 f03d bf57 71bd 4656 f6bd
00000290: d39b a13d 471e 273d d4a4 25be 07a6 9abd
000002a0: 4328 87bc 92b3 81bd ef3c 4d3d a75a bc3d
000002b0: c33c 583d 307b 15be d4df aa3d 839d 4fbe
000002c0: fe6f d5bc b74d 093d 18f9 983d 0436 fa3d
000002d0: 6cb7 78be 12b0 6fbc 11db 603a cbf5 c23e
000002e0: b485 db3d 7af8 283f 6c4c f03d dff8 eb3b
000002f0: 94b0 573d a349 0d3e d38d 25be 2d3f 3cbf
-0.023720399 0.5392177 0.019308489 -0.028793866 0.09222778 0.22878048 0.03356589 0.07079789
-0.48918837 0.13005307 -0.19025005 -0.75251013 0.12346462 0.26777577 -0.34993872 -0.120642856
-0.1897417 0.13184214 0.22189476 -0.033117935 -0.3294718 -0.19504714 -0.1041537 -0.32332507
0.30540815 -0.102068536 0.17663375 0.12294831 0.16619135 -0.017682953 -0.012986723 0.23940176
-0.0540882 0.06719602 0.0759935 -0.1425358 0.109939404 -0.055997662 -0.11876348 0.005522045
0.07594665 -0.021920653 0.0027010136 0.14979263 0.02143924 -0.15000139 0.16566749 -0.17379244
0.016810732 -0.06615469 0.040550612 0.040817473 -0.18327786 0.085099585 -0.062068384 0.3380594
0.152871 0.6986448 0.17920473 -0.032189976 0.07436811 0.28632307 -0.060335606 -0.80932605
0.00015047517 0.4852279 -0.117454715 -0.0409344 0.023816654 0.20133963 -0.04340762 0.15390086
-0.4158724 0.019915957 -0.08022424 -0.71563435 0.03423615 0.19153772 -0.3310247 -0.12473022
-0.15448214 0.011963532 0.13528825 -0.05130578 -0.3489644 -0.15559846 -0.13263212 -0.2833479
0.29952204 -0.15319388 0.14753787 0.11549768 0.09757133 0.056637872 -0.009196537 0.26745722
-0.05193459 0.14023998 -0.051115494 -0.14095393 0.15946127 -0.010986468 -0.060733024 -0.032068305
0.08971567 -0.05009427 0.019057173 0.13673134 0.04033464 -0.14439823 0.24146037 -0.1863591
0.0047268798 -0.018061562 0.13057788 0.1359822 -0.15255114 -0.0029355576 -0.07987251 0.36768717
0.108256765 0.6795973 0.055104397 0.0480769 0.05189967 0.19982952 -0.18053213 -0.7802278
-0.0023858934 0.42528817 -0.08685121 -0.07895743 0.033621512 0.1784184 -0.05328838 0.06835585
-0.3500364 -0.0714086 -0.039078753 -0.68905836 0.13096052 0.1772635 -0.34066066 -0.031358752
-0.12700616 0.12654848 0.047206327 -0.050765533 -0.37075818 -0.2191357 -0.12297795 -0.26466787
0.2996664 -0.1850155 0.13165404 0.11300719 0.15478474 0.06453965 -0.06649296 0.26716852
-0.05273899 0.11726102 -0.05892157 -0.12028174 0.07891049 0.04080036 -0.16176158 -0.075511985
-0.01649869 -0.063330784 0.05010694 0.09196978 0.052792322 -0.14597774 0.08343473 -0.2027493
-0.026054379 0.03352138 0.07469386 0.12217334 -0.2428872 -0.014629381 0.00085775653 0.3807815
0.10718861 0.66004145 0.11733326 0.0072012986 0.052658632 0.13797621 -0.16167383 -0.735339

fc_out.bias f4 [3]
00000000: 3be5 11bd 266e 16be e80c fbbd
-0.035619 -0.14690456 -0.12258321
