notebooks/DCRNN/Adj_Dropout_10mins/dcrnn_best.pt (torch, 120504 bytes, 7 tensors)

cell.diff.theta f4 [65, 64]
0	0xbdfb5430	-0.12271917
1	0x3e651218	0.22370183
2	0xbe220781	-0.15823175
3	0x3e28c0bd	0.16479774
4	0xbe7a52dd	-0.24445672
5	0x3dd475f4	0.1037406
6	0xbd82a378	-0.063788354
7	0x3cccb383	0.024987942
8	0x3d24427f	0.040102478
9	0x3d0632ac	0.03276317
10	0x3dfd920c	0.12381372
11	0xbdd01295	-0.10159794
12	0x3e4e96f7	0.20174776
13	0xbd2075d0	-0.039174855
14	0xbe922fbb	-0.2855204
15	0xbe562799	-0.20913543
16	0x3d28d3e2	0.041217692
17	0x3dc662da	0.09686823
18	0x3e2a2216	0.16614565
19	0xbe2faa07	-0.17154704
20	0xbc1b8f7d	-0.0094946595
21	0x3dd49d81	0.10381604
22	0xbe33ea52	-0.17569855
23	0xbdadcc12	-0.08486189
24	0x3dc65aee	0.09685312
25	0x3d920aaf	0.07130944
26	0xbd0d5e80	-0.03451395
27	0xbce228ba	-0.02760731
28	0xbd8aa01a	-0.06768818
29	0x3e7fd2af	0.24982713
30	0xbd720d27	-0.059094574
31	0xbe4a7f78	-0.19775188
32	0xbe5bf833	-0.21481399
33	0x3d9488f0	0.07252681
34	0x3deb0d25	0.114771165
35	0xbe34896b	-0.17630546
36	0xbd06022d	-0.03271692
37	0xbe360395	-0.17774804
38	0x3e89d838	0.26922774
39	0xbb0ce7ec	-0.002150054
40	0xbc1bf51f	-0.009518891
41	0x3d2872d6	0.04112514
42	0x3e13f3c3	0.14448456
43	0x3e6f93e4	0.2339626
44	0xbd992b09	-0.074789114
45	0xbe8008ce	-0.25006717
46	0x3daa9f40	0.08331156
47	0xbce5086f	-0.027958123
48	0x3e5088a9	0.20364632
49	0xbe75da0e	-0.24008963
50	0x3e7471e0	0.23871565
51	0xbe5f2a4f	-0.21793483
52	0x3e38bdf1	0.18041207
53	0x3e92b2be	0.28651994
54	0xbc231f60	-0.009956211
55	0xbd9e1d15	-0.07720391
56	0x3d8904f2	0.06690396
57	0xbdc96efc	-0.09835622
58	0x3d57a410	0.052646697
59	0x3e786d53	0.24260454
60	0xbd0f0e8e	-0.03492599
61	0x3e2a8a87	0.16654406
62	0xbe4e316e	-0.20136043
63	0xbe4e6bb9	-0.2015828
64	0xbcfe836d	-0.031068528
65	0x3c863991	0.016384872
66	0x3cbf5992	0.02335814
67	0xbac526aa	-0.001504143
68	0xbb97b28e	-0.0046294397
69	0xbcb880e6	-0.022522401
70	0x3cb6dfae	0.022323456
71	0x3cdbc1fb	0.026825896
72	0xbd7d5703	-0.06185056
73	0xbd81126a	-0.0630234
74	0x3d805a49	0.062672205
75	0xbac278c8	-0.0014837021
76	0x3d36f895	0.04467066
77	0x3bb12712	0.005406269
78	0xbd9e5ffb	-0.077331506
79	0xbb91dd26	-0.004451412
80	0x3cb8b89c	0.022548966
81	0xbd8926ee	-0.066968784
82	0x3d0f9235	0.035051543
83	0xba25acbf	-0.00063199917
84	0x3ba0a540	0.004902512
85	0x39e74505	0.00044111177
86	0xbd99824c	-0.07495555
87	0x3d7883ec	0.060672686
88	0x3d54219e	0.051789872
89	0xbcf36748	-0.029712334
90	0x3c1ba086	0.009498721
91	0x3d832b36	0.06404726
92	0x3a9792be	0.0011564118
93	0x3d104706	0.035223983
94	0x3c77d3d9	0.015126192
95	0x3c7cb604	0.015424255
96	0x3cef4f4e	0.02921262
97	0x3d9b1d6a	0.0757397
98	0x3b617c06	0.00344062
99	0xbdc74a8b	-0.09731015
100	0xbba87c6f	-0.0051417868
101	0x3ac930ab	0.0015349587
102	0x3ca38e9d	0.019965464
103	0xbd00a63c	-0.031408533
104	0xbd2830e1	-0.04106224
105	0xbbd341b7	-0.006447043
106	0x3d0df476	0.034656964
107	0x3ce06ed2	0.027396593
108	0xbcb471ab	-0.022026857
109	0x3c60e889	0.013727316
110	0x3d89f442	0.067360416
111	0xbc793f24	-0.015212808
112	0x3d3c938c	0.04603915
113	0xbd560451	-0.05225021
114	0x3d4f420c	0.050600097
115	0xbc90b5ad	-0.017664755
116	0x3cb40849	0.021976607
117	0x3d806562	0.06269337
118	0xbd33cbaa	-0.0438954
119	0x3cd782c6	0.026307475
120	0x3d9ee504	0.07758525
121	0xbd92f952	-0.0717646
122	0xbcfacc85	-0.0306151
123	0xbc4af6b5	-0.012387921
124	0x3d643106	0.055710815
125	0x3e0210f5	0.12701781
126	0x3c442000	0.01197052
127	0xbd04d2b6	-0.032427512
128	0xbba3f2ef	-0.005003325
129	0x3b06c378	0.0020563286
130	0xbd577e8a	-0.05261091
131	0xbc69ad37	-0.014262489
132	0xbce30d1d	-0.027716214
133	0xbd37b24a	-0.044847764
134	0x3d2e4b7c	0.042552456
135	0xbcc10003	-0.023559576
136	0xbcf778c8	-0.03020896
137	0x3cab582a	0.020916063
138	0xbc94f65f	-0.018183885
139	0x3db58e84	0.08865073
140	0x3db5eb00	0.08882713
141	0xbd3b254d	-0.04568987
142	0xbcf9e41a	-0.030504275
143	0xbc530759	-0.01288017
144	0x3d84177f	0.06449794
145	0xbcd36661	-0.025805654
146	0x3cbf3fa1	0.02334577
147	0x3c3f9497	0.011693141
148	0xbdbaefc3	-0.09127762
149	0xbcdcb499	-0.026941584
150	0xbcbaff95	-0.02282695
151	0xbc38c6f7	-0.011277906
152	0xbd1436ca	-0.036185063
153	0xbd11b112	-0.035569258
154	0x3d0d65bd	0.034520853
155	0xbcd3f6eb	-0.025874576
156	0x3bb58a41	0.005540163
157	0x3cc2d6dd	0.023784095
158	0xbd100855	-0.035164196
159	0xbc9d9adb	-0.01923888
160	0xbca60f53	-0.020270979
161	0x3d275680	0.040853977
162	0x3c029e59	0.007972323
163	0xbb72b2ea	-0.003703291
164	0xbdd24444	-0.10266927
165	0xbcdd0ffc	-0.026985161
166	0x3ca68c6a	0.020330627
167	0xbc5dc113	-0.013534802
168	0x3cc72d42	0.024313573
169	0x3b827180	0.0039808154
170	0x3c40d13a	0.0117686335
171	0x3d44777b	0.047965508
172	0x3dad8cce	0.08474122
173	0xbccbfd73	-0.024901127
174	0x3d651722	0.055930264
175	0x3cd15690	0.025553972
176	0x3cdb0025	0.026733467
177	0xbcedee0b	-0.029044172
178	0xbc3f7985	-0.011686687
179	0xbd263b5b	-0.04058395
180	0x3d6458aa	0.05574862
181	0x3cbfdf37	0.023421867
182	0xbda9d81f	-0.08293175
183	0x3d0ed23b	0.03486846
184	0x3b71e0b7	0.0036907622
185	0x3c5c01cd	0.013428164
186	0xbd3dd7c3	-0.046348345
187	0x3ceea836	0.029132944
188	0xbd9515f5	-0.072795786
189	0xbd0f4d3c	-0.034985766
190	0xbbf38e7b	-0.0074327565
191	0xbc3457e0	-0.011007279
192	0x3e20b8a2	0.15695432
193	0xbcc824b2	-0.02443156
194	0x3dff558c	0.12467489
195	0x3d1e6f4b	0.038680356
196	0x3d34ae4a	0.044111528
197	0xbdf54a52	-0.11977066
198	0xbe0e2b49	-0.138837
199	0x3dab79d1	0.08372844
200	0x3d5f0bec	0.05445473
201	0x3be80c08	0.0070815124
202	0x3e394557	0.18092857
203	0x3e167d81	0.14696313
204	0x3dccf1ff	0.100070946
205	0xbe02385b	-0.1271681
206	0x3dad47ba	0.084609464
207	0x3de42c48	0.111412585
208	0xbd5a136a	-0.05324117
209	0x3e101e87	0.14074145
210	0xbd821da2	-0.06353308
211	0xbd01abc4	-0.03165795
212	0xbdb07e30	-0.08617818
213	0x3dad9ad0	0.08476794
214	0x3dcec5ef	0.100963466
215	0xbd43c0cf	-0.0477913
216	0x3db99f50	0.090635896
217	0xbc9c318b	-0.019066593
218	0x3c37a0a4	0.011207733
219	0x3d2b7ba3	0.041865956
220	0xbe32e4be	-0.1747007
221	0xbd5d8344	-0.054080263
222	0xbd67be37	-0.056577887
223	0xbbaef04c	-0.005338704
224	0x3d4a294b	0.049355786
225	0x3d50275f	0.050818797
226	0xbe099d0c	-0.13438815
227	0xbbfc89de	-0.0077068647
228	0xbdd1abc6	-0.10237841
229	0x3df2a201	0.11847306
230	0x3d1d2e2f	0.038374122
231	0x3de9115f	0.113802664
232	0x3d832d2a	0.06405099
233	0xbe1abc9c	-0.15111011
234	0xbdb45908	-0.08806044
235	0xbcce3f07	-0.025176538
236	0x3e07a7fa	0.13247672
237	0x3dacaf3b	0.0843186
238	0x3c3a2a71	0.011362658
239	0x3ad32b2b	0.0016110888
240	0xbda9b7bf	-0.08287
241	0x3ded6aa3	0.11592605
242	0x3d328f0a	0.043593444
243	0xbd733fac	-0.059386894
244	0xbd87c675	-0.066296495
245	0xbd375a1e	-0.044763677
246	0x3da93508	0.08262068
247	0x3d9c0358	0.07617825
248	0x3d9a6a3b	0.07539793
249	0x3d9c9fc6	0.07647662
250	0x3c8d820a	0.017273922
251	0xbdb4ae3c	-0.08822295
252	0x3ddda634	0.10822716
253	0xbcdc36dd	-0.02688163
254	0x3aedc6c4	0.0018140902
255	0x3d691581	0.056905273

cell.gru.weight_ih f4 [192, 64]
0	0xbde12044	-0.10992482
1	0xbf3ac599	-0.7295776
2	0xbaa1e4de	-0.0012351533
3	0xbbcdbcd3	-0.006278613
4	0x3f19296c	0.5982883
5	0x3e19d8d4	0.1502412
6	0xbe27aabc	-0.16373724
7	0x3ce988ae	0.028507557
8	0x3e00b532	0.1256912
9	0x3dc3c348	0.09558731
10	0x3e7e008a	0.24804893
11	0xbe51e995	-0.2049926
12	0xbf27d505	-0.65559417
13	0x3dad6042	0.08465625
14	0x3e9a7a15	0.30171266
15	0xbe8347eb	-0.25640807
16	0x3ed10d9d	0.408307
17	0x3ea656a9	0.3248799
18	0xbe426350	-0.18983197
19	0xbde2dffa	-0.110778764
20	0x3de7d21b	0.11319371
21	0xbef45892	-0.47723824
22	0x3eda03c2	0.42580992
23	0xbcf1e01b	-0.029525807
24	0x3e2c7d90	0.16844773
25	0x3e005c9a	0.12535325
26	0x3e84a877	0.25909778
27	0xbe99cc90	-0.3003888
28	0x3dd15237	0.10220759
29	0xbed45ea6	-0.4147846
30	0x3db9c351	0.09070457
31	0x3eaac8da	0.33356363
32	0x3d9804fb	0.07422825
33	0xbe0fe944	-0.14053828
34	0x3d95a9aa	0.073077515
35	0x3e0a9985	0.13535126
36	0xbed1f614	-0.41008055
37	0xbdbb6703	-0.09150507
38	0xbda36d48	-0.07979828
39	0x3e283bb7	0.1642903
40	0xbd9055c6	-0.0704761
41	0x3e7b7841	0.24557592
42	0xbf0cf74f	-0.5506486
43	0xbf150f2d	-0.5822628
44	0xbed3622a	-0.4128583
45	0x3ed08b23	0.40731153
46	0xbe751bde	-0.23936412
47	0xbd73317d	-0.059373368
48	0xbd2d4e5a	-0.04231105
49	0x3e7aecad	0.24504347
50	0xbe1b99a2	-0.15195325
51	0x3e0c4004	0.13696295
52	0xbebe7d9d	-0.3720521
53	0xbd3dc118	-0.046326727
54	0x3ea65f26	0.32494467
55	0xbd093c4a	-0.03350476
56	0xbddc91aa	-0.10769971
57	0x3e059548	0.13045228
58	0xbd83547d	-0.06412599
59	0xbda216ce	-0.07914506
60	0xbec8a7eb	-0.3919061
61	0x3dab0ab3	0.0835165
62	0x3e9aaf9d	0.30212107
63	0x3d90173b	0.07035681
64	0xbdf86b77	-0.12129872
65	0xbc75d94b	-0.01500542
66	0xbe30de3e	-0.17272279
67	0xbd846fc2	-0.064666286
68	0x3dea9b2f	0.1145538
69	0x3c623f7e	0.013809083
70	0x3e432333	0.19056396
71	0xbdaefcf0	-0.08544338
72	0xbeb4257b	-0.35184845
73	0x3e17082b	0.1474921
74	0xbf09c516	-0.53816354
75	0xbde494b1	-0.11161173
76	0x3e708fdf	0.23492382
77	0x3edb7bee	0.42867988
78	0x3e2cf34c	0.16889685
79	0xbd916d11	-0.07100881
80	0x3e7a540f	0.24446128
81	0xbe31759c	-0.1733002
82	0xbc095f43	-0.008384529
83	0x3f10daf7	0.56584114
84	0xbe6f75d0	-0.23384786
85	0x3d2127e5	0.039344687
86	0x3f191151	0.5979205
87	0x3e2cd047	0.16876327
88	0xbf22d365	-0.6360381
89	0x3c467af6	0.012114277
90	0x3dd185da	0.10230608
91	0xbefee10b	-0.4978107
92	0x3ee56e0f	0.4481053
93	0xbdc07343	-0.093969844
94	0xbbd76480	-0.00657326
95	0x3ddaff41	0.10693217
96	0xbd4aa7b8	-0.049476355
97	0xbdc4ddfe	-0.09612654
98	0x3e2cc8f0	0.16873527
99	0x3cb8ef68	0.022575095
100	0xbe4f8d30	-0.20268703
101	0xbcccea74	-0.02501414
102	0x3cd1b952	0.025601063
103	0xbe7997ef	-0.24374364
104	0xbd44d378	-0.048053235
105	0x3e552cba	0.20817843
106	0xbd572088	-0.05252126
107	0xbe53ace7	-0.20671426
108	0xbce9e151	-0.028549822
109	0x3e7c9abc	0.24668401
110	0xbdd20c0d	-0.10256205
111	0xbb64b7f7	-0.003489969
112	0xbde2a3a1	-0.11066366
113	0x3cb70926	0.02234323
114	0xbe3e35d9	-0.18575229
115	0x3e3c4edf	0.18389462
116	0xbe236427	-0.15956174
117	0xbe0ba8e8	-0.13638651
118	0xbd88b1e4	-0.06674555
119	0x3dcc2cfa	0.09969516
120	0xbe39e599	-0.18153991
121	0xbd98e4af	-0.07465493
122	0xbd510560	-0.051030517
123	0xbd2859f7	-0.041101422
124	0xbe3371ed	-0.17523928
125	0x3d0bb660	0.034109473
126	0x3df85530	0.12125623
127	0xbdda644c	-0.10663661
128	0x3d61e683	0.055151474
129	0x3ed4cecb	0.4156402
130	0x3e163d8e	0.14671919
131	0x3ef96bef	0.4871516
132	0xbea28dfe	-0.31748956
133	0x3ea0346a	0.3128999
134	0xbd58b9ff	-0.052911755
135	0xbe24f1ae	-0.16107818
136	0x3e1e987d	0.15487857
137	0x3ce59f49	0.028030055
138	0x3e4cab4d	0.19987221
139	0x3e912133	0.28345641
140	0x3ed2f4d9	0.4120243
141	0xbe21216c	-0.15735406
142	0xbed3cbf0	-0.4136653
143	0xbe0413b7	-0.12898146
144	0x3c5e9721	0.013585837
145	0x3d80706b	0.06271442
146	0x3ed1f574	0.41007578
147	0xbea61ee3	-0.3244544
148	0xbdafd6cd	-0.08585892
149	0x3e877908	0.26459527
150	0xbe847910	-0.25873613
151	0xbe64072e	-0.22268364
152	0x3ea6c5de	0.32572836
153	0x3e85e287	0.2614939
154	0xbdb20ade	-0.08693479
155	0x3e4ccf1b	0.2000088
156	0xbe4ee0e2	-0.20202973
157	0x3e896cd4	0.26840842
158	0x3e702da2	0.23454908
159	0xbf07ebe2	-0.53094304
160	0xbdac126e	-0.08401953
161	0x3e9100e9	0.28321007
162	0xbdae34a8	-0.08506137
163	0xbd13d2e7	-0.036089804
164	0xbe2a5d8e	-0.16637251
165	0xbd6a6701	-0.05722714
166	0x3eed53b3	0.4635292
167	0x3d17feaf	0.03710812
168	0xbcbec812	-0.02328876
169	0xbb9b8bc5	-0.0047468864
170	0x3cc160ce	0.02360573
171	0x3f25b9e2	0.6473676
172	0x3d8de2e6	0.06928043
173	0xbea83d90	-0.32859468
174	0xbe7a0ffa	-0.24420157
175	0x3e71120d	0.23542042
176	0x3eb69165	0.35657802
177	0xbdc8005a	-0.09765692
178	0x3efb3706	0.49065417
179	0xbf0faeb8	-0.56125975
180	0xb92342a0	-0.00015569711
181	0x3e24a711	0.16079356
182	0xbcf7226b	-0.030167779
183	0x3e8effb0	0.2792945
184	0x3eb1a306	0.3469469
185	0x3d402284	0.046907917
186	0x3e351094	0.17682105
187	0x3e0b0a5d	0.13578172
188	0x3d812081	0.06305028
189	0xbe8ab593	-0.27091655
190	0xbee1f47a	-0.44131833
191	0xbe82a245	-0.25514427
192	0xbd7d028d	-0.06177001
193	0xbe4ae15e	-0.19812533
194	0x3e8f683b	0.2800921
195	0x3ea986c2	0.33110625
196	0x3df85012	0.12124647
197	0xbe0141be	-0.12622735
198	0x3e56b4b9	0.20967378
199	0xbd94ada4	-0.07259682
200	0xbc0440ea	-0.008072117
201	0xbd22c93d	-0.039742697
202	0x3ed6d60d	0.41960183
203	0x3c27460c	0.010209572
204	0x3e4a7868	0.19772494
205	0x3e832829	0.25616577
206	0xbd20449e	-0.03912794
207	0xbe5b4095	-0.21411355
208	0x3e8e4699	0.27788237
209	0xbeec61f8	-0.46168494
210	0x3e2a8c73	0.1665514
211	0xbe7b4341	-0.24537374
212	0x3d9d25b4	0.07673207
213	0xbe68c878	-0.22732723
214	0x3e85be91	0.26121953
215	0x3e6743de	0.22584483
216	0x3d0d1a9f	0.034449216
217	0x3e1741cc	0.14771193
218	0x3cf63f05	0.030059347
219	0xbe33ad19	-0.175465
220	0x3ef14728	0.471246
221	0xbdf60ccd	-0.1201416
222	0x3dcfa90f	0.10139667
223	0xbe890a9e	-0.26765913
224	0xbe512fc0	-0.20428371
225	0x3e5f0cf5	0.21782286
226	0xbea22aee	-0.31673378
227	0xbeccd895	-0.4000899
228	0xbee1e7f3	-0.44122276
229	0xbd9cc55d	-0.076548316
230	0x3eb9dcf0	0.36301374
231	0x3dae4a48	0.08510262
232	0xbd5b942e	-0.053608112
233	0xbe2a9e79	-0.16662015
234	0x3e747ab7	0.23874937
235	0x3ebaf1f4	0.3651272
236	0x3cfa28ba	0.030536998
237	0x3f0046bf	0.5010795
238	0x3eb27185	0.34852234
239	0x3d56dc1d	0.05245601
240	0x3e2ff416	0.17182955
241	0x3e24cf0d	0.16094609
242	0x3d9f0ce2	0.07766129
243	0xbf38f818	-0.7225356
244	0xbdb69780	-0.08915615
245	0x3e807b8e	0.25094265
246	0x3df8c17d	0.1214628
247	0xbe23cece	-0.15996858
248	0xbc0ae4c4	-0.008477394
249	0xbe3655c5	-0.17806156
250	0x3e4294fa	0.19002143
251	0xbcaf2e65	-0.021384427
252	0x3d02d80a	0.031944312
253	0x3f04a5db	0.51815575
254	0xbd790c58	-0.060802788
255	0xbe8f1578	-0.27946067

cell.gru.weight_hh f4 [192, 64]
0	0x3f6efb2f	0.93352026
1	0xbe1379f5	-0.14401992
2	0xbece3b29	-0.4027951
3	0xbee74079	-0.45166376
4	0xbf1a0955	-0.6017049
5	0xbe2af1dc	-0.16693825
6	0x3f0197e3	0.50622386
7	0x3ece2907	0.40265676
8	0xbe1e7f7f	-0.15478323
9	0xbe9b38ba	-0.30316716
10	0x3bf0715d	0.0073377327
11	0xbec3d61e	-0.38249296
12	0x3d43a9d2	0.047769375
13	0xbf052cc3	-0.52021426
14	0x3ed819a0	0.4220705
15	0xbe20adef	-0.1569135
16	0xbf0301bf	-0.5117454
17	0x3ccfb65c	0.02535551
18	0xbd920c71	-0.07131279
19	0xbedf19e9	-0.43574455
20	0xbe10a8bc	-0.14126867
21	0xbe503fa4	-0.20336777
22	0xbed9c24c	-0.4253105
23	0x3f2ed627	0.6829552
24	0x3f15a2fd	0.58451825
25	0x3e91db74	0.28487742
26	0x3da633d7	0.081153564
27	0x3e59b8ee	0.21261951
28	0x3f0db37c	0.55351996
29	0x3f158692	0.58408463
30	0x3c99aa63	0.018758005
31	0xbe1b0eb3	-0.15142326
32	0xbe0cc83e	-0.13748261
33	0xbe3121d7	-0.17298065
34	0xbe847212	-0.2586828
35	0xbe9235d1	-0.28556684
36	0xbebe71f6	-0.3719632
37	0x3e322255	0.17395909
38	0xbe5efd96	-0.21776423
39	0x3e0c3437	0.13691793
40	0xbe670cd9	-0.22563495
41	0x3dad80b1	0.084718116
42	0x3ebc5503	0.3678361
43	0x3f37053a	0.7149235
44	0xbd9d5ee3	-0.07684114
45	0xbe4a1584	-0.1973477
46	0xbe1b5c60	-0.15171957
47	0x3ecc02ed	0.39845982
48	0x3db86fd5	0.09005705
49	0xbe419e1e	-0.18907973
50	0xbf2ff953	-0.68739814
51	0xbebfdab9	-0.3747156
52	0x3e77fb76	0.24217018
53	0x3dcfc892	0.101456776
54	0xbe23b59a	-0.15987244
55	0xbec84ad6	-0.39119595
56	0xbe6e5e83	-0.23278241
57	0x3ec09936	0.3761689
58	0x3ea9ba01	0.33149722
59	0xbeca6262	-0.39528185
60	0x3f513f71	0.8173743
61	0xbf842e42	-1.0326617
62	0xbe02c52f	-0.12770532
63	0x3e58526b	0.2112519
64	0xbd6694fd	-0.05629443
65	0x3e97ba0f	0.2963414
66	0x3da7870c	0.08180055
67	0xbc036a88	-0.0080210045
68	0xbf21f9db	-0.63271874
69	0xbaca3948	-0.0015428448
70	0xbc8886a3	-0.016665762
71	0xbf344056	-0.7041067
72	0xbe3fe66d	-0.18740244
73	0xbd2fa542	-0.04288221
74	0x3ec44c43	0.38339433
75	0x3d45de1a	0.048307516
76	0xbe863902	-0.26215369
77	0x3e417f78	0.18896282
78	0x3e13fcff	0.14451979
79	0xbef0e022	-0.47046
80	0xbd8bea70	-0.06831825
81	0x3e07508b	0.13214318
82	0xbe5b8b1d	-0.21439786
83	0xbe8ea2d5	-0.27858606
84	0xbea83a95	-0.32857195
85	0x3f1a72f1	0.60331637
86	0x3ea6e54b	0.32596812
87	0x3ed0a779	0.40752771
88	0xbdf2a7fd	-0.118484475
89	0x3f3ec43a	0.7451817
90	0x3ce73abe	0.028226253
91	0xbde9d9f3	-0.11418524
92	0xbe247409	-0.16059889
93	0x3e4feef2	0.20305994
94	0xbf1f7ea2	-0.623026
95	0xbd8692d4	-0.06570974
96	0xbe29a57f	-0.16567038
97	0xbd87424f	-0.06604444
98	0xbf17912a	-0.5920588
99	0xbe8018fe	-0.25019068
100	0xbcac51a2	-0.02103502
101	0x3ce59e6e	0.028029647
102	0xbd0640ef	-0.03277677
103	0x3d998d76	0.07497685
104	0xbf158711	-0.5840922
105	0x3d63a392	0.055575915
106	0xbd9000eb	-0.07031425
107	0x3b9bf04c	0.00475887
108	0x3f264827	0.64953846
109	0x3f824fe8	1.0180635
110	0xbd3a3ac3	-0.045466196
111	0x3dd9f96e	0.10643278
112	0x3d1e93b1	0.03871507
113	0xbd1a8449	-0.037723813
114	0xbdc14446	-0.0943685
115	0xbf5310af	-0.8244733
116	0xbecaad08	-0.39585137
117	0x3e24d846	0.16098127
118	0xbb95d274	-0.004572207
119	0x3e9a177e	0.30096048
120	0x3f68250d	0.90681535
121	0x3cb60ec8	0.022223845
122	0xbe14afb2	-0.14520147
123	0x3f7fbc59	0.9989677
124	0xbd3f214d	-0.046662617
125	0x3d9da70f	0.076978795
126	0x3e2d3261	0.1691375
127	0xbd290f12	-0.041274138
128	0xbe46f2ce	-0.1942856
129	0x3da913b0	0.08255708
130	0x3f2f8298	0.68558645
131	0xbe7e0487	-0.24806415
132	0xbe2871d0	-0.16449666
133	0xbf1b2433	-0.6060211
134	0xbe01e09b	-0.12683336
135	0x3e0b5d1f	0.13609742
136	0x3edd729b	0.432515
137	0x3e608b81	0.21928217
138	0x3eae9806	0.3410036
139	0xbee3b447	-0.44473478
140	0xbe34cca7	-0.17656194
141	0x3ed1b218	0.40956187
142	0x3d7c95ac	0.061666176
143	0xbe915fd7	-0.28393432
144	0xbd05a411	-0.03262717
145	0x3e89071f	0.26763245
146	0xbe2f777f	-0.17135428
147	0xbe0ada21	-0.13559772
148	0x3f0b94c1	0.54523855
149	0xbcb0b215	-0.021569291
150	0x3ecc690c	0.39923894
151	0xbb17269e	-0.002306379
152	0xbe4770ce	-0.19476625
153	0x3c54444e	0.012955738
154	0x3e371017	0.17877232
155	0x3c4b1dfa	0.012397284
156	0xbea469f4	-0.32112086
157	0xbe73ec3c	-0.23820585
158	0xbe0ebc94	-0.13939124
159	0x3e5e501f	0.21710251
160	0x3e739395	0.23786767
161	0x3deb4396	0.114875
162	0xbe818d40	-0.25303078
163	0xbe6d013e	-0.23145005
164	0xbea54129	-0.32276276
165	0xbdf7da20	-0.12102151
166	0x3e264240	0.1623621
167	0xbec05bd2	-0.37570053
168	0xbf0446ab	-0.5167033
169	0x3d2cd082	0.042191036
170	0xbf29b5f2	-0.6629325
171	0xbe55d485	-0.20881851
172	0x3e0474d8	0.12935197
173	0x3f0908c2	0.5352899
174	0x3cecd13d	0.028908366
175	0x3e75e86d	0.24014445
176	0x3e99b416	0.30020207
177	0x3e94c746	0.29058284
178	0x3f046d06	0.51728857
179	0x3e45e00f	0.19323753
180	0xbdbbe00a	-0.091735914
181	0xbef6c617	-0.48198006
182	0xbdf231fc	-0.1182594
183	0x3ea8923a	0.32924062
184	0x3d43a9b9	0.047769282
185	0x3ef32697	0.4749038
186	0xbee8edae	-0.45493835
187	0xbdced103	-0.100984596
188	0x3e1d9c17	0.15391575
189	0x3ee0c47e	0.43899912
190	0x3d380585	0.04492714
191	0x3ea3e8fb	0.32013687
192	0x3e8dbee0	0.2768469
193	0xbdd1d94c	-0.10246524
194	0x3b9f41e6	0.0048601506
195	0xbe0bb636	-0.13643727
196	0xbef8ea11	-0.48616078
197	0xbec38cb0	-0.38193274
198	0x3e310bf9	0.17289723
199	0x3cba3341	0.022729518
200	0x3dd756e3	0.10514619
201	0x3e2f75d0	0.17134786
202	0x3cd98b08	0.026555553
203	0xbe96be00	-0.29441833
204	0xbdc44b6e	-0.095846996
205	0xbe0b92d9	-0.13630237
206	0xbe4bbe66	-0.1989685
207	0xbdf687b3	-0.12037601
208	0xbe9f8151	-0.31153348
209	0xbe1a6294	-0.15076667
210	0xbe82afad	-0.25524655
211	0xbc706719	-0.014673018
212	0x3ef8a721	0.4856501
213	0xbceea79c	-0.029132657
214	0x3cfcdcbe	0.030866977
215	0xbd3645e6	-0.044500254
216	0x3d9e0f6b	0.077177845
217	0x3e07f4ae	0.13276932
218	0x3dbdb5fc	0.092632264
219	0xbd67a2a5	-0.056551594
220	0x3cf6f68f	0.030146865
221	0xbde11944	-0.10991147
222	0x3e045f16	0.12926897
223	0xbce7e585	-0.028307686
224	0x3eb04612	0.3442846
225	0x3e958f64	0.2921096
226	0xbea8cc04	-0.32968152
227	0xbf08a793	-0.533807
228	0xbe25eb51	-0.16203047
229	0xbcd50bc2	-0.026006583
230	0x3dd30e6c	0.10305485
231	0xbe7261ea	-0.23670164
232	0xbf09cd01	-0.53828436
233	0x3c10704c	0.008815836
234	0x3de52337	0.11188357
235	0x3d3b8ba1	0.045787457
236	0x3edb40b5	0.42822805
237	0x3e65e587	0.22450839
238	0xbd01f53b	-0.03172801
239	0x3eff84b7	0.4990594
240	0xbccc27a5	-0.024921248
241	0x3d2c8466	0.042118452
242	0x3cce4302	0.025178436
243	0xbe530a01	-0.20609285
244	0xbc5004ca	-0.012696454
245	0xbe2f79f1	-0.1713636
246	0xbd3d6938	-0.046242923
247	0x3e10c462	0.14137414
248	0x3e574a20	0.2102437
249	0x3ebdf46a	0.37100536
250	0x3e511456	0.20417914
251	0x3da934ce	0.08262025
252	0x3ecc633a	0.39919454
253	0x3e384aa3	0.17997222
254	0xbe92b078	-0.2865026
255	0x3d7c8c08	0.06165698

cell.gru.bias_ih f4 [192]
0	0x3df48e62	0.1194122
1	0xbbf213e8	-0.007387627
2	0xbe57336f	-0.21015714
3	0x3e0295e9	0.12752499
4	0x3a5e8953	0.0008489091
5	0xbef8f06c	-0.48620927
6	0x3e095142	0.13409904
7	0xbe810cbf	-0.25205037
8	0xbe92ac1d	-0.28646937
9	0xbe1eb7b2	-0.15499762
10	0xbe0b6498	-0.13612592
11	0x3d64e96b	0.055886667
12	0xbd832802	-0.06404115
13	0xbf1922d4	-0.5981877
14	0x3d01e226	0.031709813
15	0x3d300cd2	0.042980976
16	0xbda80c6a	-0.08205493
17	0x3e4a196b	0.19736259
18	0xbee03a81	-0.43794635
19	0xbdaf41d4	-0.085574776
20	0xbe0bbc0c	-0.13645953
21	0xbe7498af	-0.23886369
22	0x3f03f403	0.5154421
23	0xbd9eb67d	-0.077496506
24	0xbf3a90b9	-0.7287708
25	0xbe4e73a7	-0.20161305
26	0xbe8079aa	-0.25092822
27	0x3ea0cf70	0.31408262
28	0xbe819db8	-0.25315642
29	0x3ccb4ddf	0.024817405
30	0x3e7eccf3	0.2488287
31	0xbe206756	-0.1566442
32	0xbe44da9a	-0.19224015
33	0xbda06786	-0.078322455
34	0xbd5669ac	-0.05234687
35	0xbe83fef5	-0.25780454
36	0xbf101876	-0.56287324
37	0x3eb2095e	0.34772772
38	0xbefee86d	-0.49786702
39	0xbcef19d1	-0.029187115
40	0xbe548d1c	-0.20756954
41	0xbdcfd2e7	-0.10147648
42	0x3eb09c2e	0.34494156
43	0x3d969fab	0.07354673
44	0x3d32b37f	0.043628212
45	0xbf4c28ec	-0.7974994
46	0xbe82c121	-0.2553797
47	0x3c414ca8	0.011798061
48	0x3cac687f	0.021045921
49	0xbe748402	-0.23878482
50	0x3d972acd	0.073812105
51	0x3c80f8fe	0.015743729
52	0xbe8bf4ad	-0.2733511
53	0x3e454e34	0.19268113
54	0xbf196037	-0.5991244
55	0x3d75d624	0.060018674
56	0xbe942ec4	-0.2894193
57	0xbe927b19	-0.2860954
58	0xbe534c74	-0.20634633
59	0xbe977b85	-0.29586425
60	0xbe1b3004	-0.15155035
61	0xbde41913	-0.11137595
62	0xbf149c42	-0.5805093
63	0xbf1e7325	-0.61894447
64	0x3d55ec26	0.05222716
65	0x3d4531b3	0.0481431
66	0x3ddda78b	0.10822972
67	0xbe2a8f46	-0.16656217
68	0xbeba2a18	-0.3636024
69	0x3e031918	0.12802541
70	0xbd2f7d8a	-0.042844333
71	0xbe87cc95	-0.2652327
72	0xbd1c496a	-0.03815595
73	0x3e244d67	0.16045152
74	0x3e2cdf39	0.16882028
75	0xbe403298	-0.187693
76	0x3c93a1e3	0.01802153
77	0x3de4b8aa	0.111680344
78	0xbbf5fa65	-0.007506656
79	0x3dadfb73	0.08495226
80	0x3e4783b5	0.19483836
81	0x3e0e5c7c	0.13902467
82	0xbe309328	-0.17243636
83	0x3e615b3a	0.22007456
84	0x3e156a2e	0.14591286
85	0xbe948213	-0.2900549
86	0x3efcee5f	0.49400613
87	0x3edd17c1	0.43182185
88	0xbd4942bd	-0.049135912
89	0x3db4336c	0.087988704
90	0x3e8c944a	0.27456886
91	0x3e12bb74	0.1432932
92	0x3dfa830f	0.12232029
93	0x3e9c45f7	0.3052213
94	0xbe6cfc71	-0.23143174
95	0x3e8efa84	0.27925503
96	0x3e810ac2	0.2520352
97	0x3e490cad	0.19633742
98	0xbdfc8780	-0.12330532
99	0x3e0b7eae	0.13622543
100	0xbcc172c3	-0.023614293
101	0xbd843a1a	-0.064563945
102	0xbe99a062	-0.30005175
103	0x3e21ab93	0.15788107
104	0x3e2572cd	0.16157074
105	0xbe2697da	-0.16268864
106	0x3e49dc4d	0.19712944
107	0x3ed45739	0.41472796
108	0xbe762288	-0.2403661
109	0xbf22c275	-0.6357797
110	0xbd5065a0	-0.050878167
111	0x3da46548	0.0802713
112	0xbdb2800d	-0.0871583
113	0x3d8a5ff3	0.06756582
114	0x3d05fa00	0.03270912
115	0xbe5845e8	-0.21120417
116	0x3dbd8c8a	0.09255321
117	0x3e520d47	0.20512877
118	0x3e55d1ac	0.20880765
119	0x3e187031	0.14886548
120	0xbe898364	-0.26858056
121	0x3eb5162d	0.3536848
122	0xbc963db8	-0.018339977
123	0xbe76e741	-0.24111654
124	0xbe28cc56	-0.16484198
125	0xbde45817	-0.11149614
126	0x3c77353c	0.015088376
127	0xbe43bb01	-0.19114305
128	0x3e1eb74d	0.15499611
129	0xbd5f7442	-0.05455423
130	0xbe57f575	-0.21089728
131	0xbe0500bb	-0.1298856
132	0x3e792189	0.24329199
133	0xbd92b939	-0.07164235
134	0xbd85ad41	-0.06527186
135	0x3e0a1f11	0.13488413
136	0x3cfa2767	0.030536367
137	0xbd071b42	-0.03298498
138	0xbe8347fc	-0.25640857
139	0x3e83ca85	0.25740448
140	0x3e165ff5	0.14685042
141	0x3ab819bc	0.0014045755
142	0xbda0c393	-0.07849803
143	0x3e359c44	0.17735392
144	0x3cf24408	0.029573455
145	0xbd9189c2	-0.07106353
146	0xbe0b7dde	-0.13622233
147	0xbd5e0b96	-0.054210268
148	0xbdb5f04c	-0.088837236
149	0xbd6ba074	-0.057526067
150	0xbdd2e032	-0.10296668
151	0xbe67562e	-0.22591469
152	0xbcbbacc4	-0.02290953
153	0x3ded6c00	0.11592865
154	0x3cca250e	0.024675872
155	0xbe17e666	-0.14833984
156	0x3bdbfb35	0.006713296
157	0xbc6338c5	-0.013868515
158	0x3ce4dfb4	0.027938701
159	0x3d13eef2	0.036116548
160	0x3c6c6ff1	0.014430986
161	0x3d2d914b	0.04237489
162	0x3d527846	0.051384233
163	0xbe64fce7	-0.223621
164	0xbda0d491	-0.07853044
165	0xbe020d84	-0.12700468
166	0x3c541b76	0.012946
167	0x3dfd1f39	0.12359471
168	0xbe4d6b5d	-0.20060487
169	0x3d4dafb0	0.050216377
170	0x3d063b1c	0.032771215
171	0x3e06c336	0.13160405
172	0x3cbd6e0f	0.02312377
173	0x3e35b16e	0.17743465
174	0xbdbe46b2	-0.09290828
175	0x3d2f8210	0.042848647
176	0xbd345586	-0.044026874
177	0xbda42403	-0.08014681
178	0x3deb4a63	0.114887975
179	0xbe6a60e6	-0.22888526
180	0xbbbe643e	-0.0058102896
181	0xbb8cfe5d	-0.0043027834
182	0xbd2e5bf0	-0.042568147
183	0xbd33d851	-0.043907467
184	0xbc92aa20	-0.017903388
185	0xbb85c21a	-0.0040819766
186	0xbc2ede1c	-0.010673072
187	0xbc6474f5	-0.0139439
188	0xbd0ec6fb	-0.03485773
189	0xbd960586	-0.07325272
190	0x3d269dde	0.040677898
191	0xbd1a8529	-0.037724648

cell.gru.bias_hh f4 [192]
0	0x3b5c8337	0.0033647546
1	0x3d11e03a	0.03561423
2	0xbe0db4d4	-0.13838512
3	0x3e4c5615	0.19954713
4	0xbe2ccab5	-0.16874202
5	0xbf07ffbe	-0.53124607
6	0x3eac6469	0.33670357
7	0xbdd9903c	-0.10623214
8	0xbed5e4ba	-0.41776067
9	0xbd5d3e85	-0.0540147
10	0xbd7a8304	-0.061160102
11	0x3de99674	0.1140565
12	0xbe43530a	-0.19074646
13	0xbf40d811	-0.7532969
14	0x3d9846c7	0.07435375
15	0x3e3e6f64	0.1859718
16	0xbe35f36d	-0.17768641
17	0x3e978f3a	0.2960146
18	0xbea2bff4	-0.31787074
19	0xbd573c4d	-0.05254774
20	0xbdc73f6f	-0.09728896
21	0xbd80219f	-0.06256413
22	0x3f14a5a0	0.58065224
23	0xbddd4397	-0.10803907
24	0xbf21dd0f	-0.63227934
25	0xbe675abc	-0.22593206
26	0xbe37df95	-0.17956384
27	0x3e509923	0.20370917
28	0xbeda0d5e	-0.42588323
29	0xbce4cbef	-0.027929274
30	0x3d13e4a0	0.036106706
31	0xbe7a0229	-0.24414887
32	0xbe143a95	-0.14475472
33	0xbbbdfc89	-0.005797927
34	0xbe96059c	-0.29301155
35	0xbebe3b93	-0.37154827
36	0xbee97f23	-0.4560481
37	0x3e7b93e8	0.2456814
38	0xbee11d0d	-0.43967476
39	0xbe163396	-0.14668116
40	0xbe99ad07	-0.30014822
41	0xbd838f0b	-0.06423768
42	0x3e2b5fae	0.16735718
43	0x3e00f695	0.12594064
44	0x3d783d95	0.060605604
45	0xbf185edc	-0.59519744
46	0xbe6efbaf	-0.23338197
47	0xbd3efa6c	-0.04662554
48	0xbe2245fd	-0.15847011
49	0xbe5bb9de	-0.21457621
50	0x3e52c0b3	0.20581321
51	0xbc69ada3	-0.01426259
52	0xbdb7a665	-0.08967284
53	0x3d0e5d76	0.0347571
54	0xbf1a91b6	-0.6037859
55	0x3c2bd816	0.010488531
56	0xbe2f0960	-0.1709342
57	0xbee541ab	-0.44776663
58	0xbe2490c6	-0.16070852
59	0xbe5b8768	-0.21438372
60	0xbdff7769	-0.124739476
61	0xbdd53f05	-0.10412411
62	0xbf18c50c	-0.5967567
63	0xbf56dc2b	-0.839297
64	0xbd4564f0	-0.048191965
65	0x3e89c7ff	0.26910397
66	0x3df1fc05	0.11815647
67	0x3c1244ba	0.0089275185
68	0xbec2cf94	-0.38048995
69	0x3de4eca2	0.111779466
70	0xbd66bdd7	-0.05633339
71	0xbeaa82bc	-0.33302867
72	0xbd05e718	-0.03269109
73	0x3e77f165	0.24213178
74	0x3ebb57a3	0.365903
75	0xbe00dc04	-0.1258393
76	0xbd3843e5	-0.044986624
77	0x3e220bcb	0.15824811
78	0x3d105fe9	0.035247717
79	0xbe129177	-0.14313303
80	0x3e2aa60d	0.16664906
81	0x3ea80c52	0.328219
82	0xbe43f4e5	-0.19136389
83	0x3ec25d81	0.37961963
84	0x3d6c1f48	0.05764702
85	0xbe343ff0	-0.17602515
86	0x3f39c24b	0.7256209
87	0x3ecc8df7	0.3995206
88	0x3da3cad3	0.0799767
89	0x3de9bfe4	0.11413553
90	0x3e691240	0.22760868
91	0x3e9a7650	0.3016839
92	0x3e6b7584	0.22994047
93	0x3e7f7d0a	0.24950042
94	0xbe97a13d	-0.29615203
95	0x3e87c099	0.26514128
96	0x3e5ce056	0.21569952
97	0x3e2ba4fc	0.16762155
98	0xbb926a28	-0.004468221
99	0x3cc64344	0.024201997
100	0x3c5ee9f1	0.013605581
101	0x3db40f62	0.087919965
102	0xbeb0ba74	-0.34517252
103	0x3ea7bcf4	0.32761347
104	0x3e775571	0.24153687
105	0xba00050c	-0.00048835645
106	0x3e0c4ec9	0.13701929
107	0x3ebf671d	0.37383357
108	0xbe28bfba	-0.16479388
109	0xbed805d2	-0.4219194
110	0xbd5df8c9	-0.05419234
111	0x3e601286	0.21882066
112	0xbdebd7a7	-0.11515742
113	0x3e615a8f	0.22007202
114	0xbd749bb9	-0.05971882
115	0xbe367887	-0.17819415
116	0x3dbbed0d	0.09176073
117	0x3e5ebe11	0.21752192
118	0x3e907102	0.28211218
119	0x3e385c89	0.1800405
120	0xbe8cd70b	-0.27507815
121	0x3e75358c	0.23946208
122	0x3cbbe358	0.022935554
123	0xbe54d30b	-0.20783632
124	0xbe6b8900	-0.2300148
125	0xbd37597c	-0.044763073
126	0xbca2d5c6	-0.019877326
127	0xbea7a528	-0.32743192
128	0xbf01117c	-0.50417304
129	0xbdc4a6ba	-0.09602113
130	0x3cbdb368	0.023156837
131	0xbd3ca91d	-0.046059716
132	0x3e990b4f	0.2989144
133	0x3e1473a3	0.14497237
134	0xbc8c0d1f	-0.0170961
135	0xbde3cc9e	-0.11123012
136	0x3c3201e4	0.010864709
137	0x3eb26883	0.3484536
138	0x3f070ff9	0.5275875
139	0x3f05bb6b	0.522391
140	0xbec47f15	-0.38378206
141	0xbe63ff97	-0.22265469
142	0x3d22f67e	0.039785855
143	0x3debc8b8	0.115128934
144	0xbd9a781e	-0.07542442
145	0xbe419d21	-0.18907596
146	0xbbf4393c	-0.007453112
147	0xbe2716fc	-0.16317362
148	0x3e6cc4a9	0.23121895
149	0xbd57613c	-0.052582964
150	0x3e06dcba	0.13170138
151	0x3ed16042	0.4089375
152	0xbe0e70fc	-0.13910288
153	0xbdf94a51	-0.12172378
154	0xbdadcde0	-0.08486533
155	0xbe74db75	-0.23911841
156	0x3eb4165e	0.35173315
157	0xbdf8b074	-0.12143031
158	0xbec26df0	-0.379745
159	0x3e9d0179	0.30665186
160	0x3d31c3bd	0.04339956
161	0x3e89233b	0.2678469
162	0x3eb25609	0.34831265
163	0x3ea447ab	0.32085928
164	0x3efdc7b0	0.49566412
165	0xbe6c17f5	-0.23056014
166	0xbda46899	-0.08027763
167	0xbd50c47b	-0.05096863
168	0x3e4b9583	0.19881253
169	0xbe03b2c5	-0.12861164
170	0xbe0757de	-0.13217112
171	0xbbfdcfda	-0.007745725
172	0x3ca34657	0.019931002
173	0xbe9a1283	-0.30092248
174	0x3dacfcb7	0.08446639
175	0xbe5a9153	-0.213445
176	0xbe825657	-0.25456497
177	0xbcc24585	-0.02371479
178	0x3ea59713	0.32341823
179	0x3edf33e0	0.43594265
180	0x3ddf8dcd	0.10915718
181	0x3d51745a	0.051136352
182	0x3e060908	0.13089383
183	0x3d0e0ed9	0.03468213
184	0xbe81a6d2	-0.25322586
185	0xbdca4dc6	-0.09878115
186	0xbd6499fb	-0.05581091
187	0xbc2b11ba	-0.010441238
188	0xbee3adf8	-0.44468665
189	0x3eb713fe	0.3575744
190	0xbe12a0e3	-0.14319186
191	0x3c8fe8e1	0.0175671

fc_out.weight f4 [2, 64]
0	0xbe09aee6	-0.13445625
1	0xbe16be39	-0.14721002
2	0x3d449c31	0.04800052
3	0x3e0adb02	0.13560107
4	0x3c416d32	0.011805819
5	0xbea1b09a	-0.3158005
6	0xbd8c9138	-0.06863636
7	0xbdfb458e	-0.12269126
8	0xbe29f816	-0.16598544
9	0xbe88471c	-0.26616752
10	0x3ea6b5a3	0.32560453
11	0x3cb2f768	0.021846488
12	0xbe817296	-0.25282735
13	0x3f4bd8de	0.7962779
14	0x3de54743	0.11195233
15	0x3e2161c7	0.15759955
16	0xbe8ba842	-0.27276808
17	0x3e0db840	0.13839817
18	0xbe07c8e0	-0.13260221
19	0x3ea742bb	0.326681
20	0x3e0c6b6a	0.1371285
21	0x3d964fe3	0.07339456
22	0x3f630d20	0.886919
23	0x3e82c14e	0.25538105
24	0xbedab727	-0.4271786
25	0x3dd5ab00	0.10433006
26	0x3e7da280	0.2476902
27	0xbd1fe76a	-0.039039053
28	0xbeab57d2	-0.3346544
29	0x3e4cef6c	0.20013207
30	0xbcec3166	-0.028832149
31	0xbd164b55	-0.036692936
32	0x3e5fbdd0	0.21849751
33	0x3df08513	0.11744132
34	0x3c4bcf5d	0.012439576
35	0xbe50ea6b	-0.20401923
36	0xbe6a129e	-0.22858664
37	0x3da43910	0.08018696
38	0x3b59a4cd	0.0033209801
39	0xbe88a944	-0.2669164
40	0xbe190018	-0.14941442
41	0x3dbec848	0.09315544
42	0xbe6b7272	-0.22992876
43	0xbf27ee49	-0.6559797
44	0x3e057b53	0.13035326
45	0x3e618e56	0.22026953
46	0xbde268dd	-0.11055157
47	0x3cf41db4	0.02979932
48	0x3e420e72	0.18950823
49	0xbde0ab44	-0.10970166
50	0x3e69a7a1	0.22817852
51	0xbdc8d708	-0.09806639
52	0xbe529e77	-0.20568262
53	0x3e527eed	0.20556231
54	0xbe8bc0ad	-0.27295437
55	0x3e1412ea	0.1446034
56	0x3dbe2696	0.092847034
57	0xbef05369	-0.46938637
58	0x3c60cef7	0.013721219
59	0x3de39ea8	0.11114246
60	0xbd6a1c14	-0.057155684
61	0x3e590c37	0.21196066
62	0x3eeaffdc	0.4589833
63	0x3e035b3c	0.12827772
64	0xbdf7be95	-0.120968975
65	0xbe375a20	-0.17905474
66	0x3d08ccc8	0.03339842
67	0x3e157bbf	0.14597987
68	0x3c355be4	0.011069272
69	0xbec1162d	-0.3771223
70	0xbd536743	-0.05161215
71	0xbdf4e081	-0.11956883
72	0xbe3f9b87	-0.18711673
73	0xbe82ad66	-0.25522918
74	0x3e72c6c0	0.2370863
75	0x3c8a7cda	0.016905237
76	0xbe4a695c	-0.19766754
77	0x3f5155b9	0.8177143
78	0x3e00e82d	0.12588568
79	0x3e4df647	0.20113479
80	0xbe6e81d6	-0.23291716
81	0x3df58880	0.11988926
82	0xbddcbb8a	-0.10777958
83	0x3ebd90ca	0.37024528
84	0x3e10cbb9	0.14140214
85	0x3d7df53c	0.06200145
86	0x3f3c48ed	0.73548776
87	0x3e60fb84	0.21970946
88	0xbeca7077	-0.3953893
89	0x3dfaa5d4	0.122386605
90	0x3e923721	0.28557685
91	0xbd4273c4	-0.047473684
92	0xbea44279	-0.32081965
93	0x3e3c73fa	0.18403617
94	0xbd145268	-0.0362114
95	0xbd321a9b	-0.043482404
96	0x3e7cbd17	0.24681507
97	0x3de17c1e	0.110100016
98	0x3c9a2270	0.01881525
99	0xbe19fa48	-0.15036881
100	0xbe87938c	-0.26479757
101	0x3dc37dc1	0.0954547
102	0xba94242f	-0.0011302287
103	0xbe81cbed	-0.25350896
104	0xbe07c2fc	-0.13257974
105	0x3dfd8f2c	0.123808235
106	0xbe5288a1	-0.20559932
107	0xbf2897a0	-0.6585636
108	0x3e0d84d2	0.13820198
109	0x3e7ea0b4	0.24865991
110	0xbe00b074	-0.12567312
111	0x3cc74092	0.024322782
112	0x3e2f3769	0.17110981
113	0xbdfddaef	-0.12395274
114	0x3e7459c5	0.2386237
115	0xbdd0f377	-0.10202687
116	0xbe498407	-0.1967927
117	0x3e20764d	0.15670128
118	0xbe51be13	-0.20482664
119	0x3de81e99	0.11333961
120	0x3de8bd51	0.11364234
121	0xbed35ac4	-0.41280186
122	0x3d25ad89	0.0404487
123	0x3e0ff752	0.14059189
124	0xbd757fa2	-0.059936173
125	0x3e1bd2de	0.15217158
126	0x3ec1d89b	0.3786057
127	0x3dd67dae	0.1047319

fc_out.bias f4 [2]
0	0x3cf19d56	0.029493969
1	0x3ceae80d	0.028675104
