notebooks/DCRNN/Adj_15mins/dcrnn_best.pt (torch, 120760 bytes, 7 tensors)

cell.diff.theta f4 [65, 64]
000000 94 ce 5e bc 0f 47 3f be f9 a7 ad bb af cd 6a be
       -0.013599057 -0.1867945 -0.005299565 -0.22930025
000010 6f a7 54 be f2 bb 5e 3e 53 41 9e bd 58 32 12 3d
       -0.20766996 0.21751383 -0.07727303 0.035692543
000020 c9 2a 0a 3e 97 b5 47 3e e7 61 01 3e 2c dd 1f 3e
       0.13492884 0.19502865 0.12635003 0.15611714
000030 0a df 15 be 7b 51 6c bc d7 c2 b4 3d 03 7a 79 be
       -0.14635864 -0.014423723 0.08826225 -0.2436295
000040 1e 72 24 3e 0c c3 1b 3d b1 6f dc 3d 1b 31 36 be
       0.16059157 0.038027808 0.10763491 -0.1779217
000050 bf b2 38 3e 54 a4 6b be 5e 6d d5 3d 30 c3 90 3e
       0.18036936 -0.23011905 0.10421251 0.28273916
000060 b7 c5 56 3d 7d 4c 40 be 72 6c 89 be 79 a3 3a be
       0.05243465 -0.18779178 -0.2684055 -0.18226422
000070 66 c4 8e be 4c af 2d be 25 07 52 be f1 2f 95 3d
       -0.27884215 -0.16961402 -0.20510538 0.07284535
000080 f6 ee 53 be 50 9a 14 be 25 71 c5 3b 01 dc 32 be
       -0.20696625 -0.1451199 0.006025451 -0.17466737
000090 a8 2a 0a be 08 88 02 3e d1 93 d6 3d 09 6a 1b be
       -0.13492835 0.12747204 0.104774125 -0.15177168
0000a0 d0 d7 3a 3e b8 52 82 3e 55 a8 9d 3d 5f 65 c7 3d
       0.18246388 0.25453734 0.076981224 0.09736132
0000b0 e6 92 11 be 50 91 4f 3c 6a 6a 77 3e 4c a7 71 bd
       -0.14216194 0.012668923 0.24161687 -0.058997437
0000c0 17 80 74 3d e9 9f e9 bd 6d 3f 4e be 86 68 95 3e
       0.05969247 -0.114074536 -0.20141383 0.29181308
0000d0 f9 b5 96 bd 03 df 4f 3c 23 d2 10 be c9 42 39 bd
       -0.07358927 0.0126874475 -0.14142661 -0.045229707
0000e0 0f 31 79 3e aa 6e 32 3e 5f e1 3a be 0b 87 12 3c
       0.2433512 0.17425027 -0.18250035 0.00894333
0000f0 36 88 86 bd b6 21 70 3e 9b 6e 33 3e 78 d9 8e 3e
       -0.06568949 0.2345036 0.17522661 0.2790029
000100 a9 02 62 bb 45 04 60 bd db 3b db bc ef 3f 5c 3c
       -0.003448645 -0.05469157 -0.02676194 0.013442977
000110 e8 19 92 3d 20 3b bd bd 27 b9 fb 3c 1d 0e e0 bd
       0.071338475 -0.09239793 0.030727936 -0.10940192
000120 6c 05 e7 bc f4 f8 8a bc 31 1a 72 bd 40 af 6e 3d
       -0.028200828 -0.016964413 -0.05910701 0.0582726
000130 e2 33 2c bd fc ae 46 3d 79 21 a1 bd 93 b2 f7 3c
       -0.042041667 0.04850672 -0.078677125 0.030236518
000140 b4 0f c2 3d 16 e0 9d bd 77 5f da bc 61 68 92 bc
       0.094756514 -0.077087566 -0.02665685 -0.017872037
000150 9c e4 09 bc 4b 90 8a 3d bb 44 04 be cd 0b d6 bd
       -0.008416321 0.06765803 -0.12916844 -0.104514696
000160 38 70 8a bd 21 5d 59 3d 02 0e 30 3d 39 ed e6 3d
       -0.06759685 0.05306733 0.04298211 0.112757154
000170 ce 7e d8 3c 5b fc 07 bd 1d 72 30 3b 5f ec 8e bd
       0.026427653 -0.03319965 0.0026923486 -0.06978678
000180 57 57 64 3d 8a b0 6f 3d be d2 f3 bc 38 4d a1 3d
       0.055747356 0.05851797 -0.029763576 0.078760564
000190 a7 ba d2 bd d7 99 dc bd b7 97 02 be 08 4b 4b bd
       -0.10289507 -0.1077153 -0.12753187 -0.049632102
0001a0 31 14 09 bc 52 84 21 bd dd d6 0a 3d 88 f1 a0 3d
       -0.00836663 -0.03943283 0.033896316 0.078585684
0001b0 7e 5c e6 3d 01 45 a7 3d 3f a7 16 bd 1a 00 ae bc
       0.1124811 0.08167458 -0.036780592 -0.021240283
0001c0 db f7 7b bd ba 42 18 be 07 4a 3f 3e a1 f3 dc bd
       -0.06151567 -0.14869204 0.18680583 -0.10788656
0001d0 5f ed 63 bc 2a 0c b2 3c b1 e8 a7 bd b6 52 78 bd
       -0.013911574 0.021734316 -0.08198679 -0.060625754
0001e0 97 d0 5d 3d 8f 06 f2 3c 46 1d d4 bc 0c 75 c4 3d
       0.054154005 0.029544143 -0.025892865 0.095926374
0001f0 8c f3 ff bc 1b 20 7e 3c 65 35 95 3d a2 79 87 bd
       -0.031244062 0.015510584 0.07285575 -0.066149965
000200 ff 07 5e 3b 58 3c 41 bd b7 2d 74 3d 60 5e e3 bd
       0.0033879278 -0.04717669 0.05961391 -0.11101985
000210 7a ab 38 be 53 c1 d7 3d 22 09 f9 bc a1 12 0c bd
       -0.18034163 0.105349205 -0.030399863 -0.034197453
000220 18 76 35 3d b1 15 a9 3d 09 03 0d 3d 64 b6 fd 3d
       0.044302076 0.082560904 0.034426723 0.12388304
000230 29 77 b7 bd 09 6e 09 bc bb c2 fb 3d f6 e3 e1 bd
       -0.08958275 -0.008388051 0.12293001 -0.11029808
000240 cd a8 9e 3d 47 2f 84 3d 30 e2 1f 3d 6b a5 15 be
       0.0774704 0.0645433 0.03903407 -0.14613883
000250 e6 08 79 3d bf e7 92 bd 1b 16 14 3e 1c bb 39 3e
       0.0607995 -0.07173108 0.14461558 0.18137783
000260 0d 46 90 bc 70 0d f0 bd 74 3b 07 be a9 f5 9e bd
       -0.017611528 -0.11721313 -0.13206273 -0.077617
000270 fc ff 58 bd 88 e1 03 3d ba 52 a6 3c f2 e2 54 3c
       -0.0529785 0.032197505 0.020303119 0.012993561
000280 f2 d7 98 bd 34 98 d6 3c 95 48 e0 3c 88 ca 5e be
       -0.07463063 0.026195623 0.02737836 -0.21756947
000290 4f 30 f7 3c 18 3b 42 3e f9 b1 6f bd 43 b4 3e bd
       0.030174403 0.18967855 -0.058519337 -0.04655863
0002a0 86 24 75 3d 68 26 e2 3d eb 84 95 bd 2c 59 04 bd
       0.059849285 0.11042482 -0.07300743 -0.032311603
0002b0 3f 11 93 bd d4 bf b8 bb 59 09 b9 3d 53 69 d6 bd
       -0.07181024 -0.005638102 0.09034986 -0.10469308
0002c0 a6 1c 23 3d bd a9 cb bd 36 0f 87 bd 49 eb c3 3d
       0.039822243 -0.099444844 -0.06594698 0.095663615
0002d0 d1 34 88 bc 98 dd d3 3d 0c c5 af bd 1a 8a 21 3d
       -0.016626747 0.10345 -0.085825056 0.039438345
0002e0 18 3a f1 bc 11 e5 8c 3d 6a 80 8b bd 90 95 58 3b
       -0.029446647 0.068796284 -0.068116024 0.003304813
0002f0 2f b1 a4 bd 6b 31 9c 3d 24 b9 1a bc 3c a5 c9 3d
       -0.080416076 0.07626613 -0.009443555 0.09845969
000300 d4 28 b3 bd 57 9c e5 bc ff 98 7d bd d7 a5 ba bc
       -0.08748022 -0.02802865 -0.061913487 -0.022784157
000310 02 38 7a bd 73 c9 24 3c 44 9c 03 3a 73 ca ae bd
       -0.06108857 0.010057795 0.0005020539 -0.08534708
000320 7e de 7d bd 53 97 1d 3c 8d db 5f bc 0e 2c 28 bd
       -0.061979763 0.009618598 -0.013663185 -0.04105764
000330 24 bc b2 3c 95 fd 9c bd 00 07 cf 3d 7b a0 22 bd
       0.021818228 -0.076655544 0.10108757 -0.039703827
000340 73 f3 ea bd 9e d7 ae bd 8f 8f 8b bc 1e ef 58 3d
       -0.114722155 -0.085372195 -0.017036228 0.052962415
000350 7d 40 49 3c 82 02 b6 bd 07 f7 69 3c 0a 98 bf 3d
       0.012283442 -0.08887197 0.014280087 0.09355171
000360 bd 3e 8e bd 10 cc 48 3c 1d 99 19 bd dd f3 06 bd
       -0.0694556 0.012255684 -0.037499536 -0.03294741
000370 a3 83 9e bd e7 81 57 3d 1a d5 99 3c 22 29 8f 3c
       -0.077399515 0.05261412 0.018778373 0.017475668
000380 7f f4 0c bd 58 a2 b6 3c b5 20 05 3e 26 97 d7 bc
       -0.034412857 0.022294208 0.13000758 -0.02631719
000390 80 3c 06 3c 82 e6 a2 bd dd 08 9f 3d 30 b1 82 3b
       0.008193135 -0.07954122 0.077653624 0.0039884076
0003a0 2e 33 82 3d a9 e3 ae 3d e7 85 36 3d 18 3c 6c bd
       0.06357418 0.085395165 0.044561293 -0.057674497
0003b0 a9 d6 3a be 2e 60 3a 3d 6a 3e 88 3d 3e 31 de bc
       -0.18245949 0.04550188 0.066525295 -0.02712309
0003c0 ba 16 29 bc 92 12 e0 3d d1 44 83 3d 15 2e da 3b
       -0.01032036 0.10941042 0.0640961 0.0066583254
0003d0 71 7a d3 3c 19 10 9f bc d9 84 ad 3c 73 a2 10 3d
       0.02581522 -0.019416856 0.02118151 0.035311174
0003e0 9b 48 12 3c 8b 1d d4 3b 7a d0 ce bc c6 64 9a 3d
       0.008928443 0.0064732484 -0.025245894 0.07538752
0003f0 ed 80 4e bd 07 19 0c 3e a9 cb 7f bd c8 d3 80 3b
       -0.050415922 0.13681422 -0.062450085 0.0039314963

cell.gru.weight_ih f4 [192, 64]
000000 38 ac 23 be 7b 1a 3c 3e 37 0e d3 3d 35 4b 68 3e
       -0.15983665 0.18369476 0.10305446 0.22684939
000010 5b 3c d9 bd 83 42 45 be bb 3c ca be be bb c4 bd
       -0.10607215 -0.19263653 -0.3949946 -0.096061215
000020 eb 49 9d bd 28 db b3 bd 5f 4e 85 be 8b 9a 0f bf
       -0.07680114 -0.08782035 -0.26036355 -0.5609519
000030 3c 0e e5 3d 76 9a 85 bc 90 b3 1e be 91 25 73 3e
       0.111843556 -0.016309004 -0.15498185 0.23744799
000040 85 75 4a 3e 7d 7a 06 be 56 b5 b1 3e 24 14 ad 3b
       0.19771393 -0.13132663 0.3470866 0.005281942
000050 f4 2c b0 bd fe bc df bd 04 c0 87 bc c9 ac b1 bd
       -0.08602324 -0.10924719 -0.016571052 -0.08675534
000060 18 27 cd 3c f3 3b ce 3d 7a d2 0d 3e 8c e6 77 3d
       0.025043055 0.10070028 0.13849822 0.0605226
000070 09 99 5c 3e 69 b6 f7 3e 91 a6 59 3e 56 f4 84 be
       0.21542753 0.48381355 0.21254946 -0.25967664
000080 10 5c 21 3e df bc ea bd 23 df 32 bd ee 45 16 3f
       0.15757775 -0.114618056 -0.04366983 0.58700454
000090 a4 63 db bc 79 db 4c 3e fd 3f 0d 3e c8 8f 12 3e
       -0.02678091 0.20005597 0.13793941 0.1431266
0000a0 a7 b9 cc be 6c 16 95 bd b1 de b2 bd f3 a2 40 3e
       -0.39985391 -0.07279667 -0.08733881 0.1881216
0000b0 a1 fe 56 be 84 7f be bd 5a dc a5 3d c5 d8 ea bc
       -0.2099557 -0.093016654 0.08098669 -0.028667817
0000c0 59 47 db 3b 43 13 b8 3c a9 85 a3 be aa 9c c9 3a
       0.006691855 0.022470122 -0.31937912 0.0015381773
0000d0 8f 3f 8d 3d 7b 3b a6 3e db f3 80 3e 45 02 90 bd
       0.068968885 0.32467255 0.25186047 -0.07031683
0000e0 de fe 06 be 02 01 77 3e a2 87 5f be 8f c5 04 be
       -0.13183162 0.24121478 -0.21829084 -0.12965988
0000f0 d6 64 85 3b a7 38 c4 be 95 6a 31 3e 56 94 e8 bc
       0.0040708585 -0.38324472 0.17325814 -0.028391045
000100 10 92 88 3d f6 43 55 3d 71 48 59 bc 1c fb d0 bd
       0.06668484 0.052066766 -0.0132619 -0.10204145
000110 a9 0c 44 3d 85 8f 2a 3d 15 b5 f0 3b a1 ce ce 3b
       0.047863636 0.041640777 0.0073458054 0.006311253
000120 5a 9d 0d bd 63 4c 68 ba 46 36 1b 3d fc 55 2e bd
       -0.03457389 -0.000886148 0.037893556 -0.04256247
000130 ac fa 32 3d 04 c0 ca bd 69 38 94 bc 80 84 50 bc
       0.04369609 -0.09899905 -0.018093305 -0.012726903
000140 c4 44 ff bc 3c f2 26 3d bb cb 18 3c 7f 55 ba bc
       -0.03116072 0.040758356 0.009325917 -0.022745846
000150 67 c8 d6 bd ef cf 0f 3b 4d ae 46 bd eb 3e aa 3c
       -0.104874425 0.0021944006 -0.04850607 0.020781955
000160 7f 1e ed bc ab ef 8a bd 0d f5 63 bd f1 6b be 3d
       -0.028945206 -0.06783994 -0.05565362 0.09297932
000170 bb 93 08 bb 16 20 c6 bc ac b6 05 bd 7e 06 61 3d
       -0.0020840007 -0.024185222 -0.032644913 0.054937832
000180 87 7b 17 3d 06 d9 94 bc fd f0 01 3e ad 32 b8 bd
       0.03698304 -0.018169891 0.12689586 -0.08994041
000190 6f 73 9c 3d 64 ab 29 bd 0d ef 6d bd 31 ea e7 3c
       0.07639205 -0.041423216 -0.058089305 0.028309913
0001a0 65 8d 8c bd cf c9 89 bc 98 3c 93 bd 6d 56 43 bc
       -0.06862906 -0.016819863 -0.07189292 -0.011922461
0001b0 1b b5 cf 3b 9a 96 85 3d f6 4a 56 bc af 83 7c 3e
       0.006338728 0.065228656 -0.0130793955 0.24659608
0001c0 a0 57 c3 3d 2a f5 4c bd e7 de 97 bc 7f 58 2b 3d
       0.095381975 -0.050038494 -0.018538905 0.041832443
0001d0 9e a2 cb bb 0c 4d bc bc 40 98 94 3d 70 81 c1 bd
       -0.006214454 -0.022985958 0.07255602 -0.09448516
0001e0 18 4d 3b 3d c0 60 2d bd 7c 8c ec 3c 80 ba d2 3d
       0.04572782 -0.042328596 0.028875582 0.10289478
0001f0 20 fa 6b 3c a7 9a f4 bd 53 b0 c7 3c 4e 13 e0 3b
       0.014402896 -0.1194356 0.02437607 0.006838239
000200 86 bc 59 bd 86 c3 99 bb 51 2d 3b 37 ce 1d 9e bd
       -0.053158306 -0.0046924977 1.115662e-05 -0.077205285
000210 8a 3f ff bd 9c f4 ff 3d 86 8e 3e 3e 65 69 13 3e
       -0.12463291 0.124978274 0.18609056 0.14395674
000220 c5 95 28 3e 89 87 3b 3e b9 1d 10 3e 82 74 dc 3d
       0.16463383 0.18313421 0.14073838 0.107644096
000230 d8 03 d8 3d 06 04 8c 3d 9a cb dd 3d f9 06 82 be
       0.10547608 0.06836705 0.108298495 -0.25395945
000240 fc 7d db bd 6a 3f 12 3d 40 13 7e bd f8 b8 cb bd
       -0.10717389 0.035705008 -0.062030077 -0.09947389
000250 b2 ad 62 3d 27 30 2d be 7a 95 1c 3d e3 48 81 3d
       0.05534143 -0.169129 0.03822849 0.0631273
000260 8f 5d 58 bd 89 dc aa bd 0e 68 07 be 8a bc 01 bd
       -0.0528236 -0.08342845 -0.13223287 -0.031673945
000270 bf 00 86 bd 60 3c 14 be a8 b9 0b be 18 76 10 3d
       -0.06543111 -0.14476156 -0.13645041 0.035268873
000280 4d 80 01 3d 59 96 40 bd 72 b2 21 3b 81 dd b8 be
       0.031616498 -0.047018383 0.0024673012 -0.36106494
000290 b6 38 1e 3d ae bf 5c 3d a8 0f fa bd 8c 03 89 bd
       0.038628303 0.053893737 -0.122100174 -0.0669013
0002a0 b5 ec f9 3d 78 b3 c2 3d 07 a8 8a bb 80 40 e5 bd
       0.122033514 0.09506887 -0.004231456 -0.11193943
0002b0 4b f8 30 3d 98 71 a2 3d 8d c0 c1 3d e5 51 df 3d
       0.04320554 0.079318225 0.09460554 0.10904292
0002c0 84 b1 54 3d 1c 99 b1 bd 0e 14 ae bd 74 fc 9a 3d
       0.051927105 -0.086717814 -0.08499919 0.07567683
0002d0 cd 0e 7f bd 9d 5d 05 bd 8b 9c 88 bd 85 0a eb 3b
       -0.062269974 -0.03255998 -0.06670483 0.007172885
0002e0 ad 35 3c 3e 9c bc ba 3c 0c c8 f2 3d 8f 79 aa 3d
       0.1837985 0.022795014 0.11854562 0.08323967
0002f0 46 4f 02 bd 54 a2 0a 3d 18 45 b7 3c 25 06 49 3e
       -0.031813882 0.033846214 0.022371814 0.1963125
000300 ab c8 e0 3d d5 d6 0f be 22 2d f1 3d 17 99 62 be
       0.109757744 -0.14046796 0.117761865 -0.22128712
000310 4a c7 46 be 37 20 fb 3d 9d 3a 27 bd 9b 69 b2 3d
       -0.1941196 0.12262004 -0.040827382 0.08711549
000320 c4 86 dd bc 2e 8c 19 3d e5 9b ac bc 28 72 de 3c
       -0.0270418 0.0374872 -0.02107043 0.027154043
000330 b0 22 26 be 32 67 35 3e 92 c9 42 3c 7b 31 73 3e
       -0.1622417 0.17715147 0.011888878 0.23749344
000340 1a 3f 0a be 23 c7 a5 bd 7d 28 23 be 10 b8 20 be
       -0.13500634 -0.08094623 -0.15933414 -0.15695214
000350 a1 17 0c be 96 b3 c0 3b 61 19 8e bd c4 9f 9f 3d
       -0.13680889 0.0058807833 -0.069384344 0.07794145
000360 52 70 d2 3d 62 29 04 be 92 29 a3 bd 97 35 c5 bc
       0.1027533 -0.12906411 -0.07966913 -0.024073405
000370 f5 e2 b6 bd 85 6f b2 3d df 34 06 3e f1 42 a7 3d
       -0.08930007 0.08712677 0.13106106 0.08167065
000380 a6 6b 09 be b9 56 8e bd b0 80 1f bd fd 40 84 3c
       -0.13419971 -0.06950135 -0.038941085 0.01614427
000390 8c f9 fe 3d cc fd fc bd 52 35 09 bd 62 49 95 bd
       0.12449941 -0.123530954 -0.033498116 -0.07289387
0003a0 af a2 a1 3c 88 c3 95 bd c8 05 b6 3d 2f 73 b4 bd
       0.019730894 -0.07312685 0.088878214 -0.08811032
0003b0 3a 7d d3 bd 24 ea 35 3e a7 b9 ef bd 56 66 a9 3d
       -0.103266194 0.17765099 -0.11705332 0.08271472
0003c0 9a 0f ff 3d 42 79 17 bd 86 6e ee bb 30 a1 04 3e
       0.12454148 -0.036980875 -0.007276359 0.12952113
0003d0 bd ad 2d 3c 03 ef 70 3c 27 c1 aa bc 5d 7c 4e bb
       0.010600504 0.014705422 -0.020844055 -0.0031507232
0003e0 30 24 cb 3a 02 7d d9 3d 9c e1 99 bc c0 f2 b0 3d
       0.0015498456 0.106195465 -0.018784337 0.08640051
0003f0 0a 46 db 3d 80 f1 cc 3c 86 5c dd ba 77 e4 c3 3d
       0.10706718 0.0250175 -0.0016888536 0.095650606

cell.gru.weight_hh f4 [192, 64]
000000 4c 68 1d 3e 5e d2 e4 be 5c 5f bc be de 1e 17 3f
       0.15371817 -0.44691747 -0.36791503 0.59031475
000010 a3 e7 82 3d ef 02 00 bf ea 6e 30 3e 0c 92 5d 3e
       0.063918374 -0.50004476 0.1722981 0.21637744
000020 ab 0e 8c 3d 8c 03 61 3d c9 cb 5f bd f9 42 b8 bc
       0.06838735 0.054935023 -0.054637704 -0.022492873
000030 8d f3 b9 3e 72 d7 97 bc 70 ef 22 be c4 40 72 3c
       0.36318627 -0.01853535 -0.1591165 0.014785949
000040 07 67 f8 bd 7c f7 1a 3f 08 a2 e0 bd 3b c0 c0 bd
       -0.12129026 0.6053388 -0.10968405 -0.09411665
000050 68 8e db bd 3a 0d 73 3e b6 f8 e9 3e 5b 45 60 3c
       -0.10720521 0.23735514 0.45697564 0.013688411
000060 df ef 77 3e c0 3a bb bd e9 9a 6f be d2 4c 3b 3e
       0.24212597 -0.09142065 -0.23398937 0.18291023
000070 01 fb ef bd de b3 82 3c 2b b2 27 3e 24 21 c3 be
       -0.11717797 0.015954908 0.1637656 -0.38111222
000080 7f 45 74 be ff e8 38 3e 0a 36 b6 3f 1e 69 e0 bd
       -0.23854636 0.18057631 1.4235241 -0.109575495
000090 9f 43 93 be 1a 29 4f bc a5 88 2c be 51 48 50 be
       -0.28762528 -0.012644077 -0.16849001 -0.20340087
0000a0 f9 9d 37 3e 8d 08 a7 be ca be 73 be dd 3e 5f be
       0.17931356 -0.3262371 -0.23803249 -0.21801324
0000b0 47 e9 64 3d f4 8a a6 3d 3a b7 49 be 72 d3 06 3f
       0.055886533 0.08131972 -0.19698802 0.5266639
0000c0 1f d9 72 be db c4 af 3e 40 73 40 be 20 91 f5 bd
       -0.23715638 0.34329876 -0.18793964 -0.11990571
0000d0 35 a5 f1 3d 1c 9c 74 be 20 6a 30 bd 1f 8c ee 3d
       0.11799089 -0.23887676 -0.04306996 0.1164782
0000e0 c9 ab 18 3f 38 7d a2 be cd d2 34 bf dc 9f ef be
       0.59637123 -0.3173616 -0.70634156 -0.4680165
0000f0 bf c0 69 3b 9e 0a ff 3d 67 68 97 be 30 09 42 3e
       0.0035667864 0.12453197 -0.2957184 0.18948817
000100 cc e6 4a 3e 5a 47 f2 3d 41 e5 c4 bd 69 49 0a bf
       0.19814605 0.118300155 -0.09614039 -0.54018265
000110 3d ab be 3e 59 42 37 be 9e 2f e4 3c 07 b4 1e 3c
       0.3724002 -0.17896403 0.027854737 0.009686477
000120 8d 11 c7 39 b9 d0 1c 3e 0e 79 0a 3d 34 47 35 3d
       0.00037969314 0.15313996 0.033806853 0.044257358
000130 18 df 97 3d 77 48 9c bc a3 00 e5 bd 06 94 98 bd
       0.07415599 -0.019077523 -0.11181762 -0.07450108
000140 d9 25 45 3d a8 1b f5 3d 7c d9 4d 3e bd 04 59 3e
       0.048131797 0.11968166 0.20102495 0.21193214
000150 30 44 e4 bc 70 8d e8 3d 12 9d b1 bd 33 b5 7a 3d
       -0.027864546 0.11355102 -0.08672537 0.06120796
000160 4f 6d 50 be e0 be bc 3c f8 55 0e be 32 9d 0d be
       -0.20354198 0.023040235 -0.13899982 -0.13829497
000170 0e b4 bb bd c4 63 2b 3e 9d 8a 5d bd 3c 3e 86 3e
       -0.09165202 0.16737276 -0.05408727 0.26219356
000180 28 f0 e0 3c b8 c7 40 3d 96 45 64 be 61 23 4b be
       0.027458265 0.047065467 -0.2229217 -0.19837715
000190 66 5c 9a 3e 6b bf ce 3c d6 0f cb 3d 93 6f 29 3e
       0.3014862 0.02523776 0.0991513 0.16546468
0001a0 32 8b bc bd dd 9b 66 3d e7 18 01 be 2c 78 c8 3d
       -0.09206237 0.056300987 -0.12607156 0.09788546
0001b0 83 3d 48 be 39 fc 07 3e d7 35 b0 bd 5c af ad be
       -0.19554715 0.13279809 -0.08604019 -0.3392285
0001c0 d5 73 c0 3e 42 03 1b be e3 7e 36 be 84 35 b4 bc
       0.37588373 -0.15137962 -0.17821841 -0.021998174
0001d0 9a 60 95 bd 18 b4 88 be fa 54 af be 23 85 6a 3e
       -0.07293816 -0.266999 -0.3424452 0.2290235
0001e0 43 18 9c bd 2b bf ad 3e 04 10 96 3c d2 b2 1b 3e
       -0.07621815 0.33934912 0.018318184 0.15204933
0001f0 3e 75 88 bc d6 d0 79 be 85 9d e9 3c 74 85 63 bd
       -0.016657468 -0.24396071 0.028517494 -0.055547193
000200 ad 61 9d 3d 7c d2 a2 3e 0d 09 07 bf 29 c0 83 be
       0.07684646 0.31801212 -0.52748185 -0.25732544
000210 8d 43 b2 3d bb a9 a3 bd 72 17 32 bd 7b f2 ee 3d
       0.087042905 -0.07991358 -0.04347939 0.11667343
000220 33 79 96 3d d8 cd bf 3d 45 d8 4a 3e 21 f1 7b 3e
       0.07347336 0.093654335 0.19809063 0.24603702
000230 ed ea 64 be 61 6c 15 3d 3d 74 5e 3e 36 06 b3 bd
       -0.22355242 0.03648031 0.21724029 -0.08741419
000240 c5 4c 8d bd a4 91 29 be f2 98 37 38 c3 81 40 be
       -0.06899408 -0.16559464 4.377304e-05 -0.187995
000250 3e 4f 52 3e 74 2c 4c be eb 8d fa bd 0a a3 70 3d
       0.20538041 -0.19938833 -0.122341 0.058749236
000260 89 fc 06 be 67 42 af bb e2 72 01 be f4 b7 9e bd
       -0.13182272 -0.005348492 -0.1264148 -0.0774993
000270 3d e1 74 bc 7e 3f 0c 3e fa 44 e6 3d 2a d8 09 3e
       -0.014946279 0.13696095 0.11243625 0.13461366
000280 69 90 31 3e ca d2 50 3d ea 4c 28 3e 1e da 54 be
       0.17340244 0.050982274 0.1643559 -0.2078633
000290 23 bc 0e 3d f1 cc 87 be 3c 03 94 3e 24 5a 24 3e
       0.03484739 -0.26523545 0.28908718 0.16050011
0002a0 ad ea f1 bd e4 13 1a bd e9 2f db 3e b0 81 59 3e
       -0.11812339 -0.037616625 0.4280999 0.21240878
0002b0 3d a8 2c 3d cb c1 00 3e 23 45 2a 3e 66 b5 13 3f
       0.042152632 0.12573926 0.16627936 0.5769867
0002c0 8a 68 b8 3a 69 b4 ba be 74 23 db be 05 e2 f8 bd
       0.0014069241 -0.36465767 -0.42800486 -0.12152485
0002d0 53 9d a1 bd 61 c9 3c bf 41 fe 99 3d 30 49 1d 3e
       -0.07891335 -0.7374478 0.07519198 0.1535995
0002e0 aa 4f fb bd a6 fd e9 3c 3e 6d d4 3e f7 19 fe bb
       -0.12271054 0.028563332 0.41489595 -0.00775456
0002f0 0b 24 75 be ec 90 81 be 4a ac 14 3c b4 9f 52 bd
       -0.2393953 -0.2530588 0.00907428 -0.051421836
000300 6d 0b 8d be 26 15 be 3e 55 09 80 3e 41 ac 0f bf
       -0.2754778 0.3712551 0.2500712 -0.56122214
000310 97 b7 61 3e ac 19 35 3e 05 df 26 3f f3 c3 5f 3f
       0.2204269 0.17685574 0.6518405 0.8740837
000320 74 9a 11 3e 5c 5d b2 3e 98 b3 3d 3f 5b c2 12 3f
       0.14219075 0.34836853 0.74102163 0.5732781
000330 4e d3 ad be 39 e3 c4 3d d6 2d 67 3d 0c e6 48 bf
       -0.33950275 0.09613652 0.056440197 -0.78476024
000340 a4 41 b8 be 1f a9 52 3e 08 71 bf 3e d7 ec 91 3b
       -0.3598758 0.20572327 0.37390924 0.0044532823
000350 3a 55 a8 3e 32 81 d7 be 44 e6 50 3c f6 2d 1a bd
       0.32877523 -0.42090756 0.012750212 -0.037641488
000360 32 c7 48 3e 22 db 89 3c 74 17 83 3e 93 75 03 bf
       0.19607237 0.016828123 0.2560383 -0.5135128
000370 c7 fe cc 3d c5 42 b6 3d b1 02 8f be f4 d0 ae be
       0.100095324 0.08899454 -0.2793174 -0.34143794
000380 c6 ac 96 3e f3 bb 28 3e 19 4d 5b bc ba 5a e7 3d
       0.2942869 0.16477947 -0.013385081 0.112966016
000390 e0 22 d3 bd 6c 19 d1 bd 6a 1a 34 3e da 4f 29 3e
       -0.10309386 -0.10209927 0.17588201 0.16534367
0003a0 e1 b6 e0 be 55 43 1d 3e b7 e9 6f 3e 1a c7 d0 3e
       -0.43889526 0.15357716 0.23428999 0.40776902
0003b0 d9 f7 8c bd 86 f8 98 3e 4e 9c fa 3e cd 35 cd 3d
       -0.06883211 0.29877108 0.48947376 0.10020027
0003c0 ae 43 84 bd dd 61 26 be a4 db 8c be 37 46 00 bf
       -0.064582214 -0.1624827 -0.27511322 -0.5010714
0003d0 72 77 1a bd 7c 74 61 be 22 28 ac bc c6 3f d3 3d
       -0.03771157 -0.22017092 -0.02101523 0.10314898
0003e0 45 8b 96 bb 34 9c b8 3e d3 b3 81 3d 96 3b a9 be
       -0.004594239 0.36056674 0.06333127 -0.33053273
0003f0 24 d1 2f be b3 0b b7 be 3c 87 e5 3b 98 c8 35 be
       -0.17169625 -0.35751113 0.0070046466 -0.17752302

cell.gru.bias_ih f4 [192]
000000 f7 19 b2 3e e6 7e 75 be 68 56 ad bd ba 19 15 bd
       0.34785435 -0.23974189 -0.08463746 -0.036401488
000010 09 ab 18 3f 6b ac 22 3e e6 c1 97 be a4 96 0a bf
       0.5963598 0.15886085 -0.2964012 -0.5413611
000020 b9 25 9b bd c7 ac 25 be 1c 5f 97 be f9 37 33 3d
       -0.075755544 -0.1617919 -0.2956475 0.04375455
000030 9c 58 6b ba 20 e6 4a bc e1 06 f4 be 97 4d 9a 3d
       -0.00089777424 -0.012383968 -0.47661498 0.0753433
000040 a0 76 eb bd 5a a7 93 be af e7 d1 3e d5 b7 6f 3e
       -0.11497235 -0.28838617 0.40997073 0.2340997
000050 29 a1 7f be 85 44 be 3e a4 98 a2 3d 33 43 09 be
       -0.24963821 0.3716165 0.0793927 -0.1340454
000060 53 b4 57 bd f0 92 b3 be e1 92 60 3d 6c 77 8c 3e
       -0.052662205 -0.35073042 0.054827575 0.27434862
000070 c1 63 1f bf 27 ed d8 bd 89 54 6d 3e ca a5 b0 be
       -0.6226159 -0.10592108 0.23176779 -0.34501487
000080 02 6e 3c 3e 6d e2 21 3d a3 29 c8 be 68 17 16 3e
       0.1840134 0.039522577 -0.39094266 0.14657366
000090 13 7d b2 bc 16 5e b5 3e 22 64 a6 3e 4f 7e e2 3c
       -0.021788156 0.35423344 0.3249827 0.02764812
0000a0 be 5d 2c 3d 17 96 23 3e 75 f6 e5 be d4 88 92 3e
       0.042081587 0.15975223 -0.44914594 0.28620017
0000b0 6b fe 87 be fa 5c ee bd 1f 22 b2 be ee 05 0e bf
       -0.26561293 -0.116388276 -0.34791657 -0.554778
0000c0 3c 51 af be d6 ea bd 3b ef 6d 3b 3e 66 e6 4d be
       -0.34241664 0.005795817 0.18303655 -0.20107421
0000d0 ee 67 84 3e 55 0a e3 bd 66 bf 13 be f3 63 65 3e
       0.25860542 -0.11085955 -0.14428481 0.22401409
0000e0 73 74 9f 3c a2 d6 54 3e db 31 09 3d c0 9b 1b be
       0.019464707 0.20785001 0.03349481 -0.15196133
0000f0 63 91 0e 3d 5b 0b f2 be 1e 80 64 be 95 86 0a be
       0.03480662 -0.4727429 -0.22314498 -0.13527901
000100 15 a5 98 3d bb bb ef 3e 9d ac e2 3c 1d 29 c9 bd
       0.07453362 0.46822914 0.027670199 -0.09822295
000110 c8 11 ab 3e 2e ac b0 3e 5b 79 32 3e 44 d4 a9 bd
       0.33412004 0.34506363 0.17429106 -0.082924396
000120 e6 c7 91 3e 40 5d b7 3e 80 91 df 3e e8 9e b6 be
       0.28472823 0.35813332 0.43665695 -0.3566811
000130 90 94 f6 bc e0 4b 48 be 4b e5 b4 bd 59 c8 2f 3c
       -0.030100137 -0.19560194 -0.08832797 0.010728919
000140 64 3d 44 bd 05 75 b5 bd c9 56 9d 3e 58 d3 dd 3e
       -0.04791011 -0.0886021 0.30730274 0.43325305
000150 2c f0 64 3c 57 f8 b7 3d df 87 06 be 8a d9 96 3e
       0.013973277 0.08982914 -0.13137768 0.29462844
000160 5e 5e 12 bd c9 da 72 3e 0c e1 e3 3d 26 19 cd be
       -0.035734527 0.23716272 0.11126909 -0.4005825
000170 c7 2e f7 be 59 61 9c bd d6 6b 99 3e 88 66 f2 bc
       -0.48277876 -0.07635755 0.29965085 -0.029589906
000180 15 75 e3 3e cb 11 77 3e 0e c7 d7 be 0b 91 fd 3c
       0.44425264 0.24127881 -0.42144054 0.030952951
000190 eb 22 80 3e 51 6a 60 bc 42 ad af bd 1b 4e 09 be
       0.2502664 -0.013697223 -0.08577968 -0.13408701
0001a0 24 91 e3 3e 24 98 1d 3e 00 e9 32 3d 05 ef 84 bd
       0.4444667 0.15390068 0.043679237 -0.06490902
0001b0 ea 23 10 be 6b 17 e5 3e 70 12 5d 3e 0f e9 37 be
       -0.140762 0.4474443 0.21589065 -0.17959999
0001c0 c3 13 5f be 09 d3 56 3d 2c eb 95 3c e8 b7 9c 3b
       -0.21784882 0.052447353 0.018300615 0.0047826655
0001d0 87 f0 ab 3e 60 76 8d 3d 86 e5 68 3e 5b ea 15 bd
       0.33581945 0.06907344 0.22743806 -0.036600452
0001e0 47 69 68 be 10 b8 c2 3e 1d ae 24 bd aa 8f c6 be
       -0.2269641 0.38031054 -0.04020511 -0.38781482
0001f0 7d c6 74 3e 87 e0 b8 3e 9a 62 dc ba 57 ad bf 3e
       0.23903842 0.361088 -0.0016814054 0.37436935
000200 25 7d 9b bd ab 52 b8 3d 4d 27 63 3d 11 0f 3f bd
       -0.07592229 0.09000143 0.055457402 -0.046645228
000210 1c 97 50 bd 06 4f 30 3e 0c 55 55 be 3e 7b 94 bd
       -0.05092536 0.17217645 -0.20833224 -0.07250069
000220 ca 16 e6 3d a2 e5 21 3e 69 0a 31 3d cb 74 7f bd
       0.112348154 0.15810254 0.04322282 -0.06236724
000230 a7 70 a2 3d cd da 9b bb f8 e2 6a 3e 49 5c 56 be
       0.07931643 -0.0047563077 0.22938144 -0.20933641
000240 5a 95 a1 3d 98 65 e7 bc b3 cd 19 3e 6f 59 02 be
       0.07889815 -0.028246686 0.15019874 -0.12729429
000250 ab 51 c9 3c 19 c3 45 be 75 d6 20 be 79 9c 91 3c
       0.024575075 -0.19312705 -0.15706809 0.017774807
000260 10 67 0e be 50 a1 61 bd c4 cc 38 3d 6c d5 48 3e
       -0.13906503 -0.05508548 0.045117155 0.19612664
000270 df e5 00 3e 34 8e b0 3e 55 df c7 3d 57 0e 9b bc
       0.12587689 0.34483492 0.09759394 -0.018927736
000280 a1 6a b2 bd 68 bd 52 bd 58 3f cd 3c 87 82 1c 3e
       -0.08711744 -0.051450163 0.025054619 0.15284167
000290 83 c4 b2 bd e4 16 20 be cd 51 e9 bc 3d 90 f9 3c
       -0.08728888 -0.15633732 -0.028481388 0.030464286
0002a0 bc 14 01 be 72 aa d7 3d 01 ea 22 3b fd 07 31 bd
       -0.12605566 0.10530557 0.0024858715 -0.04322051
0002b0 56 23 af 3d 4c be 2f 3e 02 82 a5 3c 3e 0a b4 3d
       0.08551662 0.17162436 0.020203594 0.08791016
0002c0 73 6e f4 bc 3a 54 9b bc 77 34 a4 3d 8c a4 cc bb
       -0.029837823 -0.01896106 0.080178194 -0.0062452015
0002d0 5a 38 56 bc 66 bc 55 bd 56 d3 52 bd eb c0 c2 bd
       -0.013074959 -0.052181624 -0.051471077 -0.095094524
0002e0 6c 10 48 be 6d a6 94 3c f4 35 cc bc ce 64 93 bc
       -0.19537514 0.018145764 -0.02492807 -0.017992403
0002f0 db 00 6f 3d 29 f3 99 3c 06 73 07 be 3a e4 0e bd
       0.058350425 0.018792706 -0.13227472 -0.034885623

cell.gru.bias_hh f4 [192]
000000 ca 15 e6 3e 1d 36 89 be 0c 83 93 be 24 79 9e bd
       0.449385 -0.26799098 -0.28810918 -0.077379495
000010 2b 07 17 3f f2 3f 94 3e e6 d5 38 be 4e 48 1e bf
       0.5899531 0.28955036 -0.18050346 -0.6182908
000020 71 e4 ed bd ac d7 89 bd 4e 32 fb be 87 68 7a 3e
       -0.11615837 -0.06730589 -0.49061817 0.24453937
000030 c2 06 9f bd 50 d1 eb 3b c9 4a 9f be 61 d2 16 be
       -0.07764961 0.007196583 -0.31111744 -0.1472869
000040 40 e5 85 be 4a e2 d1 be 65 d6 de 3e c0 7c 86 3e
       -0.26151466 -0.40992957 0.43522945 0.26267052
000050 4b e6 dd bd 9a 15 e3 3e db 21 19 3d cd cf 88 be
       -0.108349405 0.44352418 0.037385803 -0.2672104
000060 05 21 e6 bd f6 15 52 be 58 a1 5d 3e 60 72 cf 3e
       -0.11236767 -0.2051619 0.21643579 0.4051695
000070 c7 fc 35 bf ce 31 03 bd 0d e7 37 3e 52 89 ed be
       -0.7108883 -0.03202992 0.17959233 -0.4639383
000080 de 86 06 3d bf 42 8b bc 3d 7d f9 be c8 c1 71 3e
       0.032843463 -0.0169996 -0.48728362 0.23609078
000090 d1 f0 05 3e 09 2e 81 3e 74 75 d0 3e fe 94 90 bb
       0.13080145 0.25230435 0.4071461 -0.0044122925
0000a0 d8 f3 31 be fd cc 8b 3e 3a 10 98 be 30 6e 0f 3e
       -0.17378175 0.2730483 -0.2969988 0.14006877
0000b0 09 e5 c5 be ea 7b 3e 3d a3 7d d8 be 30 a3 04 bf
       -0.38651302 0.046504892 -0.42283353 -0.51811504
0000c0 e1 76 a9 be 61 c6 0e 3d 17 ae 56 3e ef cf 3d be
       -0.3309851 0.034857158 0.20964848 -0.18536352
0000d0 6a 90 1c 3e c6 e7 65 be 2a f1 26 be 4b f4 44 3e
       0.15289465 -0.22451696 -0.16302934 0.19233815
0000e0 84 db 2d be dc 16 2c 3e 6c 8b f2 bd d3 da aa bd
       -0.1697827 0.16805595 -0.11842999 -0.08342519
0000f0 a7 66 6c 3d b2 55 1e bf ac ee c0 be 7c a6 cd 3c
       0.057715084 -0.6184951 -0.37682092 0.0251038
000100 92 9e 54 3e 89 77 d7 3e d2 b3 fa bd 27 fb 12 be
       0.20763615 0.42083386 -0.12241329 -0.1435362
000110 28 c4 b6 3e da 61 c9 3e 3f 04 32 3e be d2 6a bc
       0.3569653 0.39332467 0.17384432 -0.014332471
000120 db 12 58 3e 08 09 91 3e 4e 19 ac 3e 76 ee e1 be
       0.21100943 0.28327203 0.33613056 -0.44127244
000130 71 be 2e bd c7 c1 ca bd cb dc d1 bc 68 cf 50 be
       -0.042662088 -0.09900241 -0.025617978 -0.20391619
000140 9c 63 a3 bd 02 18 34 be 10 94 ba 3e 07 40 9b 3e
       -0.07977983 -0.17587283 0.36441088 0.30322286
000150 c9 68 ca bd 46 22 d0 3d 94 c4 78 bd 26 87 85 3e
       -0.098832674 0.10162787 -0.060734347 0.26079673
000160 0a ff b4 3d b6 2a ff 3c 2f 6a b0 3d 82 9a ae be
       0.08837707 0.031148296 0.08614003 -0.34102255
000170 6b 3f ea be ef fe 44 be 32 d0 e2 3e 54 ae dc bd
       -0.4575151 -0.19237874 0.44299465 -0.10775438
000180 bc 5b e7 3e 16 b1 a7 3e 34 3c 9b be e5 7f b2 3d
       0.45187175 0.32752293 -0.3031937 0.087158
000190 4f a4 54 3e ab 4f b7 bd 09 ff 70 3d c4 ff 6f bd
       0.20765804 -0.08950742 0.05883697 -0.058593526
0001a0 1b 7f d1 3e 3f d1 9f 3e 7d c2 1b be 47 d1 70 bd
       0.40917286 0.3121433 -0.1521091 -0.058793332
0001b0 ba 28 9b bd e9 33 03 3f 4d 15 39 3e 71 47 62 be
       -0.07576127 0.51251084 0.18074532 -0.22097565
0001c0 d2 b9 05 be c4 39 dd bc b7 4d 58 bd 2f cb 03 be
       -0.13059166 -0.027005084 -0.05280849 -0.12870477
0001d0 9a d0 98 3e 8b 0b 16 3e eb 8d a2 3e 25 cf f6 bd
       0.2984665 0.14652841 0.317489 -0.120512284
0001e0 a0 73 91 be d3 6c 93 3e d4 d7 2e bd 20 8c 52 be
       -0.28408527 0.28793964 -0.0426863 -0.20561266
0001f0 0d 05 e6 3e 66 5d c8 3e 0c 4e 3e be f9 f9 87 3e
       0.44925728 0.39133757 -0.1858446 0.26557902
000200 0d 93 aa 3d ef 62 7b be 0f 89 24 3d 6f 8b 88 3e
       0.08328829 -0.24549459 0.04016977 0.2666888
000210 94 3e 4d be 5b 45 32 be a4 3f eb 3e 7b e8 bd 3e
       -0.20043403 -0.1740927 0.4594699 0.3709143
000220 00 53 9a be b2 36 d6 be f4 9b 4e 3c db 5b 1d bf
       -0.3014145 -0.41838604 0.012610424 -0.61468285
000230 69 3d bd bd 9d 3b 49 3d f4 5d d9 be f9 cc 14 3f
       -0.09240229 0.049129117 -0.42454493 0.58125263
000240 a9 ce 5a 3e 94 50 09 be 5f fb 2f be 37 7c b9 3d
       0.21367897 -0.13409644 -0.17185734 0.09056895
000250 5b 58 df bd b7 8a ac 3e 05 d4 7a 3d 00 33 e1 3d
       -0.10905524 0.3369958 0.061237354 0.109960556
000260 4d 61 b0 3d ca 3c 88 3c 55 c7 00 3d 98 b2 5b 3e
       0.08612309 0.016630549 0.031440098 0.21454847
000270 67 7e 09 bf 90 d1 9c 3c a8 36 53 be 0b 9d 8f 3e
       -0.537085 0.019142896 -0.20626318 0.28049502
000280 b9 bf b7 be fa 0b 08 3e 2c b7 83 be c9 00 ce 3d
       -0.3588846 0.13285819 -0.25725687 0.100587435
000290 1d 7c 37 bc 2c d4 71 3c 71 68 2a be 1f 63 d4 bd
       -0.0111990245 0.014760058 -0.16641404 -0.10370468
0002a0 6d 64 f0 3d 42 a7 8b be 7c db 72 be fd aa fb bd
       0.11737905 -0.27276045 -0.23716539 -0.12288473
0002b0 a6 4d 59 3d 62 2d d9 bc 7c 5b 92 3b 8a 1d c3 be
       0.053052567 -0.026510898 0.004466472 -0.38108474
0002c0 52 a1 fe 3c 00 be 26 3e f5 4e 92 3e f6 4a 9d 3e
       0.031082783 0.16283417 0.28575864 0.30721253
0002d0 6a 9a 97 3e 04 46 9b bd 1f 7f 42 3e a2 1e 37 be
       0.29609996 -0.07581714 0.18993805 -0.17882779
0002e0 86 04 f2 3d 84 81 ca bd 24 00 23 3d 4e b0 7c bd
       0.11817269 -0.098879844 0.039795056 -0.061691575
0002f0 ab b3 9a bd ff 24 04 3e f7 21 37 3e b3 45 15 be
       -0.075538 0.12904738 0.1788405 -0.1457737

fc_out.weight f4 [3, 64]
000000 e9 11 32 3e 61 74 66 be 6c 25 36 be 69 d5 36 3e
       0.17389645 -0.22505333 -0.17787713 0.17854847
000010 31 12 c9 be 57 9a 1a be 91 11 61 be d0 eb 12 bf
       -0.3927169 -0.15097938 -0.21979357 -0.5739107
000020 02 5b 39 be 68 4a 85 be 23 a2 14 bf 53 ba d6 bc
       -0.18101123 -0.2603333 -0.580599 -0.026211893
000030 51 56 c1 3d 00 bb 00 be 7e f3 2a 3e 5b 09 87 3e
       0.09440292 -0.12571335 0.16694447 0.26374325
000040 0e f5 fa 3d 40 59 e6 3d d0 55 03 bf 36 76 c9 3e
       0.12253772 0.11247492 -0.51302814 0.39348
000050 ee 5b 05 be 59 45 50 3e 96 6b 96 3d 52 bc 5e be
       -0.1302335 0.20338954 0.07344739 -0.21751526
000060 5e ba c6 3d ad 0c 45 be 21 b5 37 3e fb 1b 13 3d
       0.097035155 -0.19243117 0.17940189 0.035915356
000070 19 70 06 3e 98 94 11 3d ba d4 b1 be 51 08 f7 bd
       0.131287 0.0355421 -0.3473261 -0.12062133
000080 f2 e4 24 bd 46 8e 70 be 64 b6 0a 3e 36 d2 19 be
       -0.0402574 -0.23491773 0.13546139 -0.15021595
000090 f1 36 16 3c 40 16 c6 3c 36 d6 42 bd 17 9c f2 3d
       0.0091683725 0.024180532 -0.04756757 0.11846178
0000a0 9d 4c c8 3e f4 4a 4e be 0b 4a c7 bd 76 b3 cc bd
       0.3912095 -0.2014578 -0.097309195 -0.09995167
0000b0 49 bd ec bd a6 b7 e7 be 04 53 d1 be 40 30 84 3e
       -0.11559541 -0.452573 -0.40883648 0.25818062
0000c0 6b 75 cc bd 5b c0 81 3d 04 58 28 ba 57 5c 82 3e
       -0.09983333 0.06335517 -0.0006421807 0.25461075
0000d0 40 e3 02 bd ba 16 7e bc 7c b1 56 3e 11 69 cc 3d
       -0.031955004 -0.015508348 0.20966142 0.09980977
0000e0 72 b1 c0 3d c6 2b 77 be 52 46 3c be c6 c9 94 bd
       0.09408845 -0.24137792 -0.183862 -0.07265048
0000f0 58 d4 93 3d 7f ce b4 3e 51 bf b5 bd 6a 3e 12 3e
       0.07218236 0.35313794 -0.08874381 0.14281622
000100 cf a6 57 3e e2 b4 27 be d0 2e fa bd 63 ce 1d 3e
       0.21059726 -0.16377595 -0.1221596 0.15410762
000110 22 09 bd be 5f 83 24 be 17 dc 60 be 4c 39 fc be
       -0.3692103 -0.16065739 -0.21958958 -0.49262464
000120 ce 68 61 be fe 79 7a be 72 89 09 bf e2 46 da bc
       -0.22012636 -0.24460599 -0.5372535 -0.026645128
000130 1d 32 e1 3d 96 c0 03 be c6 c6 4c 3e 87 90 86 3e
       0.109958865 -0.12866434 0.19997701 0.2628214
000140 54 39 14 3e cd 5c df 3d f3 b5 fc be ad 0e a6 3e
       0.14474994 0.10906372 -0.49357566 0.32433072
000150 7b 37 cd bd 52 92 20 3e 2d 4a a3 3d 2a 79 35 be
       -0.10020348 0.15680817 0.07973132 -0.17722002
000160 4f f6 e6 3d e9 00 43 be 9a 50 69 3e 1a 26 12 3d
       0.112774484 -0.19043316 0.22784653 0.035680868
000170 e3 e0 f6 3d 7d 27 20 3d eb d6 97 be 83 77 12 be
       0.120546125 0.03910016 -0.29656157 -0.14303403
000180 7d 13 05 bd 2c b0 74 be 3f f1 13 3e 3f b9 3e be
       -0.03248929 -0.23895329 0.14447497 -0.18625353
000190 b9 84 4e 3d 91 01 98 3c e2 b4 20 bd fb b7 35 3e
       0.050419543 0.018555434 -0.039235003 0.17745964
0001a0 ef a1 a1 3e fb d1 2d be 59 dd c8 bd 7d a3 b2 bd
       0.31568858 -0.16974632 -0.09807844 -0.08722589
0001b0 6c 29 cf bd 7a 44 e5 be 26 8c b3 be 10 fc 95 3e
       -0.101153225 -0.44778806 -0.35067862 0.2929387
0001c0 bf 4e cc bd a0 af 7d 3d 36 03 3b bc 2d 3d 82 3e
       -0.09975957 0.061935067 -0.01141434 0.25437298
0001d0 27 a0 06 bd 66 1d dc bc 3e a6 71 3e 13 e7 e8 3d
       -0.032867577 -0.026869487 0.23598573 0.11372199
0001e0 63 f8 d2 3d 23 77 80 be bd 74 4a be dd c3 7b bd
       0.10301282 -0.25090894 -0.19771095 -0.061466087
0001f0 cf ca 7c 3d 57 82 65 3e 31 a1 c5 bd f4 a6 18 3e
       0.06171685 0.22413002 -0.096498854 0.14907438
000200 1f 53 75 3e 93 1f dd bd 22 50 a4 bd cb 4c 0c 3e
       0.2395749 -0.10797038 -0.080230966 0.13701169
000210 bb 97 ae be fa 67 27 be dd 76 61 be d1 10 d3 be
       -0.34100136 -0.16348258 -0.22017999 -0.41223767
000220 6c 76 76 be ce 6d 65 be 06 12 fa be 3a 21 0f bd
       -0.24068612 -0.22405168 -0.48841876 -0.034943797
000230 82 40 fd 3d 3a 24 07 be d8 71 65 3e 17 d2 86 3e
       0.123658195 -0.13197413 0.22406709 0.2633216
000240 75 6e 23 3e 35 dc de 3d d6 9a ee be 18 e0 8d 3e
       0.15960105 0.10881845 -0.46602505 0.27710032
000250 b9 12 99 bd 8e b3 fd 3d ca 07 b1 3d 72 3a 0f be
       -0.07474274 0.12387763 0.08644064 -0.13987139
000260 1d 25 f9 3d 55 58 38 be a8 66 88 3e d0 ee 24 3d
       0.12165282 -0.18002446 0.2664082 0.04026681
000270 9f 29 e5 3d 78 46 4d 3d 61 7b 7a be ec 61 25 be
       0.11189579 0.050116032 -0.24461128 -0.16150635
000280 a6 e3 0a bd cb dc 78 be bf 8b 1d 3e ef 70 67 be
       -0.03390851 -0.24302976 0.1538534 -0.22601674
000290 ad 11 be 3d 87 d2 76 3c 13 94 e8 bc 9f 89 63 3e
       0.09280715 0.015064842 -0.02839092 0.22220467
0002a0 0a 70 84 3e 20 92 06 be a7 9c ce bd 99 cc 9c bd
       0.2586673 -0.1314168 -0.10088473 -0.076562114
0002b0 cb a8 c0 bd 8f 5f e1 be 2e 3f 9b be a8 4d 9f 3e
       -0.09407195 -0.44018218 -0.3032164 0.31113935
0002c0 56 e5 c4 bd 11 f0 74 3d db a5 cd bc f7 71 84 3e
       -0.09614055 0.059799258 -0.0251035 0.25868198
0002d0 c1 7f 08 bd 67 04 37 bd ee 71 84 3e e7 7e 00 3e
       -0.03332496 -0.044681933 0.2586817 0.1254841
0002e0 17 0e e0 3d 5d 05 86 be 23 69 58 be 53 b7 77 bd
       0.109401874 -0.26175967 -0.21133856 -0.060477566
0002f0 c7 8e 64 3d a7 ad e1 3d 77 1c d7 bd 4f 74 24 3e
       0.055800226 0.1101945 -0.10503476 0.16059993

fc_out.bias f4 [3]
000000 02 ae 26 3d 27 6a 1f 3d 3f 4b 21 3d
       0.04069329 0.038919594 0.0393784
