notebooks/archive/DCRNN/Adj_Dropout_15mins/dcrnn_best.pt (torch, 120760 bytes, 7 tensors)

cell.diff.theta f4 [65, 64]
0	0xbd13ff28	-0.036132008
1	0x3d870ddc	0.0659444
2	0x3e819f81	0.25317004
3	0x3e365f5d	0.17809816
4	0xbda3b94e	-0.079943284
5	0xbdc61d40	-0.09673548
6	0x3e6373a9	0.2221209
7	0x3e765bbf	0.24058436
8	0xbe39ddfa	-0.18151084
9	0x3e3233c2	0.17402557
10	0x3e525896	0.20541605
11	0x3d2a9f10	0.0416556
12	0x3e5cc357	0.21558891
13	0xbd65d4d9	-0.05611119
14	0x3e521536	0.20515904
15	0xbe3f5d00	-0.1868782
16	0xbdfc865a	-0.12330313
17	0xbd3b2409	-0.045688663
18	0x3de2627d	0.110539414
19	0x3e2a49ca	0.16629711
20	0x3e5722e2	0.210094
21	0x3dee0d08	0.11623579
22	0xbe678169	-0.2260796
23	0xbe56da93	-0.20981817
24	0xbe822b66	-0.25423735
25	0x3d8040e5	0.06262378
26	0x3e935348	0.28774476
27	0xbda63766	-0.08116035
28	0x3e77a59d	0.2418427
29	0xbe2fff53	-0.17187242
30	0x3d181823	0.037132394
31	0xbcce3e38	-0.025176153
32	0x3e8b973f	0.2726383
33	0xbdb4070e	-0.08790408
34	0xbe39d6f9	-0.18148412
35	0xbe676f8d	-0.22601147
36	0x3d1e59c8	0.03865984
37	0xbd3777ec	-0.0447921
38	0x3e03987c	0.12851137
39	0x3d032372	0.032016225
40	0xbb818eec	-0.003953805
41	0xbe60831c	-0.21925014
42	0x3d4e7431	0.050403778
43	0xbc6799e5	-0.014135812
44	0xbd93fbc1	-0.072257526
45	0x3e044700	0.1291771
46	0xbe2dc510	-0.16969705
47	0xbe2915fc	-0.16512293
48	0xbda2edf2	-0.07955541
49	0x3e1d75e6	0.15377006
50	0xbd8e0d73	-0.06936159
51	0xbe0557a5	-0.13021715
52	0xbd65c96c	-0.056100294
53	0x3e050964	0.12991863
54	0xbd7dd023	-0.061966073
55	0x3d152ff9	0.036422703
56	0xbe7dfe30	-0.24803996
57	0x3de09fd6	0.10967986
58	0x3cca387f	0.024685143
59	0x3dbf1da6	0.09331827
60	0x3e461ab4	0.19346124
61	0xbddc3015	-0.107513584
62	0x3e6749cd	0.22586747
63	0xbe50a508	-0.20375454
64	0x3c1a7c73	0.009429085
65	0xbdf9c292	-0.121953145
66	0x3d62c8d2	0.0553673
67	0x3e21d479	0.15803708
68	0x3c892f54	0.0167462
69	0x3c44628b	0.011986385
70	0x3da6b055	0.081391014
71	0x3ddd6c24	0.10811642
72	0x3d076c60	0.03306234
73	0x3e03dce5	0.12877233
74	0x3d7c0c8a	0.061535396
75	0x3da370b2	0.07980479
76	0x3cdaa83d	0.02669155
77	0x3d3aaa0c	0.045572326
78	0xbd6dc186	-0.058045886
79	0xbdaa9a15	-0.0833017
80	0xbdfb2305	-0.12262539
81	0xbd097aeb	-0.03356449
82	0x3d0cdd52	0.034390755
83	0x3d9deebf	0.07711553
84	0x3e213042	0.15741065
85	0x3e14ba86	0.14524278
86	0xbd020bdd	-0.031749595
87	0xbdc39309	-0.09549529
88	0xbdb053e5	-0.086097516
89	0xbd9c3d30	-0.07628858
90	0xbbaccd8b	-0.005273526
91	0xbe2c68bf	-0.16836832
92	0x3d1721cf	0.036897477
93	0x3a14d900	0.00056780875
94	0x3d5faf34	0.054610446
95	0x3c47ec6e	0.012202365
96	0x3d404b4e	0.046946816
97	0xbde64aa7	-0.112447076
98	0xbd2808e8	-0.04102412
99	0xbe1bab23	-0.15202002
100	0xbc839d61	-0.016066255
101	0xbd871f42	-0.06597759
102	0x3c6bd5bd	0.014394221
103	0xbd11cec5	-0.03559758
104	0x3dcdef28	0.10055381
105	0xbd78e47f	-0.060764786
106	0xbc940c56	-0.018072288
107	0x391037d0	0.00013753702
108	0xbdbbc0e2	-0.09167649
109	0xbd801805	-0.06254581
110	0x3d376bff	0.044780727
111	0xbe0b3cab	-0.13597362
112	0x3c534d52	0.012896853
113	0x3cf5c9c9	0.030003445
114	0x3d1172c0	0.035509825
115	0xbd877bd7	-0.066154175
116	0xbc2f30d1	-0.010692791
117	0xbda9563d	-0.08268402
118	0x3d2dc30f	0.04242235
119	0x3b0b3cfa	0.0021246062
120	0xbe01eb9f	-0.12687539
121	0x3d930c66	0.07180099
122	0xbdbe059f	-0.09278416
123	0x3dd1ff96	0.10253827
124	0x3d410fb5	0.04713412
125	0xbdf80b81	-0.12111569
126	0x3d69f0f3	0.057114553
127	0xbd9c8147	-0.07641845
128	0xbd2cb6e7	-0.042166617
129	0xbb0b8d18	-0.0021293815
130	0x3d7fdd87	0.062467124
131	0x3d986f22	0.07443072
132	0x3da9eba7	0.082969
133	0x3cd5a755	0.026080767
134	0x3d8099a9	0.06279308
135	0x3d3c4a09	0.045969043
136	0xbe0c25e3	-0.13686328
137	0x3ca741cf	0.020417122
138	0x3d0af6f4	0.03392692
139	0x3da4c8b1	0.08046091
140	0x3d44b670	0.04802555
141	0x3c81cacf	0.015843777
142	0x3decb59c	0.11558077
143	0xbc4cf6a0	-0.012509972
144	0x3c5f7ea3	0.013641032
145	0xbb993288	-0.0046752132
146	0x3db8b999	0.09019775
147	0xbd13c141	-0.036072973
148	0x3dae7db0	0.08520067
149	0x3da6b8d2	0.081407204
150	0xbdae343d	-0.085060574
151	0xbd80f1c8	-0.06296116
152	0xbdc80c17	-0.09767931
153	0x3cc16c25	0.023611138
154	0x3b14b138	0.0022688638
155	0xbd754a24	-0.05988516
156	0x3cd8d9b0	0.026470989
157	0xbd0102bc	-0.03149675
158	0xbc2220af	-0.009895488
159	0xbbaec2fc	-0.0053333025
160	0x3d98a03c	0.07452437
161	0xbd1e385f	-0.03862798
162	0xbe0e8918	-0.13919485
163	0xbd960dba	-0.07326837
164	0xbb270bac	-0.0025489135
165	0x3cf194b3	0.02948985
166	0xbc796e2a	-0.015224019
167	0xbca4947b	-0.020090332
168	0x3dd0d00f	0.10195934
169	0xbc58c134	-0.013229657
170	0x3d635034	0.05549641
171	0xbd944dc3	-0.07241394
172	0xbd9b5338	-0.07584232
173	0x3da15a02	0.07878496
174	0xbd221319	-0.039568994
175	0xbdbf99dd	-0.09355519
176	0xbd2b5904	-0.04183294
177	0x3c6b4002	0.014358522
178	0xbb21edd6	-0.0024708412
179	0xbdbee35a	-0.093207076
180	0x3c8820d5	0.016617218
181	0xbd9b7560	-0.07590747
182	0xbbfa4576	-0.007637675
183	0xbbcaa9b9	-0.0061847833
184	0xbd31008d	-0.043213416
185	0xbd2c0aff	-0.042002674
186	0xbc716e7e	-0.014735816
187	0xbdb61fb0	-0.08892763
188	0x3d79862a	0.060918964
189	0xbd06760f	-0.032827433
190	0x3d2f6651	0.042822186
191	0xbca22e7e	-0.01979756
192	0x3cc29a76	0.023755293
193	0xbd1a5e6a	-0.037687697
194	0xbdcad078	-0.099030435
195	0xbdad8280	-0.084721565
196	0x3e03e29d	0.12879415
197	0x3cdc940f	0.026926069
198	0xbde7e644	-0.113232166
199	0xbcdbd258	-0.026833698
200	0x3e50ebfe	0.20402524
201	0xbce7e61e	-0.02830797
202	0x3d2f2529	0.042760048
203	0xbc32f3dd	-0.010922399
204	0x3cd87aed	0.026425803
205	0x3dcb5fde	0.099303946
206	0x3d72430a	0.059145965
207	0xbd5dd8fc	-0.05416201
208	0xbc98aff7	-0.018638594
209	0x3d81cba3	0.06337669
210	0x3d82f023	0.06393459
211	0xbcf1e178	-0.029526457
212	0xbce1b090	-0.027550012
213	0xbe8df084	-0.2772256
214	0x3db1b21a	0.08676548
215	0xbd12ab68	-0.035807997
216	0xbe08041c	-0.13282818
217	0xbe17a385	-0.14808472
218	0xbd865e37	-0.06560939
219	0x3cf39fd4	0.029739298
220	0xbdd66118	-0.10467738
221	0x3e2043e1	0.15650894
222	0xbe14e6b6	-0.14541134
223	0xbd3f670e	-0.04672914
224	0xbdbbad1a	-0.09163876
225	0xbe067f91	-0.131346
226	0x3d9e7177	0.077364855
227	0x3d9a013c	0.07519767
228	0xbe025ed5	-0.12731488
229	0x3d898cec	0.06716332
230	0xbd47d2aa	-0.04878489
231	0xbc76f859	-0.015073859
232	0xbbb0fbbd	-0.0054011033
233	0x3e1409c2	0.14456847
234	0xbd9344e3	-0.071908735
235	0xbdfa7799	-0.12229843
236	0x3d87e709	0.06635863
237	0xbe55740c	-0.2084505
238	0x3d95ef57	0.07321041
239	0x3e464cec	0.19365281
240	0xbd2cc74e	-0.04218226
241	0x3dea0805	0.11427311
242	0xbc373ab5	-0.01118343
243	0x3dfee119	0.12445278
244	0xbda1ffe2	-0.07910134
245	0xbe62a1e9	-0.22132076
246	0xbc4ded31	-0.012568758
247	0xbdcc04ca	-0.09961851
248	0xbd2b5b31	-0.041835014
249	0x3ba25c70	0.004954867
250	0xbddc2ac7	-0.10750347
251	0xbd22ed2f	-0.039776977
252	0xbd45c5e6	-0.048284434
253	0xbd1acd83	-0.037793647
254	0x3d0768f4	0.033059075
255	0x3ddcebfd	0.10787199

cell.gru.weight_ih f4 [192, 64]
0	0xbe09b6ec	-0.13448685
1	0x3d605f2c	0.054778263
2	0x3db7fae0	0.089833975
3	0xbe949599	-0.29020384
4	0x3e243441	0.16035558
5	0x3e228f24	0.15874916
6	0xbe995f9b	-0.29955754
7	0x3d3bc81d	0.04584514
8	0x3db20c00	0.08693695
9	0xbcfe211f	-0.031021653
10	0xbc768944	-0.015047375
11	0x3e0a1de4	0.13487965
12	0xbebba554	-0.36649573
13	0x3e60c859	0.21951427
14	0xbea75544	-0.3268224
15	0x3e48e7cb	0.19619672
16	0xbc826339	-0.015916454
17	0xbd3914e4	-0.04518594
18	0xbe58e09f	-0.21179436
19	0xbea1a1f1	-0.31568864
20	0xbe734317	-0.23756061
21	0x3e9a2b59	0.30111197
22	0xbda722ff	-0.08160972
23	0xbd5799fa	-0.052637078
24	0x3eaadc96	0.3337142
25	0xbe2abb64	-0.16673046
26	0x3c3741f7	0.011185161
27	0xbe3d7e61	-0.18505241
28	0xbd2296ef	-0.039694723
29	0x3e8e69d3	0.27815112
30	0xbe2054e9	-0.1565739
31	0xbe661ba2	-0.22471479
32	0x3cec06df	0.02881187
33	0x3dfb52f3	0.12271681
34	0x3ea25adb	0.31709942
35	0x3e02e6ba	0.12783328
36	0x3d67500a	0.056472816
37	0x3cc02fd7	0.023460312
38	0xbc32167e	-0.01086962
39	0xbe329f97	-0.17443691
40	0xbe59a3c9	-0.21253885
41	0xbddf737d	-0.109106995
42	0xbe9a17c3	-0.30096254
43	0x3e0b0f86	0.1358014
44	0xbcf04590	-0.029330045
45	0xbc0aaf7e	-0.008464692
46	0xbd8c22a5	-0.068425454
47	0xbe23cdf0	-0.15996528
48	0x3e7ffeba	0.24999514
49	0xbe14c1de	-0.1452708
50	0x3ce56a19	0.028004693
51	0x3e902af1	0.28157762
52	0x3d3ee633	0.046606254
53	0xbd8bde1f	-0.068294756
54	0x3dc62a2f	0.09676015
55	0x3ce6e5b1	0.028185697
56	0x3e1a83e8	0.1508938
57	0x3d9dc129	0.07702858
58	0x3db79c65	0.08965377
59	0xbde9bf60	-0.11413455
60	0x3e38fc5b	0.18065016
61	0xbd77c841	-0.06049371
62	0xbd3e3a45	-0.04644229
63	0xbca4174d	-0.020030642
64	0xbe7c0703	-0.2461205
65	0x3e9b934d	0.3038582
66	0xbd8218bc	-0.06352374
67	0xbdf46baa	-0.11934598
68	0x3d6a61ef	0.057222303
69	0xbdd3cb78	-0.10341543
70	0xbe5d72bc	-0.21625799
71	0x3e312b1b	0.173016
72	0x3dbe1ba1	0.092826135
73	0x3e619722	0.22030309
74	0x3e060711	0.13088633
75	0xbdf163d1	-0.117866166
76	0x3dc3c4a0	0.095589876
77	0x3cfb927f	0.030709503
78	0x3cc59cf8	0.0241227
79	0x3d241576	0.04005953
80	0xbdbe3fed	-0.092895366
81	0xbe0f0a1a	-0.13968697
82	0xbd824366	-0.063605115
83	0xbd6cce8c	-0.057814166
84	0xbe1382fa	-0.14405432
85	0x3da51813	0.080612324
86	0xbcced25a	-0.025246788
87	0x3d748e69	0.059706125
88	0xbda666d5	-0.081250824
89	0x3ca89589	0.020579116
90	0x3d5be784	0.053687587
91	0xbde50c5c	-0.11183998
92	0x3de7bfe8	0.113159
93	0xbd950700	-0.07276726
94	0xbdf78e53	-0.12087693
95	0x3d9e12f3	0.07718458
96	0x3e2586bd	0.1616468
97	0x3dab30a7	0.08358889
98	0x3da0e0a7	0.07855349
99	0x3da7d941	0.08195735
100	0x3d97d30f	0.07413303
101	0xbb8d8a63	-0.0043194755
102	0x3cb78db4	0.022406437
103	0x3b5d4d10	0.0033767857
104	0xbd06f1db	-0.032945495
105	0x3d3af69a	0.045645334
106	0xbe102999	-0.14078368
107	0xbdb76a13	-0.08955779
108	0xbdba4244	-0.090946704
109	0x3e1bee4a	0.15227619
110	0xbdd4e95a	-0.10396071
111	0xbe394b3d	-0.18095107
112	0x3d897bf2	0.06713094
113	0x3e7b7f1a	0.24560204
114	0x3df992ff	0.121862404
115	0x3e15f663	0.1464477
116	0xbda0408c	-0.07824811
117	0x3d6520c6	0.05593946
118	0x3e0b6e73	0.13616352
119	0x3e064c8c	0.13115138
120	0xbb72cd92	-0.00370488
121	0x3e311c88	0.1729604
122	0xbe1ac6df	-0.15114926
123	0x3d0aff9a	0.033935167
124	0xbbf900e7	-0.0075989845
125	0xbe0c74f4	-0.13716489
126	0x3e0aea86	0.13566026
127	0xbe29d0ab	-0.16583507
128	0x3e3569e3	0.17716174
129	0x3ca8a224	0.020585127
130	0xbc874013	-0.016510045
131	0xbd7ac4df	-0.061222907
132	0x3e3eb6ae	0.18624374
133	0xbe0e732d	-0.13911124
134	0xbda8aa98	-0.08235663
135	0x3cd94b59	0.026525186
136	0x3e0c8d07	0.13725673
137	0xbd21613f	-0.03939938
138	0xbd8528f8	-0.06501955
139	0x3e1bbdb0	0.15209079
140	0xbd9e946e	-0.077431545
141	0xbced0edd	-0.028937751
142	0xbc0be969	-0.008539536
143	0x3dd1f63e	0.10252045
144	0xbe0f19a3	-0.13974623
145	0x3e9f1500	0.3107071
146	0x3c2078e2	0.009794446
147	0xbe54a0ae	-0.2076442
148	0xbcf48c04	-0.02985192
149	0x3dcfa51f	0.10138916
150	0xbd6a075b	-0.05713592
151	0xbcf4d964	-0.029888816
152	0x3d6b589f	0.057457563
153	0xbe260037	-0.1621102
154	0xbd840aa1	-0.0644734
155	0x3cb17881	0.021663906
156	0x3c7dd2a7	0.015492118
157	0x3dc75f45	0.09734968
158	0xbd8b952a	-0.0681556
159	0xbe90c4f7	-0.28275272
160	0x3cb1953e	0.02167761
161	0xbd199250	-0.03749305
162	0x3db72cba	0.08944078
163	0xbd9785d0	-0.073985696
164	0x3e8c827f	0.2744331
165	0xbf00ac79	-0.5026317
166	0x3cfbf863	0.030758088
167	0xbe916b23	-0.2840205
168	0x3cdaba16	0.02670006
169	0x3cd8a69b	0.026446631
170	0x3aedaa10	0.0018132348
171	0xbebdfa0a	-0.37104827
172	0x3d94b5e6	0.07261257
173	0xbe5a37f5	-0.21310408
174	0x3dddaa23	0.10823467
175	0xbe043b03	-0.12913136
176	0xbe3a1c7a	-0.18174925
177	0x3d83f64f	0.06443464
178	0xbe89799f	-0.26850602
179	0x3d99a49f	0.07502102
180	0xbe2b90ec	-0.16754502
181	0x3cc805cc	0.024416827
182	0xbeb1374b	-0.34612498
183	0x3d5b555a	0.053548194
184	0x3daca674	0.08430186
185	0x3e4a9106	0.19781885
186	0x3e24ba76	0.16086754
187	0x3db95ff0	0.09051502
188	0x3daea2c6	0.0852714
189	0x3eac9c48	0.33712983
190	0xbd2c39e7	-0.042047407
191	0xbdaf258d	-0.08552084
192	0x3daa6f11	0.083219655
193	0xbcce6dc0	-0.025198817
194	0xbdb2076c	-0.08692822
195	0x3d12d15a	0.035844184
196	0x3d2ab550	0.04167682
197	0x3cfac663	0.030612176
198	0x3e21979c	0.1578049
199	0xbd61a6aa	-0.055090584
200	0xbd0e4f8e	-0.034743838
201	0xbdbed4c7	-0.09317928
202	0xbd919971	-0.07109345
203	0xbdb4aa83	-0.08821585
204	0x3e69cca6	0.22831973
205	0xbe0eee3e	-0.1395807
206	0x3e014531	0.1262405
207	0xbd44f060	-0.048080802
208	0x3d1667d5	0.036720116
209	0x3dbdad6d	0.09261594
210	0x3d461626	0.048360966
211	0x3e2ba1b5	0.16760905
212	0x3dd357ac	0.103194565
213	0xbdbc017c	-0.091799706
214	0x3db8f9e1	0.090320356
215	0x3c754865	0.0149708735
216	0xbdde70b4	-0.1086134
217	0xbe1d34f6	-0.15352234
218	0xbdb63fcb	-0.08898886
219	0xbda079f2	-0.07835759
220	0x3c1ff5d1	0.009763197
221	0xbe2274c3	-0.15864854
222	0x3d807e01	0.06274033
223	0x3d53285b	0.051552158
224	0x3d9804e7	0.0742281
225	0x3db4dbc3	0.08830979
226	0xbe4a9de6	-0.19786796
227	0x3d508d7e	0.050916187
228	0xbda5b4af	-0.08091103
229	0x3d604b4a	0.0547593
230	0xbc6f6332	-0.014611052
231	0xbd88b16e	-0.06674467
232	0xbd8b76c7	-0.06809764
233	0x3da66b38	0.08125919
234	0xbd51897f	-0.051156517
235	0x3d294d8a	0.041333713
236	0x3d3c5c9c	0.045986757
237	0xbd7523d5	-0.059848625
238	0xbdf00038	-0.11718792
239	0xbdc4923d	-0.09598205
240	0x3d7e4ffa	0.06208799
241	0xbd180985	-0.037118454
242	0x3c52b1b3	0.01285975
243	0x3d3a4f47	0.04548576
244	0x3cd7f7ee	0.02636334
245	0x3ce5baf8	0.028043255
246	0xbc85cadc	-0.016332082
247	0xbe311838	-0.17294395
248	0xbe0a9617	-0.13533817
249	0xbe282ac7	-0.16422568
250	0xbcdfb4ff	-0.027307985
251	0xbd3412a3	-0.043963086
252	0xbdb37903	-0.087633155
253	0x3c44ffde	0.012023894
254	0x3e309cec	0.17247361
255	0x3dbdb1e7	0.09262448

cell.gru.weight_hh f4 [192, 64]
0	0xbe484db3	-0.1956089
1	0x3d85746a	0.06516345
2	0xbdfbe216	-0.12298982
3	0x3e58432d	0.21119376
4	0xbe91d341	-0.28481486
5	0x3e8c53fc	0.27407825
6	0x3e857d36	0.2607209
7	0x3e934567	0.28763887
8	0xbf05f09f	-0.52320284
9	0xbef203fe	-0.4726867
10	0x3e6712ca	0.22565761
11	0x3da5e1ec	0.08099732
12	0xbe19d789	-0.15023626
13	0xbeb7bdd5	-0.35887018
14	0xbd84237a	-0.06452079
15	0xbe96c2f0	-0.294456
16	0xbe862ebb	-0.26207528
17	0xbd463697	-0.048391905
18	0xbe54106e	-0.20709392
19	0x3e92ff77	0.2871053
20	0x3e854a09	0.26033047
21	0x3c721173	0.014774668
22	0xbe0b521f	-0.13605545
23	0x3e78bd8d	0.24291058
24	0xbe282d15	-0.16423447
25	0xbe75f922	-0.24020818
26	0xbe7d8727	-0.24758588
27	0x3e256baf	0.1615436
28	0x3da3b935	0.0799431
29	0x3e1bd5f7	0.1521834
30	0xbf36d89f	-0.7142429
31	0xbe21ce5b	-0.15801375
32	0x3b6d3737	0.003619624
33	0x3e2448b2	0.16043356
34	0xbd37069e	-0.044684045
35	0xbc564848	-0.013078757
36	0xbf1b9878	-0.60779524
37	0xbe3ba19b	-0.18323366
38	0x3e725b69	0.23667683
39	0xbddb0d3e	-0.10695885
40	0x3dae2aa9	0.085042305
41	0xbf0cde57	-0.55026764
42	0x3dff275d	0.1245868
43	0x3d2cd296	0.042193018
44	0xbee3d5f0	-0.4449916
45	0xbe96f798	-0.29485774
46	0x3ed40c06	0.41415423
47	0x3e4c6bf5	0.19963057
48	0x3f12cae8	0.5734086
49	0xbf0483c6	-0.5176357
50	0x3ebf9486	0.37418002
51	0xbee2b5f2	-0.44279438
52	0x3d356305	0.044283886
53	0xbee9520f	-0.45570418
54	0x3e004c87	0.12529193
55	0x3dbdf222	0.09274699
56	0x3e5e1a32	0.2168968
57	0x3d967e23	0.073482774
58	0xbd986048	-0.07440239
59	0xbd92b9fb	-0.07164379
60	0x3ccc1732	0.024913404
61	0x3e859d90	0.26096773
62	0x3eac9a71	0.3371158
63	0x3f2856a4	0.65757203
64	0x3dc3084d	0.095230676
65	0x3f4d0fb4	0.80102086
66	0xbf08d583	-0.53450793
67	0x3f2fd5dd	0.68685704
68	0x3ea066de	0.3132848
69	0x3f83d00f	1.029787
70	0xbe5722ce	-0.2100937
71	0x3e3165d7	0.17324005
72	0x3e32d6c2	0.17464736
73	0x3e8c7adf	0.27437493
74	0x3d2d3010	0.042282164
75	0xbef9955b	-0.48746762
76	0x3e258628	0.16164458
77	0xbe98b314	-0.29824126
78	0x3d8f05a4	0.06983498
79	0x3ed538e1	0.41644958
80	0x3be77dd9	0.0070645628
81	0xbe40555b	-0.1878256
82	0xbd16b143	-0.036790144
83	0x3f1701c3	0.58987063
84	0xbf1a49e1	-0.6026898
85	0x3ed202f1	0.4101787
86	0xbe0396ec	-0.12850541
87	0x3ea7da7c	0.32783878
88	0x3eca88b4	0.3955742
89	0x3e71c392	0.2360976
90	0xbf2d6a1a	-0.67740023
91	0xbcd034b6	-0.02541576
92	0x3e655e86	0.22399339
93	0x3ead3da1	0.33836082
94	0x3e31a5bd	0.1734838
95	0x3e595945	0.2122546
96	0xbdb4a713	-0.088209294
97	0xbe9162a5	-0.28395572
98	0x3f105871	0.5638495
99	0x3ed2759c	0.41105354
100	0xbea6301c	-0.3245858
101	0xbe4c6a16	-0.19962344
102	0xbdda4600	-0.10657883
103	0xbdefde34	-0.11712304
104	0xbce26562	-0.027636234
105	0x3e55becc	0.20873564
106	0x3e27fb79	0.16404523
107	0x3d0a4f0e	0.0337668
108	0xbc7bc3e5	-0.015366529
109	0xbf1104d8	-0.56648016
110	0x3e7de577	0.24794565
111	0x3ee42b5e	0.44564337
112	0x3f226b3b	0.6344487
113	0xbec7cbd4	-0.39022696
114	0x3eaaa679	0.33330134
115	0x3e5b75fe	0.21431729
116	0x3bcd565f	0.0062663998
117	0xbe0941ef	-0.13404058
118	0x3ee0e455	0.43924204
119	0xbb470cf6	-0.0030372716
120	0xbc18833c	-0.009308632
121	0x3d3441a6	0.04400792
122	0x3d821339	0.06351323
123	0x3cbe7394	0.023248471
124	0x3e5784e2	0.21046785
125	0xbe585ee9	-0.21129955
126	0x3ee4f765	0.44719997
127	0x3e347708	0.17623532
128	0xbd72f564	-0.059316054
129	0x3e70ce88	0.23516285
130	0x3e20b7b7	0.15695082
131	0xbecd875f	-0.40142342
132	0xbe54a6a7	-0.20766698
133	0x3dd27355	0.10275904
134	0x3f10b891	0.56531626
135	0x3d094e7b	0.03352211
136	0x3edc09c4	0.429762
137	0x3e3fe968	0.18741381
138	0xbeae65dc	-0.34062088
139	0xbf0d01cb	-0.5508086
140	0x3e4265c5	0.18984134
141	0x3f1167b6	0.56798875
142	0x3e99a89b	0.30011448
143	0xbd3af3d6	-0.045642696
144	0x3dbeb9e0	0.093127966
145	0x3e8e9133	0.27845153
146	0x3e934c05	0.28768936
147	0xbb2ff012	-0.0026845974
148	0xbed97824	-0.42474473
149	0xbecd9723	-0.4015437
150	0xbe58fe72	-0.21190813
151	0xbcd4e9c8	-0.025990382
152	0xbe9104f8	-0.28324103
153	0x3ef4a0f2	0.47779042
154	0x3f08ebef	0.53485006
155	0x3ecd6f1a	0.40123826
156	0x3e127a58	0.14304483
157	0x3ed3b206	0.4134676
158	0xbe72070f	-0.23635505
159	0x3d1c45e0	0.038152575
160	0xbe6bc7f5	-0.23025496
161	0xbeb3f1b3	-0.3514534
162	0x3d85de77	0.065365724
163	0x3e485457	0.19563423
164	0x3e906ff8	0.28210425
165	0xbe8cb42e	-0.27481216
166	0x3e79126d	0.24323435
167	0xbe6a1a1e	-0.22861525
168	0x3e0d416e	0.1379449
169	0xbdc9e984	-0.09858993
170	0x3e1d9fa3	0.15392928
171	0x3ec0abee	0.37631172
172	0xbf8b8e3c	-1.0902781
173	0xbec107fe	-0.3770141
174	0x3fb550e1	1.4165307
175	0xbdd37dab	-0.10326704
176	0xbe0fb300	-0.14033127
177	0xbdd6fa2d	-0.10496936
178	0x3ec497fc	0.38397205
179	0xbf2aa25d	-0.66653997
180	0x3e4e3559	0.20137538
181	0xbf1e60df	-0.61866564
182	0xbeaa2173	-0.33228645
183	0xbedd4ae5	-0.43221202
184	0xbe878d38	-0.2647493
185	0xbd613ca7	-0.054989483
186	0x3e7ac9cf	0.24491046
187	0x3f6f91a5	0.9358161
188	0x3e952487	0.2912943
189	0xbd9f2223	-0.07770183
190	0xbe759004	-0.23980719
191	0x3f0108b7	0.5040392
192	0xbe042ef7	-0.1290854
193	0xbd669a14	-0.056299284
194	0xbea98724	-0.33110917
195	0x3f84b4ca	1.0367672
196	0x3e07f967	0.13278733
197	0x3d523a64	0.051325217
198	0x3e0398ff	0.12851332
199	0xbd74f73f	-0.059806105
200	0x3ed43d59	0.41453055
201	0xbd1e5083	-0.038651
202	0xbd946343	-0.07245495
203	0x3dcc14cb	0.099649034
204	0x3e4457e3	0.19174151
205	0x3e126950	0.14297986
206	0x3def4d85	0.116847076
207	0x3e03558d	0.12825604
208	0xbe69d888	-0.22836506
209	0xbe04723f	-0.12934206
210	0xbe5a293a	-0.21304789
211	0xbccc5a0d	-0.024945283
212	0xbe05944e	-0.13044855
213	0x3df5caeb	0.12001594
214	0xbe3d8f47	-0.18511687
215	0x3e0942af	0.13404344
216	0x3ea7858b	0.32719073
217	0xbd794e22	-0.06086553
218	0xbd937a2a	-0.07201035
219	0xbd03e132	-0.032197185
220	0x3e69f86b	0.2284867
221	0x3e3d52eb	0.18488662
222	0x3eaafe01	0.33396915
223	0x3e0cd331	0.13752438
224	0xbe529821	-0.20565845
225	0xbdb69964	-0.08915976
226	0x3ea9f9d2	0.3319841
227	0x3dcfd05c	0.10147163
228	0xbd37d6cd	-0.044882584
229	0xbd973d20	-0.073847055
230	0x3dba0d18	0.09084529
231	0x3e221ab2	0.15830496
232	0xbe147502	-0.1449776
233	0xbd89e47d	-0.06733034
234	0x3debffd9	0.115234084
235	0x3e3a281b	0.18179362
236	0xbd091a8b	-0.03347258
237	0x3d0e9473	0.03480954
238	0xbe5d88b4	-0.2163418
239	0xbe94f7ed	-0.29095402
240	0x3e7dc6b6	0.24782833
241	0x3e4906d8	0.19631517
242	0x3cf5e6b6	0.030017238
243	0xbeaad443	-0.33365068
244	0x3eeefca3	0.46677122
245	0xbd691f9f	-0.05691492
246	0xbd176147	-0.036958005
247	0x3d629927	0.05532184
248	0xbaa8233f	-0.0012827887
249	0xbe313456	-0.17305121
250	0x3e4409cb	0.1914436
251	0xbdd746e6	-0.1051157
252	0xbd007a53	-0.031366657
253	0xbe95ae21	-0.29234412
254	0xbdf9f257	-0.12204426
255	0x3e84f62d	0.25969067

cell.gru.bias_ih f4 [192]
0	0xbe7e7e79	-0.24852933
1	0xbe643136	-0.22284397
2	0xbf7e8e6a	-0.99436057
3	0xbdb5508b	-0.08853253
4	0xbd84dbe4	-0.06487253
5	0x3ded65f7	0.11591714
6	0x3ba97eac	0.005172571
7	0x3e0bb0e3	0.13641696
8	0xbcae827d	-0.021302456
9	0xbf1246b9	-0.57139164
10	0x3e5eef47	0.21770965
11	0x3d495929	0.049157295
12	0x3e5a8eff	0.21343611
13	0xbebdc08a	-0.37060958
14	0x3e99c4fd	0.30033103
15	0xbe323e65	-0.17406614
16	0xbf1696c6	-0.5882381
17	0xbebecab2	-0.3726402
18	0xbe7185e1	-0.23586227
19	0x3bfa6121	0.007640973
20	0x3e926517	0.2859275
21	0x3de005e3	0.10938623
22	0xbe7a6ee1	-0.2445636
23	0xbde8f358	-0.11374539
24	0x3e0ab603	0.13545994
25	0xbf304b59	-0.6886497
26	0xbb572498	-0.0032828208
27	0xbe690145	-0.2275439
28	0x3df64755	0.12025324
29	0x3e747160	0.23871374
30	0x3e8c4538	0.2739656
31	0x3e1558a5	0.14584596
32	0xbe5c803e	-0.21533296
33	0x3bbd257d	0.005772291
34	0xbda49ca7	-0.080376916
35	0xbebdb77e	-0.37054056
36	0x3e141c39	0.14463891
37	0xbf239815	-0.63903934
38	0xbebcb9d7	-0.36860535
39	0x39c3e982	0.00037367275
40	0xbe307cec	-0.17235154
41	0xbe3d00b4	-0.184573
42	0xbe0dfea3	-0.13866667
43	0x3e508d78	0.20366466
44	0xbe2d67b6	-0.16934094
45	0xbeb51be9	-0.35372856
46	0x3e5a5b57	0.21323906
47	0x3cc3a982	0.023884539
48	0x3ededbe1	0.4352713
49	0xbceb080d	-0.028690362
50	0x3d6f9fa3	0.05850185
51	0xbdf6f139	-0.12057728
52	0xbf57caea	-0.84294
53	0xbe2ecb93	-0.17069845
54	0xbd9351e4	-0.07193354
55	0xbeec66ff	-0.4617233
56	0xbebf5b1c	-0.37374198
57	0x3c00d035	0.00786214
58	0xbe8ad680	-0.27116776
59	0xbc36063a	-0.011109883
60	0x3ea3492d	0.31891766
61	0x3e58b72c	0.21163625
62	0xbee4c756	-0.4468333
63	0xbeb8bcbe	-0.360815
64	0x3ed752f7	0.42055485
65	0x3e419d7d	0.18907733
66	0xbded69d8	-0.11592454
67	0x3d98c4a6	0.07459383
68	0x3e4b463f	0.19851016
69	0x3e1581f9	0.14600362
70	0xbef8acea	-0.48569423
71	0xbd6111b4	-0.054948524
72	0x3f0201af	0.5078382
73	0x3e6bc3af	0.23023866
74	0x3e805250	0.250628
75	0xbe9e5202	-0.30921942
76	0x3d865a1a	0.06560154
77	0xbdf3923b	-0.118931256
78	0x3e46b070	0.19403243
79	0x3e836d70	0.25669432
80	0x3ea484da	0.32132608
81	0xbe93b091	-0.28845647
82	0xbe27f224	-0.16400963
83	0x3ea1d859	0.31610373
84	0x3d99a0c6	0.07501368
85	0x3e8cd2d8	0.2750461
86	0xbe01fd25	-0.12694223
87	0x3eb25d1b	0.3483666
88	0x3c09d3ab	0.008412282
89	0x3dfa571d	0.12223647
90	0xbcfca00f	-0.03083804
91	0xbe902d2a	-0.28159457
92	0xba29df34	-0.0006480098
93	0x3ea9082e	0.33014053
94	0xbd50df9a	-0.050994493
95	0x3dca3466	0.098732755
96	0x3dd3e393	0.10346141
97	0x3ecc8e74	0.39952433
98	0x3ddd6f97	0.108123
99	0xbe89e9c3	-0.2693616
100	0x3e43c2fc	0.1911735
101	0x3e105ea0	0.14098597
102	0xbcf68994	-0.0300949
103	0xbcd240e7	-0.025665713
104	0xbc3269ef	-0.010889514
105	0xbe666da0	-0.22502756
106	0x3dbb270a	0.091383055
107	0xbe3f9a62	-0.18711236
108	0xbe820a86	-0.25398654
109	0x3eade130	0.33960867
110	0xbe970048	-0.29492402
111	0x3cd37c2b	0.025816044
112	0xbe0d5e44	-0.1380549
113	0x3d52ce23	0.05146612
114	0xbcf1aa77	-0.02950023
115	0xbd04c46d	-0.03241389
116	0xbe05ebeb	-0.13078277
117	0xbdb1e57b	-0.08686348
118	0xbac7f012	-0.0015254042
119	0xbe7052fc	-0.23469156
120	0x3ec19d0b	0.37815127
121	0x3e0f5ae7	0.1399952
122	0x3e8b16a4	0.2716571
123	0xbe8687ce	-0.26275486
124	0x3edce182	0.431408
125	0x3ecf3771	0.40471986
126	0xbd7760fe	-0.060395233
127	0xbe649572	-0.22322634
128	0xbc190103	-0.00933862
129	0x3c7ba7ae	0.015359802
130	0x3cbf317b	0.023339024
131	0x3c7168ca	0.014734456
132	0xbca8d134	-0.020607568
133	0xbe40b819	-0.18820228
134	0xbec806f8	-0.39067817
135	0x3ccba31d	0.024858052
136	0x3e07567e	0.13216588
137	0x3de41f1d	0.11138747
138	0x3dc58118	0.09643763
139	0x3e358199	0.17725219
140	0xbdc9c112	-0.09851278
141	0x3b8f53f7	0.004374023
142	0xbd103299	-0.035204504
143	0x3c50eaa0	0.012751251
144	0x3ccf08a1	0.02527267
145	0xbd754af0	-0.05988592
146	0x3e006049	0.1253673
147	0x3e1071a4	0.1410585
148	0x3b05d2cc	0.0020419834
149	0x3d1721b5	0.03689738
150	0xbdd7f263	-0.105442785
151	0x3d08377d	0.033256043
152	0x3e62e934	0.22159272
153	0xbda7e634	-0.08198205
154	0x3d3b5cec	0.045742914
155	0xbda2427c	-0.07922837
156	0x3cfc04f4	0.03076408
157	0xbe0a0f20	-0.13482332
158	0x3dadeb9b	0.08492204
159	0x3e821218	0.2540443
160	0xbd07e2db	-0.03317533
161	0x3dbe43f9	0.092903085
162	0xbe5efaca	-0.21775356
163	0x3c400938	0.011720948
164	0x3ca49cea	0.020094354
165	0x3d6406e4	0.055670634
166	0x3d383372	0.044970937
167	0x3a580614	0.0008240652
168	0x3d666c75	0.056255776
169	0xbc8ed402	-0.017435078
170	0xbd28a390	-0.04117161
171	0xbcc7ba92	-0.024380956
172	0x3c271c3b	0.010199602
173	0xbe0a45ad	-0.13503142
174	0xbb523429	-0.0032074547
175	0x3e13c4a3	0.1443048
176	0x3dec836d	0.11548505
177	0x3d1bf4b8	0.03807518
178	0xbe39499f	-0.1809449
179	0xbc8a07d8	-0.016849443
180	0x3e57187d	0.21005435
181	0x3d5f1f2e	0.054473095
182	0x3e0b3ada	0.13596669
183	0xbde03fba	-0.10949655
184	0xbcbe045b	-0.023195436
185	0x3d867b0a	0.065664366
186	0x3c92b96e	0.017910685
187	0x3b121608	0.0022290964
188	0xbd2be70d	-0.041968394
189	0xbdfa3987	-0.12218004
190	0xbc1584b0	-0.009125873
191	0x3c954871	0.01822302

cell.gru.bias_hh f4 [192]
0	0xbd43a2ba	-0.04776261
1	0xbd4d5c47	-0.05013683
2	0xbf6340e0	-0.88770866
3	0xbe39fbcd	-0.1816246
4	0xbde34191	-0.1109649
5	0x3e6f62ab	0.23377483
6	0xbe205235	-0.1565636
7	0x3e3770db	0.17914145
8	0x3def1ad6	0.116750404
9	0xbf040102	-0.5156404
10	0x3e96782d	0.29388562
11	0x3d90c937	0.07069629
12	0x3dc2dd9d	0.09514926
13	0xbecbba4d	-0.39790574
14	0x3e7fa705	0.24966057
15	0xbdfe82ba	-0.12427278
16	0xbf2135f2	-0.6297294
17	0xbeeb7173	-0.45984992
18	0xbea9366b	-0.3304933
19	0xbe090298	-0.13379896
20	0x3df8b457	0.12143772
21	0x3e5a5073	0.21319751
22	0xbe9f78da	-0.3114689
23	0xbdebf570	-0.11521423
24	0xbd5f492e	-0.05451315
25	0xbf1e9a67	-0.6195435
26	0x3d72bb83	0.059260856
27	0xbebaa75f	-0.3645582
28	0x3ea1a5ee	0.31571907
29	0x3e612407	0.219864
30	0x3e96da42	0.29463392
31	0x3e2d581b	0.16928141
32	0xbd8c7434	-0.068581015
33	0xbdc7c15a	-0.09753676
34	0xbe32d3e3	-0.17463641
35	0xbeaeec61	-0.34164718
36	0x3d92f9e0	0.07176566
37	0xbf12b5c5	-0.5730861
38	0xbebef38b	-0.37295184
39	0xbd05dedc	-0.03268324
40	0xbd45c71a	-0.04828558
41	0xbe7ccd0f	-0.24687599
42	0xbd4af762	-0.04955233
43	0x3e2129bf	0.15738581
44	0xbe31155d	-0.17293306
45	0xbe9a4a32	-0.30134732
46	0x3e5fada0	0.21843576
47	0xbe4d8896	-0.20071635
48	0x3ed1a95e	0.4094953
49	0xbda215ba	-0.079143
50	0x3e404135	0.18774875
51	0xbdbac37d	-0.09119318
52	0xbf72393d	-0.9461859
53	0xbe3d70d8	-0.18500078
54	0xbe3b461e	-0.18288466
55	0xbefadfd8	-0.48998904
56	0xbf038158	-0.5136924
57	0x3c3ae51f	0.011407166
58	0xbe100c1e	-0.14067122
59	0xbe014e34	-0.12627488
60	0x3e565aed	0.20933123
61	0x3e389a67	0.1802765
62	0xbf0d6dc9	-0.55245644
63	0xbe4f9ceb	-0.20274703
64	0x3ed388d9	0.41315344
65	0x3e889b07	0.26680776
66	0x3d6dec5c	0.058086738
67	0x3db47527	0.088114075
68	0x3e0ac01b	0.13549845
69	0x3eab6ef6	0.33483094
70	0xbee0999c	-0.43867195
71	0xbd92fb9f	-0.07176899
72	0x3ef31e36	0.47483987
73	0x3e7e88c3	0.24856858
74	0x3ecffe4b	0.40623698
75	0xbecc7e07	-0.399399
76	0x3e1e5781	0.15463068
77	0xbe80429e	-0.25050825
78	0x3db875a1	0.09006811
79	0x3e86cec7	0.26329634
80	0x3e20c0fd	0.15698619
81	0xbe6eae5d	-0.23308702
82	0xbe0b2737	-0.13589178
83	0x3e80adaa	0.25132495
84	0xbd91bbd6	-0.07115905
85	0x3da345ef	0.07972323
86	0xbe158b02	-0.14603809
87	0x3e864316	0.26223058
88	0xbd30b513	-0.043141436
89	0x3d9f4f83	0.077788375
90	0xbbb0d0eb	-0.0053959987
91	0xbe9d86a2	-0.3076678
92	0x3e28bd2a	0.1647841
93	0x3df7c020	0.12097192
94	0xbdb5e1a1	-0.08880926
95	0x3e006f9d	0.12542577
96	0x3c865171	0.016396256
97	0x3ecd4884	0.40094388
98	0x3e2ea39d	0.17054601
99	0xbd9a0314	-0.07520118
100	0x3e5bca97	0.21464
101	0x3cf43bb3	0.029813623
102	0x3e20e66b	0.15712897
103	0xbcbf7b94	-0.023374356
104	0x3dc09333	0.09403076
105	0xbe2c50b5	-0.16827662
106	0x3e5a20d6	0.21301588
107	0xbdfd5f1a	-0.12371655
108	0xbec72f56	-0.38903302
109	0x3e77474e	0.24148294
110	0xbde11df9	-0.10992045
111	0x3ded6693	0.1159183
112	0xbe80531a	-0.250634
113	0x3dbfadf8	0.09359354
114	0x3d9dd5c4	0.07706788
115	0xbd673aa9	-0.056452427
116	0xbe664bc9	-0.22489847
117	0xbd9a2a39	-0.075275846
118	0xbd263a7f	-0.04058313
119	0xbe8b405c	-0.2719754
120	0x3ef2d8e5	0.47431102
121	0x3e8e4489	0.27786663
122	0x3e9604b1	0.29300454
123	0xbe97d69c	-0.2965592
124	0x3efb8865	0.49127498
125	0x3f1e453b	0.6182439
126	0x3dca7b9b	0.09886857
127	0xbec7b88c	-0.39007986
128	0xbdbb247a	-0.09137817
129	0xbe7a7988	-0.24460423
130	0xbf137545	-0.57600814
131	0xbe38bc89	-0.1804067
132	0xbe17e972	-0.14835146
133	0xbe909108	-0.2823565
134	0x3eaa8f3e	0.3331241
135	0xbe9886d9	-0.2979038
136	0x3c80f760	0.015742958
137	0xbed526b6	-0.41631097
138	0xbcb35b19	-0.021894025
139	0x3ebbaecb	0.36656794
140	0x3dc479ce	0.09593545
141	0x3dd1f183	0.10251143
142	0x3e390b8e	0.18070814
143	0x3d922ee9	0.07137854
144	0x3dbc280d	0.091873266
145	0xbdc34235	-0.09534112
146	0xbe51c8c1	-0.20486738
147	0xbe2637fe	-0.16232297
148	0x3e943989	0.28950146
149	0x3df01bf0	0.11724079
150	0x3d8fa365	0.07013587
151	0xbe433c17	-0.19065891
152	0xbd48d371	-0.04902977
153	0x3dbd0332	0.09229125
154	0x3d17a9d1	0.037027184
155	0xbe7120df	-0.23547696
156	0x3e2e2260	0.170053
157	0x3e1eaac3	0.15494828
158	0x3c7e71d8	0.015530072
159	0xbeea9d39	-0.45823076
160	0x3c8e89c2	0.017399672
161	0x3df7e104	0.12103465
162	0x3dd6f999	0.10496826
163	0xbf02a413	-0.5103161
164	0xbd344c8d	-0.044018317
165	0x3d1e540f	0.038654383
166	0xbe8baf41	-0.27282146
167	0x3d113213	0.035448145
168	0xbe882053	-0.2658716
169	0xbde555a6	-0.11197977
170	0xbd4dd136	-0.050248347
171	0xbd0130ed	-0.0315408
172	0x3dccf102	0.10006906
173	0x3eca5e85	0.39525238
174	0xbd0dcf08	-0.03462127
175	0xbf1e8caa	-0.61933386
176	0xbf0df420	-0.5545063
177	0x3cb56cdc	0.022146635
178	0xbbc736be	-0.006079524
179	0x3e1b8785	0.15188415
180	0xbec9af27	-0.39391443
181	0xbce3ddb8	-0.027815685
182	0xbd013926	-0.03154864
183	0x3ed2ad4b	0.41147837
184	0x3e20c88e	0.15701506
185	0x3c2a0fe0	0.010379761
186	0xbe850c8c	-0.25986135
187	0x3b830d0f	0.0039993594
188	0xba9e9bcf	-0.0012100878
189	0x3d08e6bd	0.033423174
190	0xbdbd5eeb	-0.0924662
191	0x3cc95572	0.024576876

fc_out.weight f4 [3, 64]
0	0xbe7bcbc0	-0.24589443
1	0xbe87a9e0	-0.26496792
2	0x3f66bcc7	0.901318
3	0x3e1536d4	0.14571697
4	0x3c999397	0.018747134
5	0xbc92916d	-0.01789161
6	0x3c8660f0	0.016403645
7	0xbdc2508d	-0.0948802
8	0xbe514c78	-0.20439327
9	0xbf000988	-0.50014544
10	0xbe31fb17	-0.1738094
11	0x3cd0d201	0.025490763
12	0x3e4e9ac0	0.2017622
13	0x3e0e9d75	0.13927253
14	0x3e9e1a93	0.3087965
15	0xbd2ace66	-0.041700743
16	0xbed5ef8c	-0.41784322
17	0x3e060046	0.13086042
18	0x3e623089	0.22088827
19	0xbe8b2a0f	-0.27180526
20	0x3d645ee2	0.05575455
21	0x3dfefb08	0.12450224
22	0xbd956381	-0.072943695
23	0x3e8ff41b	0.28115925
24	0xbdf7f5e3	-0.12107446
25	0xbee318b7	-0.44354793
26	0xbd7d843b	-0.061893683
27	0x3d9cd6b4	0.07658139
28	0x3e4955b6	0.19661602
29	0x3e3fc658	0.18728006
30	0xbbfb5bbf	-0.007670849
31	0xbea30c9c	-0.31845558
32	0xbdd1c5a3	-0.10242774
33	0xbe0a2301	-0.13489915
34	0xbd56065a	-0.05225215
35	0xbd8dab15	-0.06917397
36	0x3e2204f1	0.15822197
37	0xbe717380	-0.23579216
38	0x3e44acd9	0.19206561
39	0xbe26a895	-0.16275246
40	0x3dbb7094	0.09152332
41	0xbe474ce2	-0.19462922
42	0x3e81b21b	0.25331196
43	0x3d96144f	0.07328092
44	0xbd827746	-0.06370406
45	0x3ea58253	0.32325992
46	0x3c1ea4eb	0.009682874
47	0xbe0d9c06	-0.1382905
48	0xbe483866	-0.19552764
49	0xbe29b2ad	-0.16572066
50	0x3d9eec10	0.07759869
51	0xbe2ac17a	-0.16675368
52	0x3e73f0f2	0.23822382
53	0xbe148e40	-0.14507389
54	0xbda0a1bc	-0.078433484
55	0xbe87ba1a	-0.26509172
56	0xbe415643	-0.18880562
57	0x3dda9cab	0.10674413
58	0x3e564710	0.20925546
59	0x3da8784f	0.08226072
60	0xbf0e6a6a	-0.55631125
61	0x3f0ac954	0.5421345
62	0x3e7a61ad	0.24451323
63	0x3e4bb354	0.19892627
64	0xbe5c5466	-0.2151657
65	0xbe451a2e	-0.19248268
66	0x3f5530b8	0.83277464
67	0x3e046570	0.1292932
68	0x3ba4ec7f	0.0050330753
69	0xbc838d14	-0.016058482
70	0xbcf4d6aa	-0.029887516
71	0xbdbb4fbd	-0.09146068
72	0xbe54e0db	-0.207889
73	0xbee5448d	-0.44778863
74	0xbe4d1e7f	-0.20031165
75	0x3cba5a63	0.022748178
76	0x3e3fbb22	0.18723729
77	0x3e4084fe	0.18800732
78	0x3e99d005	0.3004152
79	0xbd1a98a5	-0.03774323
80	0xbecb922e	-0.39759964
81	0x3df71740	0.120649815
82	0x3e5582e1	0.20850708
83	0xbea0c816	-0.31402653
84	0x3d5ed09e	0.05439817
85	0x3dd2a956	0.102862045
86	0xbdbf508a	-0.093415335
87	0x3e698807	0.22805797
88	0xbdf11eb5	-0.11773435
89	0xbecefe20	-0.40428257
90	0xbd745afb	-0.05965708
91	0x3dc08833	0.09400978
92	0x3e457a1b	0.19284861
93	0x3e6391f2	0.22223642
94	0xbbb40412	-0.0054936493
95	0xbe877706	-0.26457995
96	0xbdd6f069	-0.10495073
97	0xbe00b42d	-0.12568732
98	0xbd1c41c9	-0.038148675
99	0xbdc01521	-0.0937903
100	0x3e651c4d	0.22374077
101	0xbe7e6d9f	-0.24846505
102	0x3e109550	0.14119458
103	0xbe304e9b	-0.17217486
104	0x3dc14a9a	0.09438057
105	0xbe2e8537	-0.17043005
106	0x3e57e267	0.2108246
107	0x3df13c4f	0.11779081
108	0xbdbfe5de	-0.093700156
109	0x3e9f0bed	0.31063786
110	0x3c19d9cf	0.0093903085
111	0xbe113585	-0.14180572
112	0xbe2c6889	-0.16836752
113	0xbe28503a	-0.16436854
114	0x3dd4929f	0.10379528
115	0xbe459590	-0.19295335
116	0x3e7254ae	0.23665115
117	0xbe2312e3	-0.15925173
118	0xbd7a32a0	-0.061083436
119	0xbe94c750	-0.29058313
120	0xbe2f38bd	-0.17111488
121	0x3da8f600	0.08250046
122	0x3e41a01d	0.18908735
123	0x3d64cdbc	0.055860266
124	0xbf058321	-0.5215321
125	0x3eefca0c	0.46833837
126	0x3e5c33e5	0.21504171
127	0x3e3f333e	0.18671891
128	0xbe3ac9d8	-0.1824106
129	0xbe04adb0	-0.12956882
130	0x3f41d7e4	0.7572005
131	0x3df3be2d	0.119015075
132	0xbae09ed9	-0.0017137184
133	0xbc941ad9	-0.018079208
134	0xbd803284	-0.06259635
135	0xbdc3ddc0	-0.0956378
136	0xbe5801ab	-0.21094386
137	0xbed1903c	-0.40930355
138	0xbe61803a	-0.22021571
139	0x3cd4e09c	0.025986008
140	0x3e28fe7b	0.16503327
141	0x3e5f4571	0.21803834
142	0x3e954997	0.29157707
143	0xbd23bb84	-0.03997375
144	0xbebe2840	-0.37140083
145	0x3de1cd3b	0.11025473
146	0x3e4f7c96	0.2026237
147	0xbeb13b6e	-0.34615654
148	0x3d612415	0.05496605
149	0x3db23bb0	0.08702791
150	0xbde5a673	-0.11213388
151	0x3e3327fc	0.17495722
152	0xbdf2c3aa	-0.11853726
153	0xbec2897f	-0.37995526
154	0xbd6df5ae	-0.058095627
155	0x3ddd1318	0.107946575
156	0x3e4afb85	0.1982251
157	0x3e7c8fed	0.24664278
158	0xbb4f0f64	-0.0031594867
159	0xbe4eb465	-0.20186003
160	0xbde18fa9	-0.11013729
161	0xbdef9948	-0.11699158
162	0xbcb7a74f	-0.022418646
163	0xbde4aa48	-0.11165291
164	0x3e8f0217	0.27931282
165	0xbe84f7e2	-0.2597037
166	0x3dc33604	0.09531787
167	0xbe39dbd5	-0.18150266
168	0x3dc52985	0.0962706
169	0xbe27f9d9	-0.16403903
170	0x3e38fd33	0.18065338
171	0x3e2183e3	0.15772967
172	0xbde54b84	-0.11196044
173	0x3e99d43e	0.3004474
174	0x3bacac8c	0.0052695926
175	0xbe0b6b79	-0.13615216
176	0xbe0f6e88	-0.14007008
177	0xbe24cf15	-0.1609462
178	0x3e05a7b5	0.13052256
179	0xbe5b29f1	-0.21402718
180	0x3e6d3685	0.23165329
181	0xbe2f30b5	-0.17108424
182	0xbd33c76a	-0.043891348
183	0xbea173c8	-0.31533647
184	0xbe1c4a33	-0.1526268
185	0x3d88406b	0.06652912
186	0x3e30668b	0.17226617
187	0x3d26708d	0.04063468
188	0xbef738db	-0.48285565
189	0x3ec969e8	0.39338613
190	0x3e473ee3	0.19457583
191	0x3e3bfb12	0.18357494

fc_out.bias f4 [3]
0	0x3d123114	0.035691336
1	0x3d092e80	0.03349161
2	0x3d09f2aa	0.033678688
