notebooks/DCRNN/No_Adj_05mins/dcrnn_best.pt (torch, 542967 bytes, 7 tensors)

adj f4 [325, 325]
0	0x3fb25c3e	1.39344
1	0xbbdb6ab7	-0.006696071
2	0x3c4a745a	0.012356842
3	0xba41e5fe	-0.0007396637
4	0x3c904ac2	0.017613772
5	0xb944466a	-0.00018718248
6	0xbc270d51	-0.010196046
7	0xbc7bcb9c	-0.0153683685
8	0x3c93e759	0.018054651
9	0xbab2005d	-0.001358043
10	0x3c3b6faf	0.011440202
11	0x3c86fa96	0.01647691
12	0xba16fbc0	-0.00057595596
13	0xbc30b8e1	-0.010786266
14	0x3caef2da	0.021356035
15	0xbbbb3792	-0.0057134116
16	0x3c6492b4	0.013950992
17	0x3c706d54	0.014674503
18	0xbdc22139	-0.09478993
19	0x3da961d6	0.08270614
20	0x3ab38b37	0.0013698105
21	0x3d5c96dd	0.053854812
22	0x3c724dd7	0.014789066
23	0x3bc37402	0.005964757
24	0xbbfe98e4	-0.007769691
25	0xbc86bb96	-0.01644687
26	0xbcb3ea5d	-0.021962339
27	0x3bc4c165	0.0060044997
28	0xbb18204f	-0.0023212617
29	0x3c83ae82	0.016074423
30	0xbaa426d7	-0.0012523782
31	0xbbfd8c9c	-0.007737709
32	0x3bbccca5	0.0057617
33	0xb9fe79b7	-0.0004853734
34	0x3c98f3a0	0.018670857
35	0x3d57e414	0.052707747
36	0xbcc61b15	-0.024182836
37	0xbb5fe2a9	-0.00341622
38	0xbce90ac1	-0.02844751
39	0x3c5a58c3	0.0133268265
40	0x3ce04213	0.027375257
41	0xbbc1a936	-0.005910064
42	0x3b7af680	0.0038293898
43	0x3ba23039	0.0049495962
44	0xbbdeaf53	-0.0067958026
45	0x3c9ef9dd	0.019406253
46	0xbc1ef94f	-0.0097029945
47	0x3a8990ae	0.0010495388
48	0xbce1e432	-0.027574632
49	0xbc8c140a	-0.0170994
50	0x3b8bbc20	0.0042643696
51	0xbc27064b	-0.010194371
52	0xba4d07f1	-0.0007821313
53	0xbcb5bdb7	-0.02218519
54	0xbc0c9ba7	-0.008582032
55	0xbcba72dd	-0.02275985
56	0x3c8ba218	0.017045066
57	0x3cfbc19d	0.03073197
58	0x3bdc2eb6	0.0067194356
59	0xbaf3f4c3	-0.0018612373
60	0x3a629672	0.0008643634
61	0x3ce3c0b7	0.027801855
62	0x3a02efd6	0.0004994845
63	0x3cdebb7e	0.027189013
64	0x3c8ce16a	0.01719733
65	0x3ae142c3	0.0017186034
66	0xbc9c3e99	-0.019072818
67	0x3d59c7e8	0.05316916
68	0x3cbc5d1e	0.02299362
69	0x3d3606cd	0.04444008
70	0xbbc5362c	-0.0060184207
71	0x3caa6a20	0.020802557
72	0x3d3630b8	0.044480056
73	0x3b16ef28	0.0023030732
74	0xbb647e9c	-0.0034865504
75	0xbcbe67e9	-0.023242908
76	0x3bd63d78	0.0065380894
77	0x3b358424	0.002769717
78	0x3cb995d6	0.022654455
79	0xbb654446	-0.003498332
80	0xbc59f7c7	-0.013303704
81	0xb98a8da1	-0.00026426933
82	0x3cf4c833	0.029880619
83	0x3b295772	0.0025839475
84	0x3bec41e2	0.0072100023
85	0xbc9f229b	-0.01942568
86	0xbc409a23	-0.011755499
87	0xbbf6c399	-0.0075306413
88	0xbcf2fd71	-0.029661866
89	0x3d045966	0.03231182
90	0x3d3da31b	0.046298128
91	0xbbf6c24c	-0.007530486
92	0x3b40ae6a	0.0029400834
93	0x3c8984ba	0.016786922
94	0x3cf8b594	0.03036002
95	0x3cbf0dc2	0.02332199
96	0xbb551b36	-0.003251744
97	0xbb074ae1	-0.0020643997
98	0x3b61df5b	0.0034465406
99	0x3cb4faef	0.02209231
100	0x3b8e5bf5	0.004344458
101	0x3bc654b9	0.00605258
102	0x3c694631	0.014237926
103	0x3b349561	0.0027554857
104	0xbce1ea38	-0.027577505
105	0xbd6163df	-0.055026885
106	0x3c3da75a	0.011575544
107	0xbcf74868	-0.030185893
108	0xbca072eb	-0.019586047
109	0xbc8dc603	-0.017306333
110	0xbbc2aa9e	-0.0059407493
111	0x3d1aeefe	0.037825577
112	0x3cd990de	0.026558336
113	0xba721c28	-0.0009235763
114	0xba82bff1	-0.0009975416
115	0xba38a457	-0.00070435315
116	0xbc09e89e	-0.008417277
117	0xbcf82c91	-0.030294688
118	0x3d4e49d8	0.05036339
119	0x3b9db6c7	0.0048130485
120	0x3be6094e	0.007020152
121	0x3baf64d8	0.0053525977
122	0xbcbc2e6d	-0.022971356
123	0xbbb7991f	-0.0056029703
124	0x3d6f711d	0.058457483
125	0x3c0671c1	0.008205832
126	0xbb533b0c	-0.003223124
127	0xbbd86213	-0.0066034882
128	0xbcaca8b0	-0.02107653
129	0xbc1d3ea6	-0.009597456
130	0x3b8fae3d	0.0043847845
131	0xbcf1c2a2	-0.029511753
132	0x3e312883	0.1730061
133	0x3bddc670	0.0067680404
134	0xbcc301e2	-0.023804609
135	0x3a90e5dd	0.0011054833
136	0xbc71b98c	-0.0147537105
137	0x3bdd8799	0.0067605493
138	0xbc0e4a7f	-0.008684753
139	0x3a625860	0.0008634385
140	0xbc9ada3b	-0.018902889
141	0xbced1976	-0.028942805
142	0x39a9e830	0.00032407185
143	0x3c0fb28b	0.008770595
144	0xbc5ec7f7	-0.01359748
145	0xbb485815	-0.003057008
146	0x3a37b1b3	0.0007007375
147	0xbbacea95	-0.005276988
148	0x3d63bd68	0.055600554
149	0x3b23f4b6	0.0025017685
150	0x3c4b9f5b	0.01242813
151	0xbcf48b17	-0.02985148
152	0x3c07f8a2	0.008299025
153	0x3c781ed8	0.0151440725
154	0xbb3b45d7	-0.0028575563
155	0xbce48e56	-0.027899902
156	0x3d0abf40	0.033873796
157	0xbc162ef0	-0.009166464
158	0xbb3f4a6b	-0.0029188644
159	0x3c979b7f	0.018506764
160	0x3b10e21f	0.0022107435
161	0xbace279e	-0.001572836
162	0xbcfb1621	-0.0306502
163	0xbccc6197	-0.024948878
164	0x3881c04b	6.187017e-05
165	0x3cc3563c	0.02384483
166	0x3bd0a29d	0.0063670413
167	0xbc6bbd8f	-0.014388456
168	0xbc87a24a	-0.016556878
169	0x3aa773b4	0.0012775571
170	0x3b861062	0.0040913085
171	0x3d00ef83	0.031478416
172	0xbcb5d009	-0.022193925
173	0x3cbe2972	0.023213122
174	0xbae16932	-0.0017197488
175	0x3cc2a57b	0.023760548
176	0xbcfa886e	-0.030582633
177	0xbce4b863	-0.027919954
178	0x3bc3743d	0.0059647844
179	0x3c859871	0.016308041
180	0x3c048fce	0.008090926
181	0xbb9c182b	-0.0047636232
182	0x3ccee4aa	0.02525552
183	0x3d0607d3	0.032722306
184	0x3b521b75	0.0032059823
185	0x3b8548c7	0.0040675136
186	0xbd21c04a	-0.03949002
187	0xbb84d27b	-0.0040534115
188	0xbce6d9af	-0.028179972
189	0xbbecf7c9	-0.0072316867
190	0xbc464340	-0.012100995
191	0x3b248f05	0.002510966
192	0x3cb8eae8	0.02257295
193	0x3c2ffdb6	0.010741642
194	0x3c7c6a12	0.0154061485
195	0xbd2c6513	-0.04208858
196	0xbd466abd	-0.048441637
197	0xbb325449	-0.0027210882
198	0x3c3b1314	0.011418123
199	0x3c848097	0.016174598
200	0xbca7008a	-0.020386
201	0xbd22aef4	-0.03971763
202	0x3b931615	0.0044887164
203	0x3cdcb15b	0.026940038
204	0xbc9f7b5e	-0.019468006
205	0x3c02cf8e	0.007984055
206	0xbba1b560	-0.0049349517
207	0x3c931262	0.017953102
208	0xbc65144d	-0.013981891
209	0xbc93e2d9	-0.018052505
210	0xbc102165	-0.008797024
211	0x3d41e28d	0.047335196
212	0xbbbce806	-0.005764964
213	0x3c9b8a9c	0.018986993
214	0x3dcefaf7	0.101064615
215	0xbc5635ef	-0.013074382
216	0x3e0e5d84	0.13902861
217	0x3bed38b4	0.0072394256
218	0xbbc12eea	-0.005895485
219	0x3a84ea28	0.0010140585
220	0xbc6dd2c3	-0.014515582
221	0xbc8496c0	-0.016185164
222	0xbcec80f4	-0.028870083
223	0xbc715fbf	-0.0147323
224	0x3cd75b9f	0.026288806
225	0xbd1e9498	-0.03871593
226	0x3b93d482	0.004511417
227	0x3c6efac7	0.014586157
228	0xbce7aef6	-0.02828167
229	0xbbc7db73	-0.0060991584
230	0xbbe5bb2c	-0.007010838
231	0x3c8adbe2	0.016950551
232	0x3be07c18	0.0068507306
233	0xbd10ce0e	-0.03535276
234	0xbb2d53cf	-0.002644766
235	0xbcf23d85	-0.02957035
236	0x3cfa07c5	0.030521283
237	0x3d000a49	0.03125981
238	0xbd0e56ba	-0.034750678
239	0x3c8a27fd	0.016864771
240	0xbd1c3ad3	-0.038142037
241	0xbc6338ce	-0.013868524
242	0xbcb480d0	-0.022034079
243	0x3c847285	0.016167888
244	0xbcc37cbe	-0.023863193
245	0xbc22d77e	-0.009939073
246	0x3cba9c57	0.022779627
247	0xbc9f7e59	-0.019469427
248	0x3d09c9ed	0.033639837
249	0x3c7d1bfe	0.015448568
250	0x3c84f497	0.01622991
251	0x3cead95a	0.028668094
252	0xbc430bbf	-0.011904656
253	0x3deda58a	0.1160384
254	0xbd581946	-0.052758478
255	0xbc062751	-0.008188085

cell.diff.theta f4 [65, 64]
0	0x3e6235b6	0.22090802
1	0x3d466aaf	0.048441585
2	0x3c13f182	0.009029748
3	0x3e0c7527	0.13716565
4	0x3dff1256	0.12454669
5	0xbe2c509b	-0.16827624
6	0x3dd505be	0.10401486
7	0xbdca4e23	-0.09878185
8	0xbd61e3fe	-0.05514907
9	0x3d8a71dc	0.06759998
10	0x3e28533d	0.16438003
11	0x3d9775d1	0.073955186
12	0xbc44d771	-0.012014256
13	0x3d8dff42	0.06933452
14	0xbe08fbd0	-0.13377309
15	0xbe179ccd	-0.14805909
16	0xbd970e69	-0.073757954
17	0xbe0b3bd4	-0.13597041
18	0x3e2a7559	0.16646327
19	0xbe228400	-0.15870667
20	0x3e3e0e3a	0.18560115
21	0x3e2a5473	0.16633777
22	0x3e17907b	0.14801209
23	0xbcd25e30	-0.025679678
24	0x3e27abe7	0.1637417
25	0x3e168db3	0.14702491
26	0xbe3ba827	-0.18325864
27	0x3e367303	0.17817311
28	0x3e1453e9	0.14485134
29	0x3e3516f5	0.17684539
30	0x3e367bf7	0.17820726
31	0x3e16f8ec	0.14743394
32	0xbe27967c	-0.16365999
33	0xbe3c2af1	-0.18375756
34	0x3d73727e	0.05943536
35	0xbe2aba10	-0.1667254
36	0x3ccf35ed	0.025294269
37	0xbe4455f9	-0.19173421
38	0xbe1331ce	-0.14374468
39	0x3e272794	0.16323692
40	0x3e3df6a1	0.18551113
41	0x3e371c66	0.17881927
42	0x3e425621	0.18978168
43	0xbe3a3685	-0.1818486
44	0x3e2914fa	0.16511908
45	0x3e168a4e	0.14701197
46	0xbdd190b1	-0.10232676
47	0xbe111ebc	-0.1417188
48	0xbe431a2f	-0.19052957
49	0x3e4e9e3e	0.20177552
50	0xbd20eb73	-0.039287042
51	0xbe16d0d8	-0.14728105
52	0xbe41c88c	-0.18924159
53	0x3e30a543	0.17250542
54	0xbe3995ab	-0.181235
55	0xbdb276d6	-0.087140724
56	0x3e297235	0.16547473
57	0x3d446dd4	0.047956303
58	0xbe12b143	-0.14325432
59	0x3c01303d	0.007885036
60	0xbcd37a09	-0.025815027
61	0xbddda4ac	-0.10822424
62	0xbe272e08	-0.16326153
63	0xbe2661a9	-0.16248192
64	0xbca56254	-0.020188488
65	0xbdf90074	-0.121582896
66	0xbdc2e5e4	-0.095165044
67	0xbdb3f9ce	-0.08787881
68	0xbd37f29c	-0.044909105
69	0xbd3d5095	-0.046219427
70	0xbbd945ea	-0.006630649
71	0xbc65e834	-0.014032412
72	0xbe0e590f	-0.1390116
73	0x3deb95a3	0.1150315
74	0xbe0374c5	-0.12837513
75	0xbdf5de8d	-0.12005339
76	0xbda85c3b	-0.082207166
77	0x3dfa36cb	0.12217482
78	0xbddfc984	-0.10927108
79	0x3ddeab66	0.108725354
80	0x3d9aa72d	0.075514175
81	0xbd6af09d	-0.057358373
82	0xbd859cbe	-0.06524037
83	0xbcba7221	-0.022759499
84	0xbdc705e1	-0.09717918
85	0xbe211604	-0.15731055
86	0xbbf9a0b4	-0.0076180343
87	0xbd5407ea	-0.05176536
88	0xbd988cbe	-0.074487194
89	0xbb4641f2	-0.0030251709
90	0xbd397849	-0.04528073
91	0xbe0ab944	-0.13547236
92	0xbcee1fb4	-0.029067852
93	0x3c58e3bb	0.013237889
94	0xbdc60c04	-0.096702605
95	0xbc904ecc	-0.017615698
96	0x3dbf86ad	0.09351859
97	0x3abdf10f	0.0014491397
98	0xbca2c609	-0.019869821
99	0xbda783e0	-0.0817945
100	0xbdcade6e	-0.09905706
101	0x3d1bc3dc	0.038028583
102	0x3df172da	0.11789484
103	0xbdcbe0bc	-0.09954974
104	0xbd7a44de	-0.061100833
105	0xbd666595	-0.05624922
106	0xbdd0d607	-0.101970725
107	0x3de8499d	0.113421656
108	0xbd978e67	-0.07400208
109	0x3cba9189	0.022774475
110	0xbc427465	-0.011868571
111	0x3d312260	0.043245673
112	0x3d8d3ce7	0.06896382
113	0x3d9118ba	0.07084794
114	0x3d43476d	0.04767554
115	0xbc69ec76	-0.014277568
116	0xbb680362	-0.0035402407
117	0x3ca4036e	0.020021167
118	0xbd08d947	-0.033410337
119	0x3e16ca44	0.14725596
120	0xbbc1acea	-0.0059105055
121	0xbd8a6b23	-0.06758716
122	0x3cfd5316	0.030923408
123	0x3e07079e	0.131865
124	0x3df7dcdc	0.121026725
125	0x3d49fb29	0.04931179
126	0x3d977675	0.07395641
127	0xbce0a903	-0.027424341
128	0xbcb86686	-0.022509824
129	0x3dff499a	0.1246521
130	0xb91b19c2	-0.00014791547
131	0xbd9f695e	-0.07783769
132	0xba2be72c	-0.00065575796
133	0x3d1f6394	0.038913324
134	0x3d87f119	0.066377826
135	0x3dc7ca17	0.097553425
136	0xbdebd9a3	-0.1151612
137	0xbd945bbf	-0.07244062
138	0xbe185c49	-0.14878954
139	0xbe0911e6	-0.13385734
140	0xbd764a6a	-0.06012956
141	0xbc70fd80	-0.014708877
142	0x3e196be6	0.14982566
143	0x3d25ef60	0.04051149
144	0x3d746cf3	0.059674215
145	0xbd92381d	-0.07139609
146	0x3aa97c77	0.001293077
147	0x3e2ff0eb	0.17181747
148	0xbd51f28b	-0.051256698
149	0x3c5178eb	0.012785177
150	0x3cd01fe6	0.025405835
151	0x3d658ebe	0.056044333
152	0xbdb5b728	-0.08872825
153	0xbd09e74e	-0.033667855
154	0x3e151403	0.14558415
155	0xbe0d3d07	-0.13792811
156	0x3bd242f4	0.006416673
157	0xbc0e3295	-0.008679052
158	0x3d27f516	0.041005217
159	0xbd43fdee	-0.047849588
160	0x3daed1f9	0.08536143
161	0x3c6f4832	0.014604615
162	0xbceddc10	-0.029035598
163	0x3e081e3d	0.13292785
164	0xbe3e120e	-0.18561575
165	0x3d692fa9	0.056930218
166	0xbd806423	-0.062690996
167	0xbb94679a	-0.004528952
168	0xbdd00f06	-0.101591155
169	0xbdda6aac	-0.10664877
170	0xbd8db87e	-0.06919955
171	0x3db29301	0.08719445
172	0xbdabf2ca	-0.08395918
173	0xbd910913	-0.07081809
174	0xbd0040e4	-0.031311885
175	0x3d1085de	0.035283916
176	0xbd256f5f	-0.040389415
177	0xbd8097c5	-0.06278948
178	0x3d2ec634	0.04266949
179	0x3d53e2c1	0.05172992
180	0x3d8c8c0b	0.068626486
181	0x3d210437	0.03931066
182	0xbbd4d9ce	-0.006495691
183	0xbd7c0bb3	-0.061534595
184	0x3cc64350	0.024202019
185	0xbe282233	-0.16419296
186	0x3db07ab1	0.086171515
187	0x3d8428eb	0.06453117
188	0xbe0d90f0	-0.1382482
189	0x3d529d6e	0.051419668
190	0x3d430e01	0.047620777
191	0x3cc33530	0.023829073
192	0xbb378ea0	-0.0028008595
193	0x3d17da3d	0.037073363
194	0xbe131d98	-0.14366758
195	0xbd9b6042	-0.07586719
196	0x3d410817	0.047126856
197	0xbdde6358	-0.10858792
198	0xbcf0cef4	-0.029395558
199	0xbe0ca63a	-0.13735285
200	0xbd0874f3	-0.033314656
201	0x3e246d49	0.16057314
202	0xbd87aa63	-0.066242956
203	0x3e4a53b3	0.19758491
204	0x3e49318e	0.1964781
205	0xbce1a92f	-0.027546493
206	0xbd7a551c	-0.061116323
207	0xbd1f8645	-0.03894641
208	0x3c5fcfd9	0.013660395
209	0xbe06d4b7	-0.13167082
210	0x3d589e70	0.052885473
211	0xba89272f	-0.0010463948
212	0x3e0d79b7	0.13815962
213	0x3d1b5398	0.037921518
214	0x3cc4c870	0.024021357
215	0x3cf4438d	0.029817367
216	0xbcf9f9df	-0.030514656
217	0x3e181876	0.14853081
218	0xbc3ed69a	-0.011647845
219	0x3d5090c3	0.050919306
220	0xbd14125f	-0.036150333
221	0xbd677083	-0.056503784
222	0xbc17426e	-0.009232147
223	0xbc61e724	-0.013788018
224	0xba0d2e3e	-0.0005385614
225	0xbde2867e	-0.110608086
226	0x3d78600f	0.060638484
227	0x3cc1f257	0.023675127
228	0x3d72ca94	0.059275225
229	0xbd554fc6	-0.05207803
230	0xbdbe1fd4	-0.092834145
231	0xbcad1d37	-0.021132095
232	0x3dadfda0	0.08495641
233	0xbd9e0afa	-0.07716937
234	0xbd3fc162	-0.046815284
235	0x3cf2d722	0.029643599
236	0x3d596b4b	0.05308084
237	0x3d18361f	0.03716099
238	0xbe24f462	-0.1610885
239	0xbd46eee6	-0.048567675
240	0xbddf7a29	-0.10911972
241	0xbc3b09ce	-0.011415912
242	0x3e818b2a	0.25301486
243	0xbccc4603	-0.024935728
244	0xbe07e71d	-0.13271756
245	0x3d5e6e0f	0.05430418
246	0xbdb8064d	-0.08985577
247	0x3c89f56f	0.016840665
248	0x3dcd8b25	0.10036305
249	0x3e69bba5	0.22825487
250	0x3c11a233	0.008888769
251	0xbe0d4abf	-0.13798045
252	0x3d65e466	0.05612602
253	0x3d55ed86	0.052228473
254	0xbc920938	-0.017826661
255	0xbd9ecc27	-0.07753783

cell.gru.weight_ih f4 [192, 64]
0	0xbd87afb2	-0.06625308
1	0x3dfe6245	0.12421087
2	0x3c27e6ff	0.010247945
3	0x3d9ac482	0.07557012
4	0xbdbf36ca	-0.09336622
5	0x3c1fd143	0.009754482
6	0x3d6a624b	0.057222646
7	0x3c09ead7	0.008417807
8	0x3e364fd9	0.17803897
9	0xbd8de836	-0.06929056
10	0x3db7ae22	0.0896876
11	0x3d0e65f2	0.03476519
12	0x3d4d5991	0.050134245
13	0x3a43fc74	0.0007476278
14	0xbd837bd1	-0.064201005
15	0x3cea83af	0.028627245
16	0xbc994a55	-0.018712202
17	0x3d49ead9	0.049296234
18	0x3c523079	0.01282894
19	0x3e3b5502	0.18294147
20	0xbd87f8e2	-0.066392675
21	0x3caa3345	0.0207764
22	0xbe277c01	-0.16355897
23	0x3d8b0b0a	0.06789215
24	0xbdf519c7	-0.11967807
25	0xbe50fac5	-0.20408161
26	0x3daa515a	0.08316298
27	0x3da36356	0.07977931
28	0x3e2a4e74	0.1663149
29	0xbd8ac167	-0.0677517
30	0x3be2ba42	0.0069191763
31	0x3d1e8dfa	0.03870962
32	0xbdcbccb0	-0.099511504
33	0x3d5af276	0.053453885
34	0xbb9f7bf0	-0.0048670694
35	0x3de28b0f	0.110616796
36	0xbd85317a	-0.065035775
37	0xbb4c7d27	-0.0031202526
38	0xbd06d750	-0.03292018
39	0xbd344c8f	-0.044018324
40	0x3cb5b2e8	0.022180036
41	0xbdadf494	-0.08493915
42	0x3da190f4	0.07888976
43	0xbd8fb834	-0.07017556
44	0x3db2c1a1	0.08728338
45	0x3d9992b8	0.074986875
46	0xbd15db53	-0.036586117
47	0xbd0ff1a6	-0.035142563
48	0xbe15ffcd	-0.14648362
49	0xbd8e1d6b	-0.06939205
50	0xbe16bc6a	-0.14720312
51	0xbddaea16	-0.106891796
52	0xbdeeec26	-0.116661355
53	0xbd813230	-0.06308401
54	0x3e034c2d	0.12822028
55	0xbe875d20	-0.26438236
56	0x3d589ade	0.052882068
57	0x3df774f9	0.12082858
58	0xbce2e9ea	-0.02769943
59	0xbc310315	-0.0108039575
60	0xbdb64b23	-0.0890105
61	0xbe1530dd	-0.14569421
62	0x3e06cb83	0.13163571
63	0x3d1055c8	0.035238057
64	0x3c75180c	0.0149593465
65	0xbc0ce2df	-0.008599012
66	0xbd033822	-0.032035954
67	0xbd870833	-0.06593361
68	0x3e087c18	0.13328588
69	0xbd14f2b9	-0.03636429
70	0xbb54008d	-0.003234896
71	0x3c974188	0.018463865
72	0x3c4652ca	0.012104699
73	0xbcfbe0bf	-0.030746816
74	0x3d9eb806	0.077499434
75	0x3da8e8f2	0.08247556
76	0x3d0b591b	0.034020524
77	0x3d2ae808	0.04172519
78	0xbb123c21	-0.0022313672
79	0x3d4674e4	0.04845132
80	0xbc821a9f	-0.015881835
81	0x3dd6917a	0.10476966
82	0xbe0e7fe9	-0.13915981
83	0xbc7748b1	-0.015093015
84	0x3dc98bcd	0.09841118
85	0xbd225874	-0.039635137
86	0xbdd09322	-0.10184313
87	0xbd4ef8ec	-0.05053036
88	0x3cd15808	0.025554672
89	0xbcb43b07	-0.022000803
90	0x3d91adda	0.07113238
91	0x3deb141f	0.11478447
92	0xbbee5411	-0.007273205
93	0x3d871c6f	0.0659722
94	0xbdf6ceca	-0.12051161
95	0xbcfba7e0	-0.030719697
96	0x3d3bf6a5	0.045889515
97	0x3db94e1f	0.090481035
98	0xbd2b364e	-0.041799836
99	0x3c284127	0.01026944
100	0x3dbd8a29	0.092548676
101	0x3de6aa5c	0.11262962
102	0x3e765c08	0.24058545
103	0x3d26122a	0.040544666
104	0x3d731605	0.05934717
105	0xbccf729d	-0.025323207
106	0xbd745374	-0.0596499
107	0x3de20b91	0.11037362
108	0xbd149816	-0.036277853
109	0xbc95ad03	-0.018270975
110	0xbe05f6a0	-0.13082361
111	0x3d6e5a77	0.058191743
112	0xbd0af2cf	-0.033922967
113	0xbdb58963	-0.08864095
114	0xbdb3c70b	-0.08778199
115	0x3c9b5abf	0.01896417
116	0x3e093529	0.13399185
117	0xbdbe60ec	-0.0929583
118	0xbe016463	-0.1263595
119	0x3d8b0179	0.0678739
120	0xbdce2c09	-0.10066993
121	0x3d9a3fb6	0.07531683
122	0x3d38ad3f	0.045087095
123	0x3c93df9d	0.018050963
124	0xbdd7a134	-0.10528794
125	0x3c155ce8	0.009116389
126	0xbd95971f	-0.07304215
127	0x3ddc55d1	0.10758556
128	0xbd79db84	-0.061000362
129	0xbdc013df	-0.0937879
130	0x3e0520b8	0.13000762
131	0x3dbaeb25	0.091268815
132	0xbe15001b	-0.14550821
133	0xbd8428b6	-0.064530775
134	0xbec0478a	-0.3755458
135	0xbdf339cf	-0.118762605
136	0xbd1532d8	-0.03642544
137	0xbe75819e	-0.23975226
138	0x3b2a8a14	0.0026022242
139	0xbf4db849	-0.8035932
140	0x3d10df99	0.03536949
141	0xbd7a30e8	-0.061081797
142	0xbd8a9229	-0.06766159
143	0xbdec1ede	-0.11529325
144	0xbed60ae3	-0.4180518
145	0xbe0c8e3a	-0.1372613
146	0xbc56656f	-0.013085707
147	0xbe857352	-0.26064545
148	0x3cae6ece	0.02129307
149	0x3e2c01e4	0.16797596
150	0x3e2b8aab	0.16752116
151	0xbd36cebd	-0.044630755
152	0xbcedeb9e	-0.029043015
153	0x3e059bc1	0.13047697
154	0xbc898aca	-0.016789813
155	0x3e46668e	0.19375059
156	0xbe90afc9	-0.28259113
157	0x3e6a6710	0.22890878
158	0x3ed81ecb	0.42210993
159	0xbc678c0d	-0.014132512
160	0x3e2dfc82	0.16990855
161	0xbdb3b3df	-0.08774542
162	0xbf1d470b	-0.6143653
163	0x3e1ac802	0.1511536
164	0x3ee38bd3	0.44442615
165	0xbe117302	-0.14204028
166	0xbea5b2ee	-0.32363075
167	0xbc8fd5a2	-0.017557923
168	0x3df5c41f	0.12000298
169	0xbe790cdd	-0.24321313
170	0xbd7e4861	-0.062080745
171	0xbe79781f	-0.24362229
172	0x3e851291	0.25990728
173	0xbe3d7e45	-0.18505199
174	0xbe9ab37e	-0.30215067
175	0xbe6c9c53	-0.23106508
176	0xbd7a93e1	-0.061176185
177	0x3ea6916a	0.32532817
178	0xbf2e72f2	-0.6814414
179	0xbe8ea27f	-0.2785835
180	0xbd961112	-0.07327475
181	0x3e65c128	0.22436965
182	0xbe98fb3e	-0.29879183
183	0xbe4f7398	-0.2025894
184	0x3dd2f239	0.103001066
185	0x3e90c446	0.28274745
186	0xbe24bb5f	-0.16087101
187	0xbcd1ad85	-0.025595436
188	0x3e148ac5	0.14506061
189	0x3e820752	0.2539621
190	0xbe3e4022	-0.18579152
191	0xbe297b84	-0.16551024
192	0xbd035318	-0.032061666
193	0xbeab1611	-0.33415273
194	0x3ed8e1c8	0.42359757
195	0x3e949bbd	0.2902507
196	0xbe1f53d6	-0.15559325
197	0xbd1342c0	-0.03595233
198	0xbe216fe6	-0.15765342
199	0x3e515172	0.20441225
200	0x3eda52e1	0.42641357
201	0xbe9dd2d0	-0.308249
202	0x3cc4d5d6	0.024027746
203	0xbe754376	-0.23951516
204	0xbee0ad24	-0.43882096
205	0xbe3d5439	-0.1848916
206	0xbc01f7a7	-0.00793258
207	0x3aa35cd0	0.0012463573
208	0xbc2724e3	-0.010201666
209	0x3e86cce5	0.26328197
210	0x3c0430e1	0.008068294
211	0xbe5503d5	-0.20802243
212	0x3d3b69ae	0.04575508
213	0x3dfe558f	0.12418663
214	0xbdee154c	-0.11625156
215	0x3e193014	0.14959747
216	0x3d8e5416	0.06949632
217	0xbe31a49c	-0.1734795
218	0xbcc8dca5	-0.024519274
219	0x3df140df	0.11779951
220	0xbd9af4fb	-0.075662576
221	0x3e614511	0.21999003
222	0x3e363eed	0.17797442
223	0xbdc07372	-0.093970194
224	0x3e50244e	0.20326349
225	0xbc0cf370	-0.008602962
226	0xbf08a0a4	-0.5337012
227	0x3e1d16bf	0.15340708
228	0x3dcbc8b6	0.09950392
229	0xbdafa098	-0.08575553
230	0xbe40f54a	-0.1884357
231	0xbdf5863e	-0.11988495
232	0x3e5d587b	0.21615784
233	0xbcc928ae	-0.02455553
234	0xbdab1736	-0.083540365
235	0xbd71a74e	-0.058997445
236	0xbc640093	-0.0139161525
237	0xbdaf9c0e	-0.08574687
238	0x3e181323	0.1485105
239	0xbd5a5fd4	-0.053314045
240	0xbe574811	-0.21023585
241	0x3e37a24a	0.17933002
242	0xbc02113c	-0.007938679
243	0xbe0e8f50	-0.13921857
244	0xbe2c3654	-0.168176
245	0x3d7abc79	0.061214898
246	0xbe534c17	-0.20634495
247	0xbdc3a9ed	-0.09553895
248	0x3e3e4102	0.18579486
249	0xbe414875	-0.18875296
250	0x3d16fb40	0.036860704
251	0xbec23747	-0.37932798
252	0x3deb2b64	0.114828855
253	0x3dbdfa77	0.09276288
254	0x3dea77f5	0.11448661
255	0xbe7185b2	-0.23586157

cell.gru.weight_hh f4 [192, 64]
0	0xbe2b45f6	-0.16725907
1	0x3d49e945	0.04929473
2	0x3e1677f1	0.14694192
3	0x3e15bcbe	0.1462278
4	0xbe39a245	-0.18128307
5	0x3dd6a666	0.10480957
6	0xbe569610	-0.20955682
7	0xbdd218cb	-0.10258635
8	0x3ce19246	0.027535569
9	0xbd274123	-0.040833604
10	0x3dc2d662	0.095135465
11	0x3e2f6193	0.17127065
12	0xbd2447fd	-0.040107716
13	0x3d2aedff	0.041730877
14	0xbd93fa32	-0.07225455
15	0x3d3deb04	0.046366706
16	0xbc1aed06	-0.009455925
17	0xbdd75c3f	-0.105156414
18	0xba92a0ad	-0.0011186801
19	0xbda2d2f3	-0.079503916
20	0xbd67e194	-0.056611612
21	0xbb3af375	-0.002852646
22	0x3d4165d8	0.047216266
23	0x3da32631	0.07966269
24	0xbd1c71fb	-0.038194638
25	0x3d9da3b7	0.07697242
26	0x3e1c8409	0.15284742
27	0xbd5d365d	-0.054006923
28	0x3e348fd4	0.17632991
29	0x3e50e074	0.20398122
30	0xbd0395c6	-0.032125257
31	0x3dd5251d	0.104074694
32	0xbd0fddb2	-0.035123535
33	0xbe4971da	-0.19672337
34	0xbd744a90	-0.05964142
35	0xbe32d6e5	-0.17464788
36	0x3dd46db7	0.10372489
37	0x3d85acf3	0.06527128
38	0xbdca2c84	-0.09871772
39	0xbdb96348	-0.090521395
40	0xbde32107	-0.11090284
41	0xbe427537	-0.18990026
42	0xbb72309b	-0.003695524
43	0x3d884a22	0.06654765
44	0x3df9cc00	0.12197113
45	0x3cac43b7	0.021028383
46	0x3e3f1f30	0.18664241
47	0x3e0bcc0f	0.13652061
48	0x3d4cc352	0.04999096
49	0xbd324a1d	-0.04352771
50	0xbd3306b2	-0.043707557
51	0x3d418d19	0.0472537
52	0xbca5b33d	-0.020227069
53	0xba6ebaba	-0.0009106804
54	0xbd20bca3	-0.039242398
55	0x3d06e5f2	0.032934137
56	0x3d0ed932	0.034875102
57	0xbdd65c64	-0.10466841
58	0xbdf70dc2	-0.12063171
59	0xbcf8fee2	-0.030394975
60	0x3d7b14fd	0.061299313
61	0xbd3b605a	-0.045746185
62	0xbc5ff433	-0.0136690615
63	0x3e12364b	0.14278524
64	0x3d814168	0.063113034
65	0x3e951c70	0.2912326
66	0x3e09d6c7	0.13460837
67	0x3b07bd46	0.002071218
68	0xbe259003	-0.16168217
69	0xbd927a0b	-0.07152184
70	0x3ddfad4b	0.10921725
71	0xbdcb2a24	-0.09920147
72	0x3c1e0a0b	0.009645949
73	0x3d8e17c9	0.069381304
74	0xbdcaf17a	-0.09909339
75	0xbbc421d4	-0.005985478
76	0x3d870f7c	0.0659475
77	0xbe061ad8	-0.13096178
78	0x3d998654	0.07496324
79	0x3daf182f	0.085495345
80	0xbd2fa009	-0.04287723
81	0xbceffaba	-0.02929436
82	0x3dde790d	0.10862932
83	0x3d8ab03f	0.067718975
84	0xbd0d1294	-0.034441546
85	0x3e627d0b	0.22118013
86	0x3e03e73d	0.12881179
87	0x3d71dc36	0.0590479
88	0xbd825a48	-0.06364876
89	0x3cb1692d	0.021656597
90	0x3e0b4668	0.13601077
91	0xbd7e3669	-0.06206361
92	0xbdbc9919	-0.092088886
93	0xbd75fd42	-0.06005598
94	0xbcc2e7ca	-0.023792166
95	0x3e82a65c	0.25517547
96	0xbd964768	-0.073378384
97	0xbd570ec8	-0.05250433
98	0xbc144510	-0.009049669
99	0xbd3ad1aa	-0.045610107
100	0xbc5309cd	-0.012880755
101	0xbd4cfc09	-0.050045047
102	0xbdef949c	-0.11698267
103	0x3cf0f2b0	0.029412597
104	0x3d7124e4	0.058873072
105	0xbe557341	-0.20844747
106	0xbe1c38f6	-0.15256104
107	0x3d994cff	0.07485389
108	0x3b8803c3	0.004150839
109	0xbcde99e8	-0.027172998
110	0xbcc3bf95	-0.023895064
111	0x3e27b513	0.16377668
112	0x3d46b766	0.048514746
113	0xbe1b333b	-0.15156262
114	0x3d75a315	0.05996998
115	0xbe070765	-0.13186415
116	0x3dd053eb	0.10172256
117	0x3db3607a	0.08758636
118	0x3c9be52c	0.019030176
119	0xbd332b45	-0.043742437
120	0x3c381b9d	0.011237052
121	0x3d0d5727	0.034506943
122	0xbdbd5073	-0.0924386
123	0x3dc4eef3	0.096158884
124	0xbd6d15b8	-0.05788204
125	0x3d9530e8	0.07284719
126	0xbb67ec79	-0.0035388751
127	0x3de7222b	0.11285814
128	0x3e97fe6f	0.29686305
129	0x3e3a25f5	0.18178542
130	0x3e9298df	0.28632256
131	0xbe407e1b	-0.18798105
132	0x3e4f2ff7	0.20233141
133	0xbf01f614	-0.5076611
134	0x3ea7bfc9	0.32763508
135	0x3ec5546c	0.3854097
136	0x3dd39e90	0.10332978
137	0xbe8800be	-0.26563066
138	0x3e70caac	0.23514813
139	0xbe51d559	-0.20491542
140	0x3ce42818	0.02785115
141	0xbe2167e8	-0.15762293
142	0xbf0d4605	-0.55184966
143	0xbed72382	-0.42019278
144	0x3e9829a5	0.29719272
145	0x3ef0f111	0.4705892
146	0x3e9ad7ba	0.3024271
147	0xbec24ab8	-0.3794763
148	0x3e891eaf	0.26781222
149	0xbf1a32cf	-0.6023378
150	0xbf4760c7	-0.77882046
151	0xbe71ad20	-0.23601198
152	0x3e9ce784	0.30645382
153	0xbdee7066	-0.11642532
154	0xbf19c1b2	-0.6006118
155	0xbddc18be	-0.10746907
156	0x3ebc408d	0.36767998
157	0xbe46e3b5	-0.19422801
158	0xbda8b389	-0.082373686
159	0xbedf7bc0	-0.436491
160	0x3dd52e0d	0.10409174
161	0x3e95f1bb	0.29285988
162	0x3ea08e5d	0.31358615
163	0x3e7b3161	0.24530555
164	0xbeafe67d	-0.34355536
165	0x3dce5220	0.10074258
166	0x3e89a463	0.2688323
167	0xbe35632b	-0.17713611
168	0xbe351c23	-0.17686515
169	0x3ecb53ba	0.39712316
170	0x3e523a33	0.20530014
171	0xbeb56451	-0.35428098
172	0xbe0dab3b	-0.1383485
173	0xbe75fa1f	-0.24021195
174	0xbdbf9adb	-0.09355708
175	0xbe3e3933	-0.18576507
176	0xbea846ae	-0.32866424
177	0xbe2c95e4	-0.16854054
178	0x3ecafa7c	0.3964423
179	0xbef077ff	-0.4696655
180	0xbcdc1b38	-0.026868448
181	0x3e9d0ea9	0.30675247
182	0xbec9ac3d	-0.3938922
183	0x3db846e8	0.08997899
184	0x3e4cad91	0.19988085
185	0x3e3c49b7	0.18387495
186	0x3e97e6ea	0.2966836
187	0xbe95cceb	-0.29257903
188	0x3ed28d75	0.41123548
189	0x3e552ecc	0.20818633
190	0x3e320c5f	0.17387532
191	0xbe5745d1	-0.21022727
192	0x3c9bf857	0.019039316
193	0x3e36470b	0.17800538
194	0x3d1562dd	0.036471236
195	0xbf268616	-0.6504835
196	0xba5c49c6	-0.0008403327
197	0xbd307af9	-0.043086026
198	0xbd2b244b	-0.04178266
199	0x3dade4ba	0.08490892
200	0xbe107074	-0.14105397
201	0xbcefe06d	-0.02928182
202	0x3ce57c4c	0.02801337
203	0xbe1e2b85	-0.15446289
204	0x3df713bc	0.12064311
205	0xbdcfb344	-0.10141614
206	0xbe1099ad	-0.14121123
207	0xbdcfc458	-0.101448715
208	0x3c41c583	0.011826876
209	0x3e1fff19	0.15624656
210	0x3da1b759	0.07896299
211	0xbe74a06f	-0.23889326
212	0xbe429ce4	-0.19005162
213	0xbd226a63	-0.03965224
214	0x3d828537	0.06373065
215	0x3d347548	0.04405716
216	0x3ed1d398	0.40981746
217	0xbc76e387	-0.015068895
218	0xbdb899a3	-0.09013679
219	0x3e686127	0.2269331
220	0x3ddc8f21	0.10769487
221	0x3c41ce9a	0.011829043
222	0xbb937df9	-0.004501101
223	0xbc959c50	-0.018263012
224	0x3e3e3fb8	0.18578994
225	0x3dcdafa5	0.10043267
226	0xbd6e04a1	-0.058109883
227	0xbd7de92f	-0.06198996
228	0x3e3e80a5	0.18603761
229	0x3d84ecdc	0.0649049
230	0x3dc751eb	0.097324215
231	0x3d9f9678	0.077923715
232	0xbdbe4a4c	-0.09291515
233	0x3dab7c42	0.0837331
234	0x3cd279eb	0.0256929
235	0xbb86bfb8	-0.00411221
236	0xbd9238b6	-0.07139723
237	0xbcf42fd1	-0.029807957
238	0x3dc33c33	0.095329665
239	0x3d7a2f9d	0.061080564
240	0xbccd2c61	-0.025045576
241	0xbd156dce	-0.03648167
242	0x3c4b0df8	0.012393467
243	0xbe167f07	-0.14696895
244	0xbe273608	-0.16329205
245	0x3e26d8bb	0.16293614
246	0xbc0dffb2	-0.00866692
247	0x3d35bd8f	0.04437023
248	0x3e306923	0.17227606
249	0xbbc7b5e8	-0.006094683
250	0x3e015876	0.12631401
251	0xbd89bcc1	-0.06725455
252	0x3e3d0f0e	0.18462774
253	0x3d98166b	0.07426151
254	0x3a5d80f7	0.0008449698
255	0x3d9be6cc	0.076123804

cell.gru.bias_ih f4 [192]
0	0xbef5a0b1	-0.4797416
1	0xbed7a1d7	-0.42115662
2	0xbe1e77b8	-0.15475357
3	0x3d24fcd4	0.04028018
4	0xbe1cca2c	-0.15311497
5	0xbe941b95	-0.28927293
6	0xbe4a3258	-0.19745767
7	0xbe90fbd9	-0.28317145
8	0x3ea54f57	0.32287094
9	0xbe4a1655	-0.19735081
10	0xbe1e8fc6	-0.15484533
11	0x3e5d6892	0.21621922
12	0xbe56bac3	-0.20969681
13	0xbf37a7bc	-0.7174032
14	0xbea1de80	-0.31615067
15	0xbe89bf80	-0.26903915
16	0xbe132a94	-0.14371711
17	0xbee694c9	-0.4503539
18	0xbf131d7d	-0.5746687
19	0x3d7c4fd0	0.061599553
20	0xbdda77b5	-0.106673636
21	0xbef3a663	-0.4758788
22	0xbeb98c61	-0.36239913
23	0xbde6ae16	-0.11263673
24	0xbf3140c9	-0.6923948
25	0x3b282159	0.0025654642
26	0x3db8d047	0.09024101
27	0xbce66fbb	-0.02812945
28	0xbd887a8c	-0.06663999
29	0xbef58cc2	-0.47958952
30	0xbe1a87df	-0.15090893
31	0xbd16e99c	-0.03684388
32	0xbee229e9	-0.441726
33	0xbe9fffdd	-0.31249896
34	0xbe2e3d94	-0.17015678
35	0xbf077269	-0.5290895
36	0xbe587f6e	-0.2114236
37	0xbea8ea1f	-0.3299112
38	0xbe95a026	-0.29223746
39	0x3d80d870	0.06291282
40	0x3ed1d02e	0.4097914
41	0xbe77db55	-0.24204762
42	0xbeac38b7	-0.3363702
43	0xbed53e53	-0.41649112
44	0xbe88d99b	-0.2672852
45	0xbeab4307	-0.33449575
46	0xbe910c7f	-0.28329846
47	0xbd263a27	-0.040582802
48	0xbe32e8d3	-0.17471628
49	0xbdc15412	-0.09439863
50	0xbe795acb	-0.24351041
51	0xbe36c6e2	-0.17849305
52	0xbd8aba29	-0.067737885
53	0x3e8c7989	0.27436474
54	0xbeb0d6aa	-0.34538776
55	0x3dc3c14f	0.09558355
56	0xbea333a9	-0.3187535
57	0xbe83fb15	-0.25777498
58	0xbeb29418	-0.34878612
59	0xbe5504d8	-0.20802629
60	0xbe536cb8	-0.20646942
61	0xbf10ca82	-0.56559
62	0xbe3238b0	-0.17404437
63	0xbe19d62c	-0.15023106
64	0x3c9857de	0.018596586
65	0xbb5b716e	-0.0033484357
66	0xbd7cfe77	-0.061766114
67	0xbceb8100	-0.028748035
68	0x3dec1250	0.1152693
69	0x3e241f41	0.16027547
70	0x3df091e3	0.11746576
71	0x3e13bbed	0.14427157
72	0x3cdb8b46	0.02679981
73	0x3e17f781	0.14840509
74	0x3dfed3ac	0.12442717
75	0x3e05d56e	0.13069698
76	0xbedc4114	-0.430184
77	0x3dd49965	0.1038082
78	0xbd54f018	-0.051986784
79	0x3dedd0ae	0.11612068
80	0xbcaa11be	-0.020760413
81	0xbbd996f4	-0.0066403095
82	0x3e35cd32	0.17754057
83	0xbf3891fb	-0.7209775
84	0xbe00ea43	-0.12589364
85	0x3e06ee29	0.13176788
86	0x3d86dd9e	0.06585239
87	0x3d7b3127	0.061326172
88	0xbeb7c4d1	-0.35892347
89	0x3e5ed455	0.21760686
90	0xbda4f77d	-0.08055017
91	0xbcc59090	-0.024116784
92	0xbd6b18ef	-0.057396825
93	0x3e8ff8d7	0.28119537
94	0xbe1925c0	-0.14955807
95	0xbc5e5b35	-0.01357155
96	0x3cc2494e	0.023716595
97	0x3ddf3269	0.10898287
98	0x3daae426	0.08344297
99	0x3e1886d8	0.14895189
100	0x3e0ff6ef	0.14059041
101	0x3d8eee52	0.0697905
102	0x3e461973	0.19345646
103	0xbe48efc3	-0.19622712
104	0xbd80c169	-0.0628689
105	0x3d966987	0.073443465
106	0xbd61af04	-0.05509855
107	0x3c93b3a2	0.018029992
108	0xbdbc9a42	-0.0920911
109	0x3e051504	0.12996298
110	0x3d7677cc	0.06017284
111	0x3e2de03e	0.16980073
112	0x3d3a94fa	0.04555223
113	0x3e3d0527	0.18458997
114	0xbcbb46d0	-0.022860914
115	0x3ddc8a14	0.10768524
116	0x3e03decd	0.1287796
117	0x3d50c2f4	0.05096717
118	0x3e147939	0.14499368
119	0x3db28792	0.08717264
120	0x3dcbd6f7	0.09953111
121	0x3d88866c	0.06666264
122	0xbd0d2029	-0.0344545
123	0xbc99dfdc	-0.018783502
124	0x3dd8a2d8	0.10577935
125	0x3d229e28	0.03970161
126	0x3deeb43c	0.11655471
127	0xbdd1b4e6	-0.10239582
128	0xbd2773b4	-0.040881827
129	0x3c71de60	0.014762491
130	0x3d8bb054	0.06820741
131	0xbd00aac7	-0.031412866
132	0xbbdc51c2	-0.0067236135
133	0x3b9dba8f	0.0048134993
134	0xbc7a2b83	-0.015269163
135	0xbd2c7fd1	-0.042114083
136	0x3d92350b	0.071390234
137	0xbb750f3c	-0.0037393114
138	0xbcfdb34e	-0.030969288
139	0x3c5fe2a2	0.013664873
140	0xbbc0917e	-0.005876719
141	0xbbf9bd92	-0.0076214755
142	0xbd98ae7c	-0.07455155
143	0x37f441f4	2.9117778e-05
144	0xbd2d03c4	-0.04223992
145	0xbd3edc9a	-0.0465971
146	0xbd481bfc	-0.048854813
147	0xbe687759	-0.22701778
148	0x3d122d77	0.03568789
149	0xbb136fcb	-0.0022497054
150	0x3ca9c504	0.020723827
151	0xbcdac2fc	-0.026704304
152	0xbd7dc067	-0.061951067
153	0x3d29493d	0.04132961
154	0x3d14c3bd	0.036319483
155	0xbced2bb3	-0.028951501
156	0xbcd32f90	-0.025779516
157	0xbd43c50e	-0.047795348
158	0xbd0d08c2	-0.03443218
159	0x3cb82653	0.022479212
160	0xbd36d948	-0.04464081
161	0xbba50685	-0.0050361776
162	0xbd64f504	-0.055897728
163	0x3d00bb9b	0.031428915
164	0x3cdd231c	0.02699428
165	0xbcba50e0	-0.022743642
166	0x3ce8c3ee	0.028413739
167	0xbd8dde4b	-0.06927165
168	0xbd817a5e	-0.06322168
169	0x3d1a3b66	0.037654303
170	0x3d71a4d1	0.05899507
171	0x3c294d35	0.010333349
172	0xbc223a33	-0.009901571
173	0xbcca0a38	-0.024663076
174	0xbd4c5c9d	-0.04989301
175	0x3bb7d155	0.005609671
176	0x3d011e20	0.03152287
177	0xbd2e0a8c	-0.042490527
178	0x3ce28ef7	0.027656062
179	0x3d776871	0.060402337
180	0x3d34949d	0.04408704
181	0xbd5c6358	-0.05380568
182	0xbd6c1f6d	-0.057647157
183	0x3c4e74af	0.012601062
184	0xbc57a263	-0.013161275
185	0xbcae39f7	-0.021267874
186	0x3d6974c3	0.05699612
187	0xbbff54fa	-0.0077921124
188	0xbd09b285	-0.033617515
189	0x3cc27372	0.02373669
190	0xbcf803b2	-0.0302752
191	0xba8654e5	-0.0010248689

cell.gru.bias_hh f4 [192]
0	0xbedbde1a	-0.42942888
1	0xbea2502f	-0.317018
2	0xbdbb9dc8	-0.09160954
3	0xbd3d4d09	-0.046216045
4	0xbdeb1b38	-0.11479801
5	0xbe63bb59	-0.22239436
6	0xbdc2866f	-0.094982974
7	0xbe756262	-0.23963311
8	0x3e8b9472	0.27261692
9	0xbe882c6d	-0.26596394
10	0xbb18f100	-0.0023337007
11	0x3e8a3bc2	0.26998717
12	0xbe8bfec7	-0.27342817
13	0xbf4bad17	-0.7956099
14	0xbe8a4eab	-0.27013144
15	0xbe4b8786	-0.19875917
16	0xbdef514e	-0.116854295
17	0xbeac4a93	-0.33650646
18	0xbf200ae6	-0.6251663
19	0xbc89b48e	-0.016809728
20	0xbb95103f	-0.004549056
21	0xbeace5d8	-0.33769107
22	0xbe67459a	-0.22585145
23	0xbe227daa	-0.1586825
24	0xbf4a4175	-0.7900613
25	0xbc3901fa	-0.011291975
26	0x3e435c85	0.19078262
27	0xbd0c286c	-0.034218237
28	0xbdc7b0c5	-0.09750513
29	0xbeeb540a	-0.45962554
30	0xbea02caf	-0.3128409
31	0xbdc5417d	-0.096316315
32	0xbedbb466	-0.4291107
33	0xbea81059	-0.32824972
34	0xbe87f728	-0.26555753
35	0xbf0c3e91	-0.5478297
36	0xbec10e1a	-0.3770607
37	0xbeaf37c2	-0.34222227
38	0xbe9c4673	-0.30522498
39	0x3bcb0dd9	0.006196719
40	0x3eed3307	0.46327993
41	0xbec7e0ab	-0.39038596
42	0xbf11e811	-0.5699473
43	0xbea14155	-0.31495157
44	0xbeb995ae	-0.3624701
45	0xbe53b798	-0.20675504
46	0xbe995b58	-0.29952502
47	0xbe603b1f	-0.21897553
48	0xbe2eac1a	-0.17057839
49	0x3d2e0dbe	0.042493574
50	0xbeb6cbf8	-0.3570249
51	0xbd7e7234	-0.06212063
52	0xbd2f54b0	-0.042805374
53	0x3e030042	0.12793067
54	0xbf0afc90	-0.5429163
55	0xbc24a045	-0.010047977
56	0xbe283a09	-0.16428389
57	0xbe8d75cc	-0.27628934
58	0xbe38bea1	-0.18041469
59	0xbda3aca9	-0.07991917
60	0xbe6c5b01	-0.2308159
61	0xbebc0a4b	-0.36726603
62	0xbe1f721f	-0.15570877
63	0xbe84a05f	-0.25903603
64	0xbd3fb5c1	-0.046804193
65	0xbbcf32a6	-0.0063231764
66	0xbd587b76	-0.052852117
67	0xbd96445e	-0.07337259
68	0x3e1f8a0a	0.15580001
69	0x3d14485d	0.036201824
70	0xbc35e53f	-0.01110202
71	0x3def4ce7	0.1168459
72	0xbd420a3a	-0.047373034
73	0x3e35dca1	0.17759944
74	0x3c77c04c	0.015121531
75	0x3ddbf611	0.10740293
76	0xbeb34998	-0.35017085
77	0x3d84b5b7	0.06479972
78	0xbe141062	-0.14459375
79	0x3d7e45b6	0.0620782
80	0x3e31b4d9	0.17354144
81	0x3d181ea1	0.037138585
82	0xbd4d2e26	-0.05009284
83	0xbf324302	-0.69633496
84	0xbcad900c	-0.021186851
85	0x3da04cc2	0.078271404
86	0x3d1ae159	0.037812565
87	0x3da74d4f	0.08169042
88	0xbead18e4	-0.33808053
89	0xbb8eb743	-0.0043553426
90	0xbd8fd43e	-0.07022904
91	0xbd363c2f	-0.04449099
92	0x3b5e4205	0.0033913862
93	0x3e36f652	0.17867401
94	0xbc8d8ccd	-0.017279053
95	0x3dce8440	0.100838184
96	0xbdad6ecf	-0.08468401
97	0x3b0cdd67	0.002149427
98	0x3e0cd03a	0.13751307
99	0x3c0b8a78	0.0085169
100	0x3e5507b0	0.20803714
101	0x3e02d5db	0.12776892
102	0x39e186ce	0.00043015782
103	0xbe2d4dec	-0.16924256
104	0xbdecde9f	-0.11565899
105	0x3da799c6	0.08183627
106	0xba8e89ba	-0.0010874786
107	0x3dceb174	0.1009244
108	0xbdb783a7	-0.089606576
109	0xbd1b8515	-0.037968714
110	0x3e3a39df	0.18186139
111	0x3e2dd4f0	0.1697576
112	0xbde4da7a	-0.111744836
113	0x3cbebfaf	0.023284761
114	0xbd6a3355	-0.05717786
115	0x3dc436b1	0.09580744
116	0x3d5d61b9	0.054048274
117	0x3e4421e8	0.19153559
118	0x3da08cf3	0.07839384
119	0xbd3a1b10	-0.045435965
120	0xbc87ba64	-0.01656837
121	0xbc65c429	-0.014023819
122	0x3e0788aa	0.13235727
123	0x3dd8d50a	0.10587509
124	0x3d730011	0.059326235
125	0x3bb651db	0.005563957
126	0x3e131679	0.14364041
127	0xbd720cd2	-0.059094258
128	0x3e05bb22	0.13059667
129	0xbd2ceeb1	-0.04221982
130	0xbdba31ce	-0.09091531
131	0x3d8de7af	0.06928956
132	0x3c56ce09	0.013110646
133	0xbc60523a	-0.013691479
134	0x3d232286	0.039827846
135	0x3dd4180d	0.1035615
136	0xbe23d699	-0.15999831
137	0x3a9ce059	0.0011968716
138	0x3d788835	0.060676772
139	0xbcb09f34	-0.021560289
140	0xbd98a568	-0.07453424
141	0x3c917d81	0.01776004
142	0x3e2d1e9f	0.16906212
143	0xb9a563a1	-0.00031545482
144	0x3dd3b744	0.103376895
145	0x3e1a3007	0.15057383
146	0x3e4b795a	0.1987051
147	0x3ee2ae48	0.4427359
148	0xbc754727	-0.014970577
149	0xbc6004be	-0.013673006
150	0xbd9e46dc	-0.07728359
151	0x3cff99ce	0.03120127
152	0xbcaba200	-0.020951271
153	0xbdb55f58	-0.08856076
154	0xbe11b25c	-0.14228195
155	0x3d584e34	0.052808955
156	0x3d7d466d	0.06183474
157	0x3e35e9de	0.17764995
158	0x3dc27eff	0.09496879
159	0xbd401e5e	-0.04690396
160	0x3e28eefd	0.16497417
161	0x3bd7c5f8	0.006584879
162	0x3e00356b	0.12520377
163	0xbdf2fb1a	-0.118643
164	0xbd9dcff2	-0.07705678
165	0x3d909d78	0.07061285
166	0xbdb34e90	-0.08755219
167	0x3e1438ea	0.14474836
168	0x3dda07d8	0.10646027
169	0xbde0b86d	-0.109726764
170	0xbe6a3fc0	-0.22875881
171	0xbcf715fa	-0.030161846
172	0x3c6e1602	0.014531614
173	0x3d723c2d	0.05913942
174	0x3e1b5891	0.15170504
175	0xbc4726eb	-0.012155275
176	0xbd9cf405	-0.076637305
177	0x3d986ff2	0.07443227
178	0xbdad44fc	-0.08460423
179	0xbe0b78c6	-0.1362029
180	0xbdaa7da6	-0.08324747
181	0x3db0b8d7	0.086290054
182	0x3e424dcc	0.1897499
183	0x3bc13e0b	0.0058972887
184	0x3d256aed	0.040385175
185	0x3d24448a	0.040104426
186	0xbe246d11	-0.1605723
187	0x3b8ed73b	0.0043591536
188	0x3da79b0d	0.081838705
189	0xbd8546ff	-0.06507682
190	0x3d9911c9	0.074740954
191	0xbcef2eba	-0.029197086

fc_out.weight f4 [1, 64]
0	0x3eb01d42	0.34397322
1	0x3e8c425a	0.27394372
2	0xbe44c6d6	-0.19216475
3	0xbe24163a	-0.16024104
4	0x3e7a4cee	0.24443409
5	0xbe97a2f8	-0.29616523
6	0x3e7d33cd	0.24726792
7	0x3e84df7c	0.25951755
8	0xbe7590a9	-0.23980965
9	0xbe979e30	-0.29612875
10	0x3e844b33	0.25838622
11	0xbe543eba	-0.20727053
12	0xbe2bea82	-0.16788676
13	0xbea88b1d	-0.32918635
14	0xbe815d07	-0.25266287
15	0xbea2edc7	-0.31822035
16	0x3e6ed466	0.23323211
17	0x3e998ab7	0.29988644
18	0x3ea004ca	0.31253654
19	0xbe6f9e15	-0.23400147
20	0xbe7cc571	-0.24684693
21	0xbe8dfef6	-0.27733582
22	0xbe92d973	-0.28681526
23	0x3e94b871	0.29046968
24	0xbe3059d7	-0.17221771
25	0xbe90a5e3	-0.28251562
26	0x3e6c7117	0.23090015
27	0x3e74c7ab	0.23904292
28	0x3e4ad1f3	0.19806652
29	0xbec733aa	-0.38906604
30	0xbe68e0a7	-0.22741948
31	0xbe7497db	-0.23886053
32	0x3e94b818	0.29046702
33	0x3eaa4470	0.3325534
34	0x3e9749dd	0.2954854
35	0x3ea95254	0.33070624
36	0xbe97c412	-0.29641777
37	0x3ea19d08	0.31565118
38	0x3e8ab4a9	0.27090958
39	0xbe2e9150	-0.1704762
40	0xbe5cb4e0	-0.21553373
41	0x3e956556	0.29178876
42	0x3e934c72	0.2876926
43	0xbe923de1	-0.28562835
44	0xbe78c406	-0.24293527
45	0xbe980ca8	-0.29697156
46	0xbe93dc6b	-0.28879103
47	0xbe8d8708	-0.27642083
48	0xbe578f5e	-0.21050784
49	0x3e94ef48	0.29088807
50	0x3e817d1d	0.25290766
51	0xbe83f508	-0.25772882
52	0xbe83cc3c	-0.25741756
53	0x3e92ac30	0.28646994
54	0xbe9f75f1	-0.3114467
55	0xbe8f24ac	-0.27957666
56	0x3e845ab3	0.25850448
57	0x3ea45ce0	0.32102108
58	0x3ea5bc38	0.32370162
59	0xbe8c6c3b	-0.27426323
60	0x3e91158f	0.2833676
61	0x3e8d7e5c	0.27635467
62	0x3e8e0f34	0.27745974
63	0x3e9a13ce	0.30093235
