notebooks/DCRNN/Adj_Dropout_5mins/dcrnn_best.pt (torch, 120248 bytes, 6 tensors)

cell.diff.theta f4 [65, 64]
000000 a8 03 ae 3d 0a 64 16 3e 70 24 6e 3b 4c 4f 3a be
       0.08496791 0.146866 0.0036337636 -0.18194312
000010 95 a2 6a bd d2 20 68 3e e9 eb 81 3e a2 67 71 be
       -0.057283957 0.2266877 0.25375298 -0.23574689
000020 56 9a c2 bd 1b 01 8b 3d 03 06 36 3c ec 89 50 be
       -0.095020935 0.0678732 0.011109832 -0.20365113
000030 56 f2 f1 bd 62 0c 8a bd 91 bf da bc c5 3f 3d be
       -0.118138 -0.06740643 -0.026702674 -0.18481357
000040 1d 8a 1a be 4f 52 3d 3e 8f c0 82 bd e1 ca 5d be
       -0.15091749 0.1848843 -0.06384384 -0.21659423
000050 29 6d 41 be fa 7d 51 bd 9b 01 9b bd e4 bc ce 3d
       -0.18889298 -0.05114553 -0.075686656 0.10094622
000060 f2 eb 03 bd 75 c3 01 3d 1f f3 64 be 27 69 c3 bd
       -0.032207437 0.031680543 -0.22358368 -0.095415406
000070 2e 83 06 3d 1a 6a 00 be f0 31 06 3e dd f0 4b 3e
       0.032839946 -0.12540475 0.13104987 0.19916101
000080 33 bd 24 bd 1f 6c 62 be 70 20 b5 bd e0 4c 3c 3e
       -0.040219497 -0.22111557 -0.088440776 0.183887
000090 ac 0c 86 bd 6c 90 bb bc bb c2 04 3e 89 51 d3 3d
       -0.06545386 -0.022896014 0.12964909 0.10318286
0000a0 95 8f 5f bd 3b 67 71 be 5c db 0b 3d 1a b7 10 3e
       -0.05458029 -0.23574536 0.034144744 0.14132348
0000b0 37 5a 23 3c 98 32 2f 3e 13 06 8d 3d 16 dd 96 3c
       0.009970239 0.17109144 0.06885924 0.018415969
0000c0 cf 1c c6 bd 73 98 51 be a6 5d cd 3c e0 c6 59 3e
       -0.096734636 -0.20468311 0.02506907 0.21267271
0000d0 ec 42 b3 3d d3 f5 2a be 29 a2 80 be ea 98 07 3c
       0.08752999 -0.16695337 -0.25123718 0.008276204
0000e0 77 ac 65 be 61 8e c7 3d 5b fc 60 3c 67 fd 53 3e
       -0.22429071 0.097439535 0.013732041 0.20702134
0000f0 52 33 a2 3d ff 41 45 3e 4e e7 49 3e 94 da 57 3e
       0.07919945 0.19263457 0.19717142 0.21079475
000100 77 91 a8 bc 16 ed 47 bc be a6 6c bd 7d 02 14 bb
       -0.020577176 -0.012202522 -0.057776205 -0.002258449
000110 cc 8e 34 3b 24 03 79 3c 34 54 a8 3c 83 1d 9a bc
       0.0027550934 0.015198503 0.020547964 -0.0188129
000120 6b 14 c2 3c 06 7f 82 3c 1a 93 b8 bd a4 9a db bd
       0.023691377 0.01592971 -0.090124324 -0.10722855
000130 10 51 98 bb 41 a3 89 bb 3d 97 b1 bd 49 24 32 3c
       -0.0046483353 -0.0042003696 -0.086714245 0.010872909
000140 f6 77 bb 3b 65 75 16 bc 65 ba 46 3d 05 39 ce 3b
       0.0057210876 -0.0091832625 0.048517603 0.0062934184
000150 79 5b 6c bc 76 48 ae 3a 17 54 26 bc ef 05 23 3d
       -0.014426106 0.0013296742 -0.0101518845 0.03980058
000160 5e 52 4a 3d 93 a1 8d 3b 64 8b d2 bc 54 7d 8b bc
       0.049394958 0.0043222397 -0.025701232 -0.017027535
000170 92 6a 91 3c 73 a7 a3 bb 8f 0b 13 bc 92 ea 75 3c
       0.017751012 -0.0049943267 -0.008974924 0.015009539
000180 e3 25 aa bc 09 d4 35 bd 69 fa aa bb 32 04 6e 3c
       -0.020770019 -0.044391666 -0.0052178395 0.014527367
000190 72 68 3b bd 5f 6a 49 3d 6d 81 85 3d 06 65 a2 3d
       -0.045753904 0.04917371 0.06518827 0.07929425
0001a0 36 d4 54 3d ac 52 d5 bc 41 e2 f7 3c 65 83 4f bc
       0.051960193 -0.026040398 0.030259253 -0.012665604
0001b0 55 eb 47 bd da a0 66 ba 3b c0 ce 3c a8 d4 40 3b
       -0.048808414 -0.00087977725 0.025238147 0.0029423628
0001c0 16 16 09 bd ef 1a 7f bc 86 45 34 3d 2d 7c e0 3c
       -0.03346833 -0.015570386 0.044011615 0.027402962
0001d0 12 c4 c1 3c f2 8f aa bc b2 e1 18 bd 07 93 22 3d
       0.023653064 -0.020820592 -0.037324615 0.039690997
0001e0 5a 5b 9e ba 64 b0 e1 3c 16 8c e2 3b a4 29 bb 3c
       -0.0012081668 0.02754993 0.006913672 0.022847004
0001f0 80 24 27 3b e6 e2 4c 3c 5d 1a c7 3b 85 9b 71 3c
       0.0025503933 0.012505269 0.006076141 0.014746551
000200 ef e1 0b 3e 52 c0 c7 3d 87 b7 27 3d 44 3a 8f bc
       0.13660406 0.09753479 0.04094651 -0.017483838
000210 a4 ea 54 bd 2d 34 d8 3d 6d ab 91 3d 6d eb 5c 3c
       -0.051981583 0.10556827 0.07112775 0.013483864
000220 f8 c8 03 3d d2 33 c4 3d 7c 71 c9 3d 83 8d db bd
       0.03217408 0.095801964 0.098360986 -0.107203506
000230 db ae ca 3d 8b 6a 75 bc e1 77 27 bd 3d a4 32 be
       0.09896632 -0.014979015 -0.04088581 -0.17445464
000240 7d ef 3f bc f6 fe af bc dd 83 11 3d e9 80 05 be
       -0.011714813 -0.02148388 0.035526145 -0.13037457
000250 67 ce 61 3b 41 94 21 bd 19 b0 d9 3c 98 62 4e bd
       0.00344553 -0.039448027 0.026573228 -0.050386995
000260 63 d1 09 3d e6 79 32 bd 5c ae 88 bd 1c d3 8c bd
       0.033646952 -0.043573283 -0.066738814 -0.068762034
000270 32 70 96 3d fe 65 5a 3c 54 df 9d bc 41 63 75 3d
       0.07345618 0.013329981 -0.01927153 0.05990911
000280 fa 76 dd 3c 27 71 b5 bc 07 07 f4 bc 32 13 a2 3d
       0.027034272 -0.022148682 -0.029788507 0.079138175
000290 e9 85 a9 bc 44 d8 6c bc 71 ab 6b bd 56 4f 85 3d
       -0.020693736 -0.014455859 -0.057536546 0.06509273
0002a0 ff 1d 18 3c 0c ec 4f bd d8 f2 ef bc 69 8b b7 3d
       0.009284495 -0.05076222 -0.029290602 0.08962137
0002b0 5c 5a d4 bc a2 72 e6 3d 55 95 5a 3d 90 6e 56 bc
       -0.025921993 0.11252333 0.05336507 -0.013087884
0002c0 52 68 ca bd 95 2e a8 bd ee 8a 24 bd 52 24 a2 3d
       -0.09883179 -0.0821201 -0.040171556 0.07917084
0002d0 7e 05 f7 bd 5f f7 6d 3d e4 f0 7e bd c8 ec 74 bd
       -0.120615944 0.05809724 -0.06224145 -0.059796125
0002e0 88 0e 3e 3c 55 82 e6 3d cb 14 15 be d2 2c 13 3d
       0.011600144 0.112553276 -0.14558713 0.035931416
0002f0 7a 64 1d 3d cf 51 e1 3d c0 8e bb 3d fd fd a1 3d
       0.0384259 0.11001932 0.09158087 0.079097725
000300 e2 75 31 3c 39 ce 48 38 7d c5 60 bd 29 8a 39 3e
       0.010831328 4.7875776e-05 -0.05487584 0.1811911
000310 7a dc b0 bd 2e 51 ec bc 15 f5 16 be 2e a0 c4 3d
       -0.086358026 -0.028847303 -0.14741929 0.09600864
000320 74 4a 1a 3e 9c 82 e9 bd 2b 2a 4a 3c 2c 28 93 bd
       0.15067464 -0.11401865 0.012339155 -0.071853966
000330 a8 bb 0e 3e 75 02 b8 bd e5 f8 89 bd 65 41 20 3e
       0.13938773 -0.08984844 -0.06736926 0.15649946
000340 be be e6 3d 22 66 1a be cc f0 c0 bd 9b a9 8f 3c
       0.1126685 -0.15078023 -0.09420928 0.017536929
000350 29 eb 9f 3d 25 b5 7e 3d 39 01 83 bb 4c 8e da bd
       0.07808525 0.06218447 -0.0039979485 -0.10671672
000360 b2 08 b4 bd 5e 27 97 bc 32 46 c7 3d 87 dd 8f bd
       -0.08790721 -0.018451389 0.097301856 -0.07024675
000370 6c d6 96 bb f8 51 9d 3d b6 4f 43 3c 2c 63 69 bd
       -0.004603198 0.0768165 0.01192086 -0.056979343
000380 08 38 12 3d 73 74 04 3e 01 15 e5 3d 73 a6 4c bd
       0.035697967 0.12935047 0.11185647 -0.049963426
000390 54 e8 9e bd 5e 3e 9e 3d 9f 34 8b 3c 38 fb 57 3d
       -0.07759157 0.07726739 0.016992865 0.052729815
0003a0 95 86 86 3d e9 8b 11 3e 21 0c 9d 3c e4 08 e5 bd
       0.06568638 0.14213528 0.019170823 -0.111833364
0003b0 e7 e1 1e 3d 15 c7 aa 3d fd 53 d8 bb 91 98 79 bd
       0.038789656 0.08338753 -0.006601809 -0.060936514
0003c0 1e fb 79 bd 0d 62 2d 3d ac 47 69 bd cc 07 c9 bd
       -0.0610305 0.042329837 -0.056953117 -0.0981594
0003d0 99 a5 d3 3d 7c ee 61 3d b7 0f 19 3e 36 e1 ca 3d
       0.103343196 0.055159077 0.14947401 0.09906237
0003e0 25 d3 e5 3d ad ba 95 bd a7 ac 87 bd ac 0b e6 bd
       0.11221913 -0.07310996 -0.06624728 -0.11232695
0003f0 64 58 18 3d b5 33 49 bd 7b a2 3a bd 81 aa 11 be
       0.03719367 -0.049121577 -0.04556511 -0.14225198

cell.gru.weight_ih f4 [192, 64]
000000 e1 a6 38 3e 8c ad 86 bd ce 1f b4 bb f1 8c b8 3c
       0.18032409 -0.0657607 -0.0054969555 0.022528144
000010 77 1f 82 be c8 1b 49 ba de 81 8f bd 0e bf 39 3d
       -0.2541463 -0.0007671681 -0.07007192 0.04534822
000020 71 8e 98 3e 20 c5 73 3e 51 27 e3 bc ed 6e 96 bd
       0.29796174 0.23805666 -0.027728708 -0.07345376
000030 a9 55 cc 3d 55 f9 74 3e 51 c2 5f be 0d 42 28 3e
       0.09977276 0.23923238 -0.2185147 0.16431446
000040 3d ef 19 bc 42 93 d6 bd ca 6d 24 3e 01 57 88 3e
       -0.009395418 -0.10477306 0.16057506 0.2662888
000050 ce 08 37 3e de cb de 3e 7e c6 ac 3e 0a 70 9c bc
       0.17874452 0.43514913 0.33745188 -0.019096393
000060 0c 3c ea 3e 7b 4e a9 bd d7 e1 0a 3e 60 6d 80 bd
       0.45748937 -0.08266922 0.13562714 -0.062708616
000070 65 58 9f be 58 7c 9b bd 69 49 58 bd ef 8c 23 bd
       -0.31122127 -0.07592076 -0.052804384 -0.039929327
000080 60 66 92 3e c8 ad 3f 3d 26 dd 09 be 24 bd 84 bd
       0.2859373 0.04679659 -0.13463268 -0.06481388
000090 c2 38 14 3e 80 b2 ef bd e6 82 83 3d 18 f5 59 3e
       0.14474776 -0.11703968 0.06421451 0.21284902
0000a0 3a 1a f2 3c 47 f4 07 3e 37 6c 9a 3e 4a 86 ab 3d
       0.029553521 0.13276778 0.30160686 0.08375223
0000b0 53 ab 10 bd 50 97 ea 3d 07 46 80 3e 48 43 1c 3e
       -0.035319638 0.11454642 0.25053427 0.15260041
0000c0 51 b0 b3 bd 72 c6 bf 3a 13 6c d1 bb 47 db e1 3d
       -0.08773864 0.0014631285 -0.0063910573 0.11028152
0000d0 50 c8 a6 39 0b ab 46 3d 20 4e 90 bd 5a 96 84 be
       0.00031811232 0.048502963 -0.07046151 -0.2589596
0000e0 dc b0 68 3d a6 86 67 be 77 6e b1 3e b2 60 c1 bd
       0.05680929 -0.22609958 0.3465459 -0.09442271
0000f0 b9 cf 88 3e a1 72 a0 3c a3 05 57 be 7e 25 b6 bc
       0.2672098 0.01958591 -0.20998244 -0.022234675
000100 2d 0f 03 be 57 fc 23 3d c4 ca 1f bc 55 db 83 bd
       -0.12798758 0.040035572 -0.009752933 -0.06438319
000110 a8 65 25 3e a5 df e7 bd 9e c5 cf 3d ba 50 bf bc
       0.1615206 -0.11321954 0.10145114 -0.023353923
000120 c3 0b 3f bc 3b d2 46 bd 24 ae 82 bd 01 a2 4e 3d
       -0.011660519 -0.048540335 -0.06380871 0.050447468
000130 78 31 e8 3d ae 3d 90 3d da 28 b2 3d 12 42 9b bd
       0.113375604 0.070430145 0.08699198 -0.07580961
000140 00 23 24 bd 73 68 c8 bc fb 98 b3 bd 96 c1 dd bd
       -0.04007244 -0.024463868 -0.08769413 -0.10827939
000150 41 cc b3 bd a9 d1 11 3d 1f 71 61 bd c1 f5 2a b8
       -0.08779193 0.035600338 -0.05503952 -4.0760035e-05
000160 f3 6a 1e be cf b7 25 bd 1b 01 7a bd 45 85 d6 bc
       -0.15470485 -0.040458497 -0.06103621 -0.026186595
000170 c9 cc 85 3d 86 cd 27 bd 3b b8 e5 bd 66 52 11 3e
       0.065332 -0.040967487 -0.1121678 0.14191589
000180 6a 33 22 be 14 85 ca 3d e5 9f 64 bb b7 f0 1b 3e
       -0.15839925 0.09888664 -0.0034885344 0.15228544
000190 db 73 28 bd 25 7f 97 bd 0e 54 05 3b 84 78 5d 3d
       -0.041126113 -0.07397298 0.002034429 0.05407001
0001a0 61 8b 46 3c 04 ec 69 3b d8 33 d7 bd df 01 9e 3c
       0.012118191 0.0035693655 -0.10507935 0.019288002
0001b0 2c cd fa 3c ce 5b 08 bd 08 e7 52 3d 76 92 21 bd
       0.030615412 -0.033290677 0.05148986 -0.039446317
0001c0 ae 02 13 3c 8c ac 11 bd bf 58 08 3d 82 08 f1 3c
       0.008972807 -0.035564944 0.03328776 0.029423002
0001d0 6e 5d 3b 3c 50 03 60 bd ba 58 c4 bd 2b f9 37 3d
       0.01143585 -0.05469066 -0.09587236 0.04491536
0001e0 33 ee d9 3d 1d ca 0a 3e e0 d2 56 be 1c eb c2 3d
       0.10641136 0.13553663 -0.2097888 0.095175
0001f0 17 aa 27 bd 24 fa ff 3d 7c 34 38 bd ca 90 2c bc
       -0.040933695 0.124988824 -0.044971928 -0.010532567
000200 1c 36 cf bc a1 a3 fc 3d dd 4f ed 3d 82 ea 68 be
       -0.025294356 0.12335897 0.11587498 -0.22745708
000210 7c 68 a3 bd 73 8d 9f bc ea fd de 3b 24 2d 8d 3d
       -0.07978913 -0.019476628 0.0068051713 0.068933755
000220 f6 a9 8f bc 7c 56 58 bc b1 8f 0c be 69 4b ad bd
       -0.017537098 -0.013204213 -0.13726689 -0.08461649
000230 98 9f 08 bd 60 67 40 3d 04 ce 83 3d 29 f1 01 be
       -0.033355325 0.046973586 0.06435779 -0.12689652
000240 26 f7 46 3c 27 04 30 3d ab 1d d4 3d 89 1a 59 3d
       0.012143886 0.04297271 0.10357221 0.05300382
000250 72 50 08 be b5 c0 5d 3e 0b ce 0f 3b a4 05 c5 bd
       -0.13311937 0.21655543 0.002194288 -0.096202165
000260 51 2b 5e bd a2 f1 7b bb 35 6e 0f bd c5 c5 05 3e
       -0.05424053 -0.0038443585 -0.03501721 0.13063724
000270 85 bf f7 bc c7 7b bc 3d 80 ca 0c bd 5f 33 6b 3d
       -0.03024269 0.09203296 -0.034372807 0.05742204
000280 b1 4c 1a bd 50 30 54 3d ea 70 c1 bd ec 99 0b bd
       -0.037670795 0.051803887 -0.09445365 -0.03408234
000290 fc 15 e0 3d 02 50 ea 3c be 15 b6 bd 02 57 03 3e
       0.10941693 0.028602604 -0.08890866 0.1282616
0002a0 66 68 0e bd 5b 07 19 bd 2c 14 ef 3c df 9c 5c bd
       -0.03476753 -0.03736053 0.029184423 -0.05386054
0002b0 9e e6 61 bc de 9e 1c 3c 3f 88 3e 3e 9e ba e6 bc
       -0.013787894 0.009559361 0.18606661 -0.028165158
0002c0 2d fd 51 3c 3f cd 36 3d a4 fb 22 be 56 ca 1a 3d
       0.0128167095 0.04462933 -0.15916306 0.03779062
0002d0 d3 97 c8 bd a2 28 30 3d 48 10 20 be 90 7c 4c be
       -0.09794583 0.0430075 -0.15631211 -0.19969392
0002e0 d9 64 d1 3c 1b 4c 84 3d a0 22 f4 bd 97 d0 0d ba
       0.025560783 0.064598285 -0.11920667 -0.00054098055
0002f0 8c 07 ad bc 6b 45 22 bd ee 70 c5 bd e4 20 76 3d
       -0.021121763 -0.039616983 -0.0964068 0.06008996
000300 a5 ae 42 be f1 eb 2d be ce 44 18 3f 79 dd b3 3e
       -0.19011934 -0.16984536 0.5947999 0.35129908
000310 8f 3d c4 bd f2 24 04 bd 91 7d 31 be db a6 6a bd
       -0.09582054 -0.032261796 -0.17333056 -0.057288032
000320 8f e8 0e 3f 9d 7e bd 3e 77 da 41 be e3 c9 90 3e
       0.55823606 0.3701066 -0.18930994 0.28279027
000330 c0 1f 9c 3e e1 15 40 3e 16 19 db be b3 f1 d4 bd
       0.30492973 0.18758346 -0.42792577 -0.10397663
000340 01 98 08 3f 43 93 45 3d 20 73 c1 3e 48 90 23 be
       0.5335694 0.048236143 0.37783146 -0.15973008
000350 29 53 3a 3d 46 f3 f4 bc a1 7a 9c 3e 9e 02 cc bd
       0.045489464 -0.029901158 0.30562308 -0.09961437
000360 03 c4 90 3e 0b 71 8e 3e 52 5e 4a be c4 30 f8 be
       0.28274545 0.2782062 -0.19762543 -0.48474705
000370 2c c1 09 bf 63 1a 1b 3e 7d 48 99 be 57 1f 18 be
       -0.5381038 0.15146784 -0.29938117 -0.14855705
000380 6f 70 33 3f c4 41 25 3f 61 12 47 be 60 4d 7e 3e
       0.70093435 0.64553475 -0.19440605 0.24834204
000390 7d a6 7d 3d 62 bd db 3b b4 35 44 be c2 4a b7 3d
       0.061926354 0.006705926 -0.19161111 0.08949806
0003a0 90 f2 be 3e 5e db 2b 3e 0b a5 46 bd a8 9c 4e bd
       0.37294436 0.167829 -0.04849724 -0.050442368
0003b0 93 f8 fb 3e 4d 71 e8 bd 41 4d a7 3c 2a 93 7a 3e
       0.49213085 -0.113497354 0.02042258 0.24470201
0003c0 c7 c2 90 3c 03 b3 52 3e 58 87 fc be 62 ed 31 3e
       0.017671002 0.205761 -0.4932201 0.1737571
0003d0 fe 73 40 bc e2 1d 1d 3e 8f 76 54 3e c8 3d 16 be
       -0.011746405 0.1534343 0.20748352 -0.14672005
0003e0 11 16 cf 3d fa 84 32 3e f1 68 ef 3e 01 2b 3c be
       0.10111631 0.17433539 0.4675975 -0.1837578
0003f0 c2 6b 74 bd 31 1c 54 bd 94 42 67 3e 18 5a 57 3d
       -0.05967308 -0.051784698 0.22583991 0.052576154

cell.gru.weight_hh f4 [192, 64]
000000 52 43 f2 be ca 23 48 bf 71 46 06 3d 03 84 47 bd
       -0.47316986 -0.7817961 0.032782022 -0.04870988
000010 5c ec a2 be 4b 37 9d 3d b9 14 16 bf 70 97 9c 3e
       -0.31820953 0.07676562 -0.5862537 0.30584288
000020 a5 8f 53 bf 08 46 e6 3e f3 0b 8b 3e 69 19 3f 3d
       -0.8264106 0.44975305 0.27157554 0.046655092
000030 b9 e2 76 be c5 56 b7 3e 20 1b ea be 7e 9f 43 3f
       -0.24109925 0.35808387 -0.4572382 0.7641524
000040 2d 71 4f 3c 46 d4 1c 3d 65 15 2f be 8c 55 0c be
       0.012661261 0.038288377 -0.17098005 -0.13704509
000050 16 4a 18 be 1d 2d 88 3e 2e fa 57 be c8 f2 77 bf
       -0.14872012 0.2659692 -0.2109153 -0.9685483
000060 cb 3e 34 be 8d a0 28 3e a7 30 a5 3e ad 33 45 bf
       -0.17602079 0.16467495 0.3226368 -0.77031976
000070 61 a1 f2 3e 82 36 81 3f 05 f7 86 3d d9 f4 47 bc
       0.47388747 1.009476 0.06590084 -0.012204372
000080 64 c4 c8 be a7 e3 84 3f 28 b2 5d bf 00 ea ec 3d
       -0.39212334 1.0381974 -0.8659997 0.115680695
000090 b3 5d 66 3e 31 32 c0 bd 78 9c db bd fe 67 d5 be
       0.22496681 -0.09384573 -0.107232034 -0.41680902
0000a0 0a ac 39 be ba 28 23 be 66 49 55 bd 07 f6 e1 bd
       -0.18132034 -0.15933505 -0.05207195 -0.11033254
0000b0 f4 38 41 bf b4 e0 5e be 7d e2 d2 be 5b fe df bd
       -0.7547753 -0.21765405 -0.41188422 -0.10937186
0000c0 59 08 e4 bd 06 28 a4 bf 07 bd f0 be 06 78 12 bf
       -0.11134405 -1.2824714 -0.47019216 -0.5721439
0000d0 f5 6c 6c 3e 2c 28 af 3e d5 fd 6f 3e 82 8e 98 3e
       0.23088439 0.34210336 0.23436673 0.29796225
0000e0 ec e1 3d be cc aa 15 bf ce 8d b5 be a9 a5 89 be
       -0.18543214 -0.5846374 -0.3545975 -0.268842
0000f0 56 08 d1 3e af 44 b0 3e 37 af 56 3d 9a 8f c9 3d
       0.40826672 0.344274 0.05241319 0.09841843
000100 69 ac aa bd e6 de eb be 89 ac b8 3d 7b aa 4d be
       -0.08333666 -0.46068496 0.090172835 -0.20084564
000110 15 e2 9c 3d 66 1e 7d 3e de 05 4e 3d 86 71 af 3d
       0.07660309 0.24718627 0.050298564 0.08566575
000120 1f 92 f5 bd f9 20 fd 3d 06 1c b7 3d 15 bc de 3c
       -0.11990761 0.12359805 0.08940892 0.027189294
000130 dd ca 8c be d0 88 ca 3d 5d 22 2f be 4e 28 7b bc
       -0.27498522 0.09889376 -0.17102952 -0.015329434
000140 2e e3 a1 3e f5 fd 11 3e 4e ab 34 3e e9 e9 c5 bd
       0.31618637 0.14257033 0.17643473 -0.096637554
000150 7e ec 1f be 08 9c bd be 4f d0 10 be 2a af e0 3e
       -0.15617558 -0.37033105 -0.14141963 0.4388364
000160 39 02 4f be a3 be c7 b9 15 8a 8d be 87 06 c3 be
       -0.20215692 -0.00038098273 -0.2764441 -0.38090917
000170 de 7d 95 bd a0 1b 24 3e 80 28 12 be 91 e7 11 3e
       -0.07299398 0.16026163 -0.14273262 0.14248492
000180 77 c1 15 3b d7 97 8f 3c 31 40 b7 3e af e1 14 3e
       0.002285091 0.017528458 0.35791162 0.14539216
000190 45 89 9a 3e 84 a1 a2 bc ac 5e 35 be d8 9c 91 be
       0.30182853 -0.019852407 -0.17711896 -0.28439975
0001a0 08 78 e5 bd 48 1b 4d 3e 2f ca b2 3c 1a a6 a4 3e
       -0.11204535 0.20029938 0.021824924 0.32157975
0001b0 a3 eb 3e be cd 43 e0 3d eb 25 66 bd bb 9f 81 3c
       -0.18644576 0.10950432 -0.056188505 0.015823236
0001c0 9a 70 12 3c f9 f4 96 3e ee 52 03 3e fb 69 78 be
       0.008937979 0.29483774 0.12824604 -0.24259178
0001d0 36 a8 83 be 54 52 a2 bb 59 72 1e 3d 03 57 bd 3e
       -0.25714272 -0.004953662 0.03868327 0.36980447
0001e0 84 f4 cd 3c 2f 42 4f be 0d 8c a7 bc bb 27 af bd
       0.025141008 -0.20240091 -0.020452524 -0.085525
0001f0 bf b4 94 3c 34 33 38 3e a3 f5 76 be 75 b5 cf 3d
       0.018152593 0.17988282 -0.2411714 0.10142032
000200 17 32 3c be 74 e2 fe be 1e 22 3e 3f 43 71 ea 3d
       -0.18378483 -0.49782145 0.7427081 0.11447384
000210 1d 73 9b 3e 58 75 83 3e 24 c8 21 bd 7f 6f 68 bd
       0.30361262 0.25675464 -0.03949751 -0.056746956
000220 45 83 4d bd 1a 9e 83 be 22 50 2c 3e 85 be 11 3e
       -0.050174017 -0.2570656 0.16827443 0.14232834
000230 43 ac 3b 3e 1d f2 7e 3e a2 e4 da 3c 03 cf aa 3e
       0.18327431 0.24897046 0.026720349 0.33361062
000240 e4 28 57 be a0 db d8 3d a7 24 91 be b9 4b f8 3e
       -0.21011692 0.10588765 -0.28348276 0.48495272
000250 15 ef 67 3e 28 ff 0f 3f 19 d1 75 be 30 2d 20 3e
       0.22649796 0.5624871 -0.24005546 0.15642238
000260 88 21 82 3e a9 81 f0 3e 6e c2 ac 3d ef 24 2e 3f
       0.25416207 0.46973923 0.08435522 0.68025106
000270 cf 23 51 be 46 3a bf 3d 33 05 cd 3d f2 0c b4 3e
       -0.20423816 0.09337287 0.10010757 0.35166126
000280 05 c0 6f 3e 11 a3 ff 3d 90 5f 8e be 70 8f 06 be
       0.23413093 0.12482274 -0.27807283 -0.13140655
000290 13 16 04 be a5 d7 48 3e 73 d3 5c bd ec 17 85 3e
       -0.12899046 0.19613512 -0.05391259 0.25994813
0002a0 1a 87 94 3d 11 e1 8a 3e 42 07 86 bd 08 dd 22 be
       0.07252331 0.27124837 -0.06544353 -0.15904629
0002b0 66 62 6c 3e ce 80 1f 3c 8f 3e eb 3d 35 b4 06 be
       0.23084411 0.009735299 0.114865415 -0.13154681
0002c0 6e 22 b2 3d 64 8e f9 bd 56 19 5b bc 10 59 82 3e
       0.08697973 -0.12185362 -0.01337274 0.25458574
0002d0 ad cb 89 3e eb 51 85 3e 80 89 9d 3c 92 85 91 be
       0.26913205 0.2603906 0.019230604 -0.2842222
0002e0 f2 61 09 3e 0b fe 01 bc fe c6 dc be 45 4e 92 3d
       0.1341627 -0.007934104 -0.4312057 0.07143835
0002f0 d6 6c dd 3d 0b ca e1 3c e0 8d 72 be 91 d1 98 be
       0.108117744 0.027562162 -0.23686934 -0.29847386
000300 2d b9 52 bd 2e d4 46 bf dd 72 9f be 2a b5 73 bc
       -0.05144613 -0.7766751 -0.3114232 -0.014874736
000310 85 d3 31 3d 00 5a d9 3e a9 af 1f bf 6f 86 a4 be
       0.04341461 0.42451477 -0.6237741 -0.32133815
000320 97 cb 1a be 41 6a 47 3f 99 cb 24 3f b9 3f 13 3f
       -0.15116726 0.77896506 0.64373165 0.5751911
000330 57 15 b3 3e 03 c5 27 3e 6a b9 43 be 95 0a 2b 3f
       0.34977219 0.16383748 -0.19113699 0.6681302
000340 36 a2 b4 3d 2e 5a a7 3d d5 35 be be 3f eb c6 be
       0.08820002 0.08171497 -0.37150446 -0.38851354
000350 4a 96 8e be ed 78 b5 3e d4 f0 16 3c a2 de e1 bf
       -0.27849036 0.35443822 0.009212691 -1.7646067
000360 ed ec 3e 3d ba 4a b8 3e c9 bf 1f be 63 65 52 bf
       0.04661267 0.35994512 -0.15600504 -0.82185954
000370 08 2c 32 bd e0 c7 0a 3f 30 0a ef bd 0b 52 6c bf
       -0.043499023 0.54211235 -0.11671865 -0.9231269
000380 09 07 c5 3e 66 4c 2a 3f db 32 45 bf ac b3 db 3c
       0.3848193 0.66522825 -0.77030724 0.026819073
000390 d6 2a 17 3e aa d3 48 be 34 ad 5d be db d5 08 bc
       0.14762434 -0.19611993 -0.21648103 -0.008351768
0003a0 e1 fc 9c bd 51 50 a9 be 51 f2 ab be 42 ad 49 bf
       -0.0766542 -0.3306909 -0.3358331 -0.78779995
0003b0 23 ff 82 bf 20 16 7a 3d ac a3 ec be 7e e6 e9 be
       -1.0234112 0.061056256 -0.46218622 -0.45683664
0003c0 07 cd 49 bc 9c ba 3f bf 1b 25 36 3d b5 21 67 bd
       -0.012316949 -0.7489412 0.04446898 -0.05642863
0003d0 d7 5e 83 3e 26 86 51 3f a6 f1 f2 3e 2a c0 5c 3e
       0.25658295 0.8184532 0.47449988 0.2155768
0003e0 b8 43 e4 3e c2 ae 02 be 5b 9b a1 3e 00 fb 45 bf
       0.44582915 -0.12761977 0.3156384 -0.7733612
0003f0 58 84 e1 3e 62 14 db 3e 40 2e 9d 3e 22 a0 89 3e
       0.44046283 0.42788988 0.30699348 0.26879984

cell.gru.bias_ih f4 [192]
000000 41 05 05 be 6d 02 4d 3e ee 15 88 be 8d fa 82 bd
       -0.12990285 0.20020457 -0.2657923 -0.06395445
000010 da 1c 4c 3d e6 73 0e 3e 45 c0 35 be 4f 6f c2 be
       0.049832202 0.13911399 -0.17749126 -0.37975547
000020 c9 a9 32 3f 9c 05 29 3e 26 2d 13 3e db 01 ce 3a
       0.6979032 0.16506046 0.14372692 0.0015717106
000030 64 27 b3 3c 26 03 e3 3d f1 92 4c 3c b3 c8 ac bd
       0.021869369 0.11084585 0.012486205 -0.08436718
000040 a0 42 99 bc 6e 7e 4b be 02 2d 16 be c4 22 4d bf
       -0.018708527 -0.19872448 -0.14665607 -0.80131173
000050 93 86 99 be fd a0 c7 3d e2 26 12 3e 74 8d a6 be
       -0.29985484 0.09747503 0.14272645 -0.32529795
000060 4a 71 7e 3e 1d d2 94 3d 0e 07 04 bf 91 a1 56 bf
       0.24847904 0.072666384 -0.51573265 -0.8384028
000070 87 98 cb be 34 b0 79 be 71 23 e6 3d 67 46 d0 3d
       -0.39764807 -0.24383622 0.11237229 0.10169678
000080 ac 22 42 bd 57 c5 01 3e 2f ab 2b bd 3e 1e bf 3c
       -0.047396347 0.12672935 -0.0419113 0.02332985
000090 21 ca 7b bd de fd 44 3e 50 21 1a be c8 cb a5 be
       -0.061472062 0.19237468 -0.1505177 -0.32382035
0000a0 b7 1e 3d be 7a 32 f9 be 4b b6 90 bc 13 86 aa 3e
       -0.18468748 -0.48671323 -0.017665049 0.33305416
0000b0 76 16 90 3d db 99 34 bd 73 81 9e be 33 b5 c7 be
       0.07035534 -0.04409204 -0.30958137 -0.39005432
0000c0 e3 f5 98 bd b6 f9 10 3e eb 61 a8 be 93 51 5b bd
       -0.07468774 0.14157757 -0.32887205 -0.053544592
0000d0 a8 66 b2 3d 3d 29 35 bb 53 c6 ee bd d6 83 35 be
       0.087109864 -0.0027642988 -0.11658921 -0.17726073
0000e0 cc 8a 90 be 12 cb ad be 81 85 3e bf 91 67 87 3e
       -0.28230894 -0.33943993 -0.7442246 0.26446202
0000f0 08 85 c9 3c 6e d5 f5 bd a7 2d 0e 3d 7b 41 75 be
       0.024599567 -0.12003599 0.034711506 -0.2395076
000100 07 9e fa bd ea 09 2e 3a 12 16 ae 3e cc 80 8d be
       -0.122371726 0.00066390506 0.34001213 -0.27637327
000110 49 91 3c 3e 55 b5 b4 3d 7d 73 a4 bd ef 3b 84 3d
       0.18414797 0.08823649 -0.0802984 0.06456744
000120 20 8c bb 3e 2c df f4 3d 39 24 96 3e c9 91 45 3e
       0.36630344 0.11956629 0.2932451 0.19293894
000130 34 97 94 bd 98 51 c5 3d 18 94 0c be 99 37 c1 bd
       -0.07255402 0.096347034 -0.13728368 -0.094344325
000140 ad 4c 2d 3c 3b 0b 93 3d de 38 52 3e 58 76 99 be
       0.010577363 0.071798764 0.20529506 -0.29973102
000150 90 f7 c8 3e 93 25 b7 be 03 b0 8a bd 40 d2 00 be
       0.39251375 -0.35770854 -0.06771853 -0.12580204
000160 fb 5a 0e 3f d3 b3 a1 3d f9 64 89 3e ff 7a 7c be
       0.55607575 0.07895627 0.2683485 -0.24656294
000170 8a af 0e 3d 0d 28 9e 3e 0b 6f f4 3d de 4f 90 bb
       0.034835376 0.3088993 0.11935242 -0.004404052
000180 31 23 32 3e 93 78 bc 3e bf 0c 4d be 8c ce 09 3d
       0.17396237 0.3681074 -0.20024393 0.033644244
000190 d3 74 c0 3d b8 73 22 be ec 57 57 3e 5d f4 b6 bd
       0.093972825 -0.15864456 0.21029633 -0.08933327
0001a0 d6 a4 c0 3e 21 c9 56 3e e0 a7 81 3e 6c 61 c6 3d
       0.3762576 0.20975162 0.2532339 0.096865505
0001b0 7f 6c 9b 3e 37 8b 8d 3d 35 73 c1 3d 7e be e6 bd
       0.30356213 0.06911319 0.09445802 -0.11266802
0001c0 b1 e3 03 3e 78 6c c0 be 69 9c 32 bd c8 67 cc 3d
       0.12879826 -0.37582755 -0.043606196 0.09980732
0001d0 54 73 eb 3e e9 36 23 3e 6f 45 92 be 55 2e cd bd
       0.45986426 0.15938915 -0.285686 -0.10018603
0001e0 43 92 fe 3d 3a 80 64 3d 5f 89 0d 3e 9b d1 03 be
       0.12430241 0.05578635 0.13821934 -0.12872927
0001f0 f3 dd a9 be 43 b8 92 3e 7f 95 98 bd 02 5c a8 bd
       -0.33177146 0.28656206 -0.07450389 -0.08220674
000200 7e 4f 36 bd 7a d2 d5 bd 14 28 86 3d 20 eb 72 bd
       -0.044509403 -0.10440536 0.06550613 -0.059306264
000210 21 28 50 bd 00 9c 1a be e4 26 1d bd dd e9 d4 3d
       -0.05081952 -0.15098572 -0.038367167 0.103961684
000220 05 01 f1 bd a6 dc 04 be 16 47 a6 3d c4 ea bd bd
       -0.117677726 -0.12974796 0.08119027 -0.092732936
000230 14 c7 d0 3d 04 01 a4 bd 89 35 52 3e 09 c0 a8 3d
       0.10194221 -0.08008006 0.20528235 0.08239753
000240 f9 90 56 be f7 76 7a be 10 61 00 3e 6e da 24 bc
       -0.2095374 -0.24459444 0.12537026 -0.010061843
000250 70 2c 26 3e 30 c5 87 bd 7f ac 8a 3c 17 7d b8 bc
       0.16227889 -0.066294074 0.016927956 -0.022520585
000260 f3 d5 be 3d ac 42 29 be 70 99 d8 bc 41 38 86 bd
       0.09318151 -0.1652934 -0.026440352 -0.06553698
000270 5d 29 15 bd e6 14 3c be b9 c8 88 3d e6 34 98 3d
       -0.0364164 -0.18367347 0.0667891 0.074319646
000280 5e 61 83 be 59 97 e2 bc 44 92 1c 3d 2d 78 19 be
       -0.25660223 -0.027660059 0.038225427 -0.1498725
000290 fa 90 b1 3d d6 20 49 be b1 5e f4 3c 96 9a ae bd
       0.0867023 -0.19641432 0.029830309 -0.08525579
0002a0 49 f3 44 3e a0 e0 62 3d a2 4d 41 bd dc a3 ac 3c
       0.19233431 0.05539 -0.047193177 0.021074228
0002b0 74 81 23 3e 77 67 7c 3d 76 ec 72 3e 87 c2 2c be
       0.15967351 0.06162211 0.23723015 -0.16871081
0002c0 66 76 e8 bd 87 b0 53 3e c7 1e f0 3b c8 9e 1b be
       -0.11350708 0.20672809 0.0073278877 -0.15197289
0002d0 dc 2f 31 3d 67 ef 20 be fb 23 3b 3d 9e 90 89 3d
       0.043258533 -0.15716325 0.04568861 0.06717037
0002e0 a1 8f fb bd 1c e3 4f bd 2b 65 37 3d 0e cd d8 3d
       -0.122832544 -0.050753698 0.044774216 0.10585986
0002f0 29 8f a7 3b d2 ce 9f bc 1d 29 1e 3e 62 54 08 3e
       0.0051135016 -0.0195078 0.15445371 0.1331344

cell.gru.bias_hh f4 [192]
000000 ff a5 f8 bd 0a 33 c8 3c e1 86 3f be 06 cd ed 3b
       -0.12141036 0.0244384 -0.18703796 0.0072571067
000010 39 49 2d 3d 83 66 93 3e a5 5b d6 bd d1 30 92 be
       0.04230616 0.28789148 -0.104666986 -0.2855287
000020 7e 98 17 3f 23 a9 18 3e 9a b5 35 3e f5 68 04 3e
       0.5921706 0.1490827 0.17745057 0.12930663
000030 a7 fa 84 bd b6 90 2e bd 62 44 47 3d 7b b9 4a be
       -0.06493121 -0.042618476 0.0486492 -0.19797318
000040 d7 2a 64 be e9 63 54 be 0a 7b 69 bd 4c 8c 62 bf
       -0.22281967 -0.20741238 -0.057002105 -0.88495326
000050 2f de 6e be 7d ac ca bd 64 d4 db 3c 91 8d d8 be
       -0.23326944 -0.09896181 0.026834674 -0.42295507
000060 7a 59 88 3e 3f 13 89 bd 89 df 04 bf 6d ba 73 bf
       0.26630765 -0.06693124 -0.5190359 -0.9520634
000070 d1 ed 9e be a2 00 c4 be 52 b0 c1 bd 16 2d 6d 3e
       -0.31040815 -0.38281733 -0.094574586 0.2316173
000080 56 fc 2a 3e bb b4 cb 3c e3 03 07 3d b3 66 24 3d
       0.16697821 0.024866452 0.03296269 0.040137004
000090 90 45 44 be 72 5e ae 3d f3 12 3f bd 54 2f 4d be
       -0.19167161 0.08514108 -0.04664893 -0.20037585
0000a0 4b 44 01 3c 75 f0 14 bf 59 72 0c 3e 6b 38 c8 3e
       0.0078898175 -0.5817941 0.13715495 0.39105543
0000b0 f8 f5 9b 3d 80 a5 30 be c8 1a 98 be 91 21 e5 be
       0.07615274 -0.17250633 -0.29707932 -0.44752172
0000c0 93 42 74 bd 1b a9 32 3b 1a e2 ad be 8c 1b a1 bd
       -0.059633803 0.002726144 -0.33961564 -0.07866582
0000d0 2e 39 04 bc 67 9d 04 be a5 9f 8f be 74 cc 51 be
       -0.008070273 -0.12950669 -0.28051487 -0.20488149
0000e0 d5 c3 1e be 14 58 ac be db 64 58 bf 94 50 9b 3e
       -0.15504391 -0.33660948 -0.84528893 0.30334914
0000f0 97 c1 0f 3e 46 bf a4 bd 2c e6 e2 3d f6 10 d6 be
       0.14038692 -0.08044295 0.11079058 -0.41809815
000100 c6 7c 97 be 93 53 04 be 4d 6c 96 3e 3d 0e c2 bd
       -0.29587382 -0.12922506 0.29379502 -0.09475372
000110 e1 fe da 3c 19 4a 62 3d 3c e7 59 bd 82 90 fd 3d
       0.026732864 0.055246446 -0.053199038 0.12381078
000120 b6 e4 8f 3e eb 99 bf 3d 50 aa a0 3e db 5e 4f 3e
       0.2810418 0.093555294 0.31379938 0.20251028
000130 98 e3 0b 3d 2e 8c 2b 3e e1 90 14 be 03 81 77 be
       0.034152597 0.16752693 -0.14508392 -0.24170308
000140 17 12 07 3e cb a6 e3 bc ad db cb 3e 98 a2 af be
       0.13190494 -0.027789494 0.39816037 -0.34303737
000150 a7 4c b7 3e 3c 10 77 be 47 4b 91 bb 5b b1 74 be
       0.3580067 -0.24127287 -0.0044340226 -0.2389578
000160 bc 39 fa 3e 98 b8 d9 3c 32 4c 63 3e 7d 00 1c be
       0.48872173 0.026577279 0.22197035 -0.15234561
000170 1b 6a 54 3e c1 c3 03 3e 2e 47 87 3e 63 d4 45 be
       0.20743601 0.12867643 0.26421493 -0.193193
000180 2d 68 38 bc cb ea a1 3e df 0f 9f be 7a c4 03 3e
       -0.011255306 0.31624445 -0.31066796 0.12867919
000190 e3 c2 10 3e 8f 1f 1e be 97 c1 9d 3e 23 42 8c bc
       0.14136843 -0.15441726 0.3081176 -0.01712138
0001a0 43 07 bf 3e 95 b4 45 bb 3c 7b df 3e 8a 00 79 3d
       0.37310228 -0.003016745 0.43648708 0.06079153
0001b0 bc a5 8d 3e 52 af ab 3d f7 71 27 3e f4 8a 9d bd
       0.27665508 0.08383049 0.16352068 -0.07692519
0001c0 9b 3c 09 3e b4 ee ac be 44 76 b9 3d d6 9b 2c 3d
       0.13402025 -0.33775866 0.090557605 0.042140804
0001d0 6c e5 d6 3e 98 f1 c9 3d fa 2d a8 bd 35 90 28 be
       0.4197191 0.098605335 -0.08211894 -0.1646126
0001e0 31 9f 66 3e f4 78 6b bd bc 54 f1 3d e6 b9 87 be
       0.22521664 -0.057488397 0.1178374 -0.26509017
0001f0 4d d3 8a be 24 04 5e 3e ec 66 45 bd 92 b5 3a be
       -0.27114335 0.21681267 -0.048193857 -0.18233326
000200 83 c0 77 3e ce 51 8b 3e 35 3e d6 bd 9b 2a 7c 3d
       0.24194531 0.2721085 -0.10461084 0.06156407
000210 fc c6 81 bd fc 9d 62 3e e0 92 6e be b6 dc b9 be
       -0.063367814 0.22130579 -0.23298216 -0.36301202
000220 5a 74 bd 3d 58 be 53 3c 26 42 24 bd d5 8a 88 be
       0.09250708 0.012923799 -0.040102147 -0.2666842
000230 da 5d 2d 3e 26 31 1d be fe 6b 9a 3e c3 7e ba be
       0.16930333 -0.1535078 0.30160517 -0.36424837
000240 3a 7e 2c 3f 8c 85 19 3e 8c 5e d4 3d d7 06 6f 3e
       0.67380106 0.1499235 0.10369596 0.23342453
000250 24 18 d7 be ab 24 ad 3d b2 2a 7f 3d 9d 72 c6 bd
       -0.42010605 0.084542595 0.062296577 -0.096898295
000260 7f 92 82 bc 09 04 20 3e ce f3 ed 3d 9a 46 e1 3e
       -0.015938995 0.1562654 0.11618768 0.43999177
000270 4c bf 0b 3f 70 3d d6 3e 49 7a 43 3e bc 37 ab bd
       0.5458877 0.41843748 0.19089617 -0.0836024
000280 df 00 d0 3e e5 c7 57 bd c7 05 8b bd 98 7d 0b bd
       0.40625665 -0.05268087 -0.06788211 -0.034055322
000290 fa ad 9e 3e 45 4a 87 be 08 d6 67 3c eb e4 9f 3e
       0.3099211 -0.2642385 0.01415015 0.31229338
0002a0 19 03 b4 bd bc 13 03 bf 4f 8f 03 bd 06 97 65 3e
       -0.08789653 -0.5120199 -0.03211909 0.22420892
0002b0 c6 b7 e7 bd e8 c7 0a bd 26 5e cd be 45 cc 7e 3e
       -0.11314349 -0.03388205 -0.40110892 0.2488261
0002c0 7a 26 a9 3e 71 84 64 3e cf b8 87 3e 7e 7f fd bd
       0.33037168 0.22316147 0.26508185 -0.12377833
0002d0 47 f8 ed 3c 0a 66 af 3e bc 4b d2 bd 61 fc ac 3d
       0.029049052 0.34257537 -0.102683514 0.08446575
0002e0 64 25 bf 3e 9c 46 00 be 27 75 96 bd 6c 87 5e 3e
       0.37333214 -0.12526935 -0.07346564 0.21731347
0002f0 19 f3 97 be a3 89 fe 3e ed 87 d5 be 55 2b 04 3d
       -0.29677656 0.49714383 -0.41705266 0.032267887

fc_out.weight f4 [1, 64]
000000 47 ea fa bd 76 e4 b1 bd 69 5e 9c 3e 1e b0 2a be
       -0.12251716 -0.086861536 0.3054078 -0.16668746
000010 09 57 68 3e a2 75 29 3e 1e a0 06 be 2e fa 9e be
       0.22689451 0.1654878 -0.13147017 -0.31050247
000020 af 96 72 3e f9 40 b6 bb 4b a9 59 be c0 ff 6a 3d
       0.23690294 -0.0055619446 -0.21255986 0.05737281
000030 56 36 73 be 6a 2c 4b 3e c7 1b 37 3e 95 5b e8 bc
       -0.23751196 0.19841161 0.1788169 -0.028363982
000040 b3 c2 84 3e 21 d7 ed 3b 78 4e 54 3e f8 29 8a be
       0.25929794 0.0072583114 0.20733058 -0.26985145
000050 6b 6d dd be 18 32 20 3e 7e 91 cf bd e4 7a 18 be
       -0.43247542 0.15644109 -0.10135172 -0.14890629
000060 e7 a8 32 bf 42 cd 24 3e 1b 72 ad be 34 1a 11 bf
       -0.69788975 0.16093925 -0.33876118 -0.5668061
000070 d8 95 be be e2 b1 8b be 75 ff 47 bd 75 c9 a3 3d
       -0.37223697 -0.2728415 -0.048827607 0.07997409
000080 db 12 8e 3e 61 fe dc be a8 88 97 bd 43 eb 83 3d
       0.2774876 -0.43162826 -0.07399112 0.06441357
000090 88 d1 bd 3b 90 a4 2e bd e8 fb 8c be f6 33 8c be
       0.0057928003 -0.042637408 -0.2753594 -0.27383393
0000a0 65 6d bf be 67 58 5c 3e 22 44 d3 3e c3 08 85 3e
       -0.3738815 0.21518098 0.4126292 0.25983247
0000b0 7f 40 77 be 3d 63 72 3e 82 30 71 3e f6 f2 1f be
       -0.24145697 0.23670669 0.2355366 -0.15620026
0000c0 8f 59 4a 3e 08 12 d7 3c 33 b0 c6 3d 0b db b5 bc
       0.19760726 0.026253715 0.09701576 -0.022199174
0000d0 2f 83 8e be d8 77 6a be 7b 97 c0 3d 2d 40 14 3e
       -0.2783446 -0.2289728 0.094038926 0.14477606
0000e0 f3 52 aa 3e 1b 95 42 3e 7a 32 08 3f 20 76 79 3c
       0.3326641 0.19002192 0.5320202 0.015225917
0000f0 d5 c3 0f 3c 49 0b 25 3b 1a d3 f4 bd a5 b4 43 be
       0.008774717 0.0025183728 -0.11954327 -0.19111879
