notebooks/DCRNN/Adj_30mins/dcrnn_best.pt (torch, 121528 bytes, 7 tensors)

cell.diff.theta f4 [65, 64]
000000 cf b3 27 3e 91 7d 04 3d 56 87 2f 3d 95 f8 34 be
       0.16377185 0.032346312 0.042853676 -0.17672952
000010 a7 05 84 3e 9d 8f 43 bc cc ff 0e 3d 38 35 6c 3c
       0.25785562 -0.011936096 0.034911916 0.014416985
000020 f5 ab 4e 3e 62 cc 18 3e 4a c9 90 3d d0 4b cb bd
       0.20182784 0.14921716 0.07069643 -0.099265695
000030 ec 2a 90 be cf 81 09 be 88 4a 89 3d b8 ab b0 bd
       -0.28157747 -0.13428424 0.06703669 -0.08626503
000040 89 7c 82 be 54 45 59 bc 5a fa 8b 3e 73 98 4e 3d
       -0.25485638 -0.013261158 0.2733944 0.050438356
000050 8f 87 11 be f7 40 94 3e aa 4f 06 3e 94 8e 46 bd
       -0.14211868 0.28955814 0.13116327 -0.048475817
000060 9b 1f 5a be 3c b4 4a bd 1d f0 d5 bc b3 30 74 3e
       -0.21301119 -0.04948829 -0.026115471 0.23846702
000070 24 2a 72 3d c9 4f 5d be 38 ca a8 3c f8 5a 36 3e
       0.05912222 -0.21612467 0.020604238 0.1780814
000080 36 ff d9 3d 09 1a 1d be 44 b2 86 3d df ff ce bc
       0.10644381 -0.15341963 0.0657697 -0.025268493
000090 9a c1 50 be a6 49 6c 3e b7 73 9b be d5 7a d3 bd
       -0.20386353 0.2307497 -0.3036172 -0.10326163
0000a0 f5 72 53 3e 16 cd 09 3c d6 6e 22 3e d0 2f 46 3e
       0.20649321 0.008410713 0.15862593 0.19354177
0000b0 8e 68 6b 3e 3b 29 5c be 57 a0 10 3e 4f 7a 2b 3e
       0.22989103 -0.21500103 0.14123665 0.16745876
0000c0 10 04 41 be d3 67 35 be be 31 e4 bd bf 2a e3 bc
       -0.18849206 -0.17715387 -0.111423 -0.027730344
0000d0 98 b4 19 3e 89 3b 69 be be 18 b3 3d 1e 2c 95 be
       0.15010297 -0.22776617 0.087449536 -0.2913522
0000e0 fe 62 49 bd 2e bf 3d be fe 60 f0 3d fd 4d 44 3e
       -0.049166672 -0.1852996 0.1173725 0.19170375
0000f0 5b 9c 24 3d 18 cd 10 3d 1d 62 2c be fa 8d 87 be
       0.040188175 0.035351843 -0.16834302 -0.26475507
000100 62 49 16 3d 6b f4 ad 3d 0b 0b e1 3c 39 1d af bc
       0.036691077 0.08493885 0.027471086 -0.02137624
000110 2e ab 82 3d 7e 50 59 3d 00 96 c5 bc fc ec 84 bd
       0.06380306 0.05305528 -0.024119377 -0.06490514
000120 45 77 a4 3c 1f ca bd 3d 86 8a 4d bd 6a b6 fe 3d
       0.020076403 0.09267067 -0.050180934 0.124371365
000130 4c f0 a5 bc 96 b6 ba bc e9 4d 97 bc 7e 06 9e bd
       -0.020256184 -0.022792142 -0.018469768 -0.07716082
000140 e6 4c da bd fd 48 6e 3d 98 cb a9 3d d2 72 32 bd
       -0.106591985 0.058175076 0.082907856 -0.043566532
000150 90 12 16 be 94 b1 9c 3d 89 20 25 bd 03 23 26 3c
       -0.14655519 0.07651058 -0.04031423 0.010140183
000160 73 9b b2 bc ba 5f 68 bd 5f 4c 71 3b 36 0d 4e bc
       -0.02180264 -0.056731917 0.0036819202 -0.012576392
000170 90 61 93 3a 7d a1 25 bc 0a d3 09 be ed 9c 69 3c
       0.0011244286 -0.010109303 -0.13459411 0.014258605
000180 20 85 f6 bc 70 8d fa bd ca 32 72 3c 3b 8a 91 3d
       -0.030092776 -0.12234008 0.014782617 0.071064435
000190 89 23 9f bb eb 9b fa 3c e1 ce 05 be 50 f8 04 be
       -0.004856531 0.030591926 -0.130672 -0.12985349
0001a0 d8 26 85 3d 72 d1 92 bd 3a 3e 96 3d b1 05 8f 3c
       0.065015495 -0.07168855 0.073360875 0.017458769
0001b0 36 4a f3 3c ec 36 1b be fb 39 a8 bc 28 de e5 3c
       0.029698472 -0.1515767 -0.02053546 0.028060034
0001c0 2e 0a 0b bd 01 e7 8c bd 14 4f 8c 3d 58 a2 80 3c
       -0.033945255 -0.06879998 0.068510205 0.015702412
0001d0 c3 27 e8 3d 07 b5 6d bd ca 23 56 3d e3 55 6b bd
       0.11335709 -0.05803397 0.052280225 -0.057454955
0001e0 3f f9 27 bd 64 05 79 bc ed 76 8a 3d 88 64 c8 3d
       -0.041009184 -0.015199039 0.067609645 0.097848
0001f0 8f 05 dc bb 04 eb 97 bc ee 0c 6f bd 9b 58 93 bd
       -0.00671453 -0.018544681 -0.05836194 -0.071946345
000200 bc ff a8 3d 2d 98 eb bc 46 9e 0d 3e 56 16 d5 bd
       0.082519025 -0.028759087 0.13829908 -0.10404651
000210 18 76 0b 3d 04 e1 ab 3d 10 d1 7b 3c d1 49 8d 3d
       0.03404817 0.08392528 0.015369669 0.06898845
000220 05 ac dc 3c 9f cf e1 3c 71 19 b4 3d 5b 16 dd bd
       0.026937494 0.027564822 0.08793915 -0.107952796
000230 66 2a e4 bd 28 2d dd bd d8 05 3c 3d 1e 37 a2 bd
       -0.11140899 -0.107996285 0.04590401 -0.07920669
000240 d5 37 61 bd 83 4d 3e 3c e0 c0 80 3d 62 f0 78 3c
       -0.054984886 0.01161516 0.06286788 0.0151940305
000250 9d d9 af bd c6 02 04 3e de 4f dd 3d 3d b7 98 bd
       -0.08586428 0.12891683 0.10806249 -0.07456825
000260 1e cb 8b bc 9b a0 77 bc 34 12 82 bd e4 ee f5 3d
       -0.017064627 -0.015113975 -0.06351128 0.120084554
000270 49 20 c0 bd 79 e4 99 3c 4d 0a 55 bc f0 0d a8 3d
       -0.09381158 0.018785702 -0.013002944 0.08205783
000280 e2 f3 04 bd 73 4e 0f be e5 24 b5 3c 86 47 33 3d
       -0.032459147 -0.1399477 0.02211232 0.043769382
000290 02 f2 e5 bd 5d f5 0a 3d 28 6a e7 bd 99 19 88 3d
       -0.112278 0.033925403 -0.112995446 0.06645507
0002a0 55 6a a0 3d a5 db 20 3d 2d 21 b5 3d 10 4b 6b 3d
       0.07832781 0.03927197 0.088442184 0.057444632
0002b0 c6 d4 91 3d 4e 78 08 3d 98 65 9d 3b 0c 75 54 3d
       0.071206614 0.033317856 0.0048033707 0.051869437
0002c0 e1 b4 9e bd 5c 68 03 bd c1 d8 3f bd 3c 5e 90 bd
       -0.07749344 -0.032081947 -0.046837572 -0.07049224
0002d0 22 90 1c 3c 59 36 cd bd ce bf c7 3d 4c 2c b0 bd
       0.009555848 -0.100201316 0.09753381 -0.08602199
0002e0 0c ea c9 bd 22 e6 0f be 7a cb 1a 3d 38 4a 22 3e
       -0.09859094 -0.14052632 0.037791707 0.15848625
0002f0 c7 6d 5a 3c 57 04 a7 bd 8e 67 d5 bd 37 d6 a7 bd
       0.013331837 -0.08155125 -0.10420142 -0.08195155
000300 a7 e8 d4 bd 7f e2 33 3d 13 12 5e 3d bc 8c 02 3d
       -0.103959374 0.043917175 0.054216456 0.031872496
000310 fd 2f 2b bc a7 dd 7b 3d 30 46 72 3d 1f 0d af bd
       -0.010448453 0.06149068 0.059148967 -0.085474245
000320 17 67 ca bd ca f9 14 3d b0 13 d1 3c f0 58 55 3b
       -0.09882944 0.03637103 0.025522083 0.0032554232
000330 af c3 4d 3d 93 1c 02 3d c2 3c 8c bc cd 39 31 3d
       0.050235447 0.03176553 -0.017118815 0.043268014
000340 80 b1 33 bc ea 5d e1 bd e4 f1 95 bd 5a 49 b8 bd
       -0.010967612 -0.11004241 -0.073215276 -0.08998366
000350 d2 ea 4b bd 34 b2 39 bc ca df 9d 3c 36 54 83 3d
       -0.04978449 -0.011333991 0.01927175 0.06412546
000360 61 50 87 3c 52 69 b0 3d b2 1f 84 3d d1 ad 2b bd
       0.01651782 0.08613838 0.06451358 -0.04191381
000370 ec 0d 01 bc 23 a7 0e 3e ae 62 b8 3a 7f b5 fb bc
       -0.007876854 0.13930945 0.0014067495 -0.030726193
000380 4a 58 18 bd db af 20 bc 59 1c 21 bc 6f 11 c4 3d
       -0.037193574 -0.009807552 -0.009833419 0.09573638
000390 d8 7f b9 3c 6d 82 9e bc f0 13 ae 3d cc 1e bc 3c
       0.022643968 -0.019349301 0.084998965 0.022963904
0003a0 2c 52 25 bd 7d 91 b5 3d 9a ba 65 3d eb 58 33 bd
       -0.04036157 0.0886564 0.05608616 -0.04378597
0003b0 05 a4 00 bd b3 b0 70 3d 56 3b 05 3d 10 12 dd 3c
       -0.03140642 0.058762264 0.03252729 0.026986152
0003c0 9d dd 0a 3d 61 34 1c 3d 7c 8d df 3d 2a 5b 4b bd
       0.033902753 0.03813589 0.10915658 -0.049647488
0003d0 57 76 8e bd a8 16 b2 3c c6 7c 83 3d 5c 26 08 3d
       -0.06956165 0.021739319 0.06420283 0.033239707
0003e0 9b eb 6e 3d fc 86 61 bd 22 39 74 bd 57 3e 84 bd
       0.05833016 -0.05506037 -0.0596248 -0.06457203
0003f0 be a2 79 3b dc 59 c8 bd 1f 40 1d bc b1 44 64 3d
       0.0038091387 -0.09782764 -0.009597807 0.05572957

cell.gru.weight_ih f4 [192, 64]
000000 5f cb a0 bd ef e6 82 3d f0 e9 9e bc 56 8c c5 bd
       -0.0785129 0.06391703 -0.01939866 -0.096459076
000010 4e 9a 55 bb 63 f2 7a 3e 31 aa 58 bd eb 43 66 bd
       -0.0032593193 0.24506526 -0.052896682 -0.056217115
000020 7e 2a a6 3d 32 21 b7 bd c6 25 1b be 69 ca 31 3e
       0.081135735 -0.089418784 -0.15151128 0.1736237
000030 f7 9b 4b be c9 fc d0 3c 2e b1 da bc 17 74 2a 3d
       -0.19883715 0.025511162 -0.026695814 0.04161462
000040 3e da ae bd d0 c3 7d be 7a 67 35 3e e3 af 6d bd
       -0.0853772 -0.24781728 0.17715254 -0.058029067
000050 8e 75 83 3c 76 12 d6 3d 88 f8 f1 bd 8e 2a 89 3d
       0.016047265 0.1045274 -0.11814982 0.0669757
000060 00 dd 5e bd 56 20 66 3e 15 db ae 3d 3a 5d d9 3d
       -0.05440998 0.22473273 0.0853788 0.10613485
000070 3c 5a dd 3d 99 4f 53 3c 9e c9 46 be c4 96 73 bb
       0.108082265 0.0128973955 -0.19412848 -0.003716872
000080 34 68 3e 3d 83 b8 3f 3d 40 45 ad bd 47 c1 1e bd
       0.046486095 0.046806823 -0.08460474 -0.038758542
000090 9a 55 11 bd ad 1a a9 3d c1 57 c1 bd 6f 16 19 3c
       -0.035482027 0.08257041 -0.09440566 0.0093437275
0000a0 4d 3d 2c bd e6 9b 4a bd 02 ca de 3b 10 6b b1 bd
       -0.04205065 -0.049465083 0.0067989836 -0.08662999
0000b0 74 75 02 3e 0e f7 9e bd 18 64 3d be 84 19 8b 3e
       0.12740117 -0.07761966 -0.18495214 0.27167904
0000c0 de 46 5a 3d d6 9f 28 3e e5 97 96 3d 3a 79 3d be
       0.05329024 0.16467223 0.0735319 -0.18503276
0000d0 65 3b 4d 3c 92 6d a1 3d 56 db 1c be e7 1c 1e be
       0.012526368 0.07882227 -0.15318045 -0.15440713
0000e0 75 2c 1f 3d 15 e8 fb bc 80 ed 49 bd 67 0f e9 3d
       0.038860757 -0.030750314 -0.049298763 0.11379891
0000f0 72 fe df 3d 77 80 d2 3d 44 06 4c be a0 1b cb 3c
       0.109372035 0.10278409 -0.19924265 0.024793446
000100 90 87 57 3e 2a c3 f6 3d 42 0c b9 3d ac cd 8d bd
       0.21047807 0.12048943 0.09035541 -0.069239944
000110 a5 c2 89 3e 8b 11 52 3e 49 2d 02 3e b6 00 81 3d
       0.26906314 0.20514505 0.12712587 0.06298964
000120 bb 4a 68 3e c1 cb bb 3d 90 8f 0a 3d e1 a3 af 3d
       0.22684757 0.09169722 0.033828318 0.08576179
000130 de 62 3c be 94 67 cf be b3 bd e2 3c 20 7e f6 bd
       -0.1839709 -0.4050871 0.027678346 -0.12035775
000140 de 6f 95 bd f5 06 7a 3a d0 97 82 3d 25 e2 7d bd
       -0.072967276 0.000953778 0.06376612 -0.061983246
000150 46 1a 0c be db f1 7f 3e ff 54 ea bd b4 9b c3 3c
       -0.13681898 0.24994604 -0.11441993 0.023877956
000160 73 88 99 bd 8b 7b c8 3d 37 7b 9a 3d 04 38 9b 3e
       -0.07496729 0.09789189 0.075430326 0.30316174
000170 ba 22 02 3e c5 2f b7 bd 41 ba 5c be 7f b3 49 3e
       0.1270856 -0.08944658 -0.21555425 0.19697379
000180 52 70 43 3d 55 c1 0e bd e9 65 08 bd 72 8f a9 bc
       0.04771454 -0.034852345 -0.033300314 -0.020698283
000190 33 2b b7 bd 20 bf 88 3d e2 47 64 be 21 29 14 bd
       -0.089437865 0.06677079 -0.22293046 -0.036172036
0001a0 62 e8 11 3d b3 50 9e 3c 5c e5 ac 3e ef 11 ee 3d
       0.03562201 0.01932559 0.33768737 0.11624514
0001b0 88 88 7a 3d 92 56 a3 bc c2 dd 05 bc 6e 60 1d bd
       0.061165363 -0.01993874 -0.008170547 -0.03842204
0001c0 37 b9 ed bd 8d d0 db bd c1 fe e6 bc e3 28 34 3d
       -0.116075926 -0.10733137 -0.028197648 0.043984305
0001d0 09 94 3b 3e 31 a8 48 b8 f0 07 2e 3e a6 0a 91 3d
       0.1831819 -4.7840356e-05 0.16995215 0.07082109
0001e0 05 6f e0 3d 40 90 cc bd c9 14 1d 3e 68 c1 9a 3d
       0.10958675 -0.09988451 0.1533996 0.075564206
0001f0 67 1f 30 3e 11 a9 98 3d a1 31 04 3e 3d 5b 69 bd
       0.17199479 0.07454122 0.12909557 -0.056971777
000200 cc 23 93 be d6 f8 c5 3d aa 20 cb bb 75 82 01 be
       -0.28738248 0.09666602 -0.006198962 -0.12647422
000210 3d d6 09 bd 5b 35 d4 3d 20 97 30 bc 3c 2a f3 3d
       -0.03365158 0.10361739 -0.0107782185 0.1187329
000220 28 b8 17 be 51 5f 9a bd 35 d6 95 bd ff 64 47 be
       -0.14816344 -0.075377114 -0.073162474 -0.1947212
000230 91 e1 47 be af e0 6a 3e a9 ed 53 be 46 fb e0 3d
       -0.1951964 0.22937272 -0.20696129 0.109854266
000240 44 4f 50 bd f2 0e 83 be 79 2c 08 bd 9f c2 8f 3e
       -0.050856844 -0.2559734 -0.033245537 0.28078172
000250 f6 eb 4b 3d 16 3a 15 be 1a b1 14 be 7e d3 c6 bd
       0.049785577 -0.1457294 -0.14520684 -0.09708308
000260 35 c6 03 3e 39 34 16 be e2 9e 2e be d5 83 87 bd
       0.12868579 -0.14668359 -0.17052796 -0.06616942
000270 5b 45 17 3e b4 3b 29 3e d6 ec b8 3c fc eb 89 3d
       0.14772551 0.16526681 0.02257387 0.067344636
000280 1a 03 ae 3d 5e 65 dd 3d f8 a9 f0 bc fd 9e fb 3d
       0.08496685 0.1081035 -0.029377922 0.12286184
000290 8d e8 da bd 70 6a 04 bd a2 d0 ec bd 28 5e 23 3e
       -0.10688887 -0.03232807 -0.11563231 0.15953887
0002a0 f9 1e 36 be 5f 74 37 be 7f 2a 85 be 6d 3a 35 bd
       -0.17785253 -0.17915486 -0.26008984 -0.044245172
0002b0 38 49 1d 3e 2b ec 9a 3d 13 c1 c6 bc e0 c4 ff 3d
       0.15359962 0.07564577 -0.024261987 0.12488723
0002c0 7f 99 3a 3c 6f 63 e1 3d b8 e8 ec 3b 0a b5 f0 bc
       0.011389135 0.110052936 0.0072298907 -0.029383201
0002d0 7e ac 84 3d 64 b7 5e 3d 07 ed 07 be 8f fb 63 be
       0.06478213 0.054374114 -0.13274013 -0.2226393
0002e0 d5 f9 ac 3d dc 5f 14 3e 7b 9c 47 be 53 23 1f 3d
       0.08446089 0.14489692 -0.19493286 0.038852047
0002f0 03 08 01 3e 77 e4 96 be 5b 45 d3 bd f4 a9 26 be
       0.12600712 -0.2947118 -0.10315963 -0.1627577
000300 81 21 86 be 6c 05 f7 3d 7a af 7a bb ee 48 df 3c
       -0.26197436 0.12061581 -0.0038251565 0.027256455
000310 60 04 08 be 48 a0 05 bd 92 dc a0 3d 26 d2 03 3e
       -0.13282919 -0.03262356 0.078545704 0.12873134
000320 d8 4d dc bd 3e 85 37 be d9 e9 2f be 1a fa 9d bd
       -0.10757035 -0.17921922 -0.1717905 -0.07713719
000330 bb 9f 75 be f5 9b 67 3e 02 d6 49 3d 14 aa 6c be
       -0.23986714 0.22618087 0.04927636 -0.23111755
000340 74 79 d5 bd 8d 03 33 be 10 ec ab 3d 50 c1 b1 3c
       -0.10423556 -0.17481823 0.08394635 0.021698624
000350 a5 45 dd 3c 2a eb 9f be 0a b9 74 bd 1d 78 a2 3d
       0.027010748 -0.31234103 -0.05974678 0.07933066
000360 be 59 a1 3c cb 8c ef 3c 0e b6 2a be 65 e7 5f 3d
       0.019696113 0.02924194 -0.16671011 0.054664034
000370 5e 3c 54 3d 2f cc 35 3e 58 12 47 bd 37 18 b5 bd
       0.051815383 0.17753671 -0.04860148 -0.08842509
000380 03 c6 0f ba 55 4f 4a 3e 41 fc 47 be e1 1b f4 3d
       -0.0005484523 0.19756825 -0.19529821 0.1191938
000390 1b 29 4f bd 5d 31 8b bd d6 11 28 be 7e e5 b2 3c
       -0.05057631 -0.06796525 -0.16413054 0.021837946
0003a0 21 c8 9b be 94 3b 8d bd 0f 25 9e be e0 ba 2c be
       -0.30426124 -0.06896129 -0.30887648 -0.16868162
0003b0 6b b7 42 3e 2c 83 7e 3d 21 0d aa 3d d3 18 d5 3e
       0.19015281 0.062136814 0.083032854 0.41620502
0003c0 83 09 f1 3d 1b c1 aa 3d 8a d8 d1 3d 0e e8 06 3e
       0.11769392 0.08337613 0.1024638 0.1317446
0003d0 42 52 11 bd 37 a4 cd 3d 21 2c 28 3d 5b df 28 be
       -0.035478838 0.10041087 0.04105771 -0.16491453
0003e0 5b 99 bb bd 92 34 20 3d bd f3 5c bc 90 89 19 be
       -0.091601096 0.039112635 -0.013485846 -0.14993882
0003f0 39 77 5c bc 09 36 4b be eb fb 27 be 79 ea 10 be
       -0.013456159 -0.19844832 -0.16404693 -0.14151944

cell.gru.weight_hh f4 [192, 64]
000000 b6 9b 08 be e1 8d 28 3e 65 a0 9e 3c ff cb 3e be
       -0.13340649 0.16460373 0.019363591 -0.18632506
000010 9f d0 53 3d a3 dd 90 3e 79 e2 82 3e 34 0a a8 bc
       0.05171263 0.28294095 0.2556341 -0.020512678
000020 cf 9d aa be 8e 48 44 be ae ca 51 bd d8 ea 00 3e
       -0.33323523 -0.19168302 -0.05121868 0.12589586
000030 49 e0 f0 bd db 04 57 be 87 68 00 3e 2f a5 26 be
       -0.11761529 -0.20997946 0.12539874 -0.1627395
000040 93 97 b5 3d 4f 0c 9e 3d 46 85 24 bd b0 9d 92 be
       0.08866801 0.077171914 -0.040166162 -0.2863593
000050 74 fd 70 be 56 d4 36 3a 72 11 37 3c 4f 0b 96 3c
       -0.23534185 0.00069743895 0.011173593 0.01831594
000060 c9 fb 0f 3e 01 d0 7c be 74 aa 18 3e 03 e3 c6 bd
       0.14060892 -0.24688722 0.14908773 -0.09711268
000070 c3 f7 55 3c 69 e3 76 be 8f e9 29 3e 59 09 6b 3e
       0.013059559 -0.24110188 0.16593002 0.22952785
000080 99 ad a3 bd 09 89 b1 bd f7 bc 1c 3e 84 80 a8 3d
       -0.079920955 -0.086687155 0.1530646 0.082276374
000090 c4 cf 1e 3e 0f 96 32 3d 5e 3b fd bd 28 3d ac 3e
       0.15508944 0.04360014 -0.12364839 0.3364041
0000a0 ff f9 5d 3d ed ac 55 be 11 51 b5 3c 9f e1 32 3e
       0.054193493 -0.20866747 0.022133382 0.1746888
0000b0 c6 53 9f bd 27 92 58 3d 4c a9 d9 bc 60 d8 cf 3d
       -0.077796504 0.052873757 -0.026569985 0.10148692
0000c0 cb 29 5c bd a5 93 31 3e 1a 23 71 be 76 3d ae bd
       -0.053750794 0.17341478 -0.23548546 -0.085078165
0000d0 2d b3 e3 bd 32 c1 59 3e 9d 3d 17 be 07 6d 39 3e
       -0.111181594 0.21265104 -0.14769597 0.18107997
0000e0 71 98 c8 3e 9d 23 47 3c 4f f9 9f 3d ca ca 70 3d
       0.39178804 0.012154487 0.07811224 0.058787145
0000f0 1e 33 bc be 0c 15 c9 3d d3 1b 93 3e a7 b2 9c 3e
       -0.3675775 0.098184675 0.28732166 0.3060505
000100 8a 60 85 3e 83 7f d4 be 7b aa f6 3c 25 9b 59 be
       0.26050216 -0.41503534 0.030110588 -0.21250589
000110 86 e6 12 bd 0a 46 a1 3e fa 79 67 3e 9f 72 11 be
       -0.035864376 0.31498748 0.22605124 -0.1420388
000120 bd 31 23 be 57 e4 ad be e0 89 b6 3d 88 c8 ba bd
       -0.15936942 -0.33963272 0.08913016 -0.091202796
000130 42 a5 43 bd da cf d7 bd b6 2f 50 be e6 67 ca 3d
       -0.047765024 -0.105376914 -0.203307 0.09883098
000140 af 1d 0f 3e 0b 8b ad 3e 8b 94 27 3d 13 b2 98 be
       0.13976167 0.33895144 0.040913146 -0.2982336
000150 5a 34 33 be 64 b4 9a be 87 9c 26 bc b5 0a b4 3d
       -0.1750044 -0.30215752 -0.010169155 0.08791105
000160 79 8f 32 3e 60 78 92 be 06 cc b5 3d b0 d3 92 3e
       0.17437543 -0.28607464 0.08876805 0.2867713
000170 29 1e 96 3d ae a2 39 be d9 f0 b3 3d 28 d5 f2 3d
       0.07329971 -0.18128464 0.087861724 0.118570626
000180 f4 07 79 bd 4c 66 0c be 44 98 a2 3d 93 be 9b bd
       -0.0607986 -0.13710898 0.079391986 -0.076047085
000190 a6 69 99 bd 7e b1 f3 3d 4d f4 92 be 43 09 a2 3e
       -0.07490854 0.11899088 -0.28702012 0.3164769
0001a0 36 4f 89 3e 12 1c d4 be 7e 91 c6 3d 3e 0c 60 3e
       0.26818246 -0.41427666 0.09695719 0.2187967
0001b0 30 41 9a be 3c 00 ed 3d f9 c4 8f be c3 56 af 3e
       -0.3012786 0.1157231 -0.28079966 0.3424588
0001c0 e0 c3 3e 3e ef b5 a2 3e ff 28 0d bf 9d e0 12 3e
       0.18629408 0.3177943 -0.5514068 0.14343496
0001d0 14 0a fd 39 4f 22 88 3e c1 79 54 be 4e ea b6 be
       0.0004826343 0.26588675 -0.2074957 -0.35725635
0001e0 c4 17 0e be 0b 8f 51 3d a6 86 f1 3d b1 9d 6a 3e
       -0.13876253 0.051161807 0.1179326 0.22911717
0001f0 2a 83 00 bc d4 22 d7 bc b2 5e 7e 3e ee fa 55 3e
       -0.007843772 -0.026261725 0.24840811 0.20896503
000200 f0 4a 66 be 93 23 d6 3d 9d 95 c4 3e 5e 3d 62 3e
       -0.22489524 0.10456004 0.38395396 0.22093722
000210 87 09 b6 be 27 38 33 be c9 76 4e bd 87 f5 43 3f
       -0.35554144 -0.17501889 -0.05040625 0.7654652
000220 51 6a 5b bf 64 b3 00 3f af 52 f1 3e a7 f0 3c bd
       -0.857091 0.5027373 0.47133395 -0.04612794
000230 e8 5b 05 3e e0 77 e0 3d 99 f0 98 be 75 82 70 3c
       0.1302334 0.10960364 -0.2987106 0.014679541
000240 43 6e 0b bf d5 3a e7 3d e2 4e c5 bd 4f 4a 22 be
       -0.5446512 0.11290518 -0.09634186 -0.15848659
000250 28 aa d4 3d 5f 40 a2 bd fd 70 f6 be 7f 87 cf bd
       0.10384017 -0.07922434 -0.48133078 -0.10133266
000260 21 a3 98 3c 96 1a aa 3d c8 92 5f be 4f 58 ba bd
       0.018632473 0.08305852 -0.21833336 -0.09098875
000270 b4 69 77 be 64 79 a0 be ed d1 bb be 7c 6a 9b be
       -0.24161416 -0.31342614 -0.36683598 -0.3035468
000280 7d b0 d3 3e d2 9d 4d 3e 27 29 d7 3e 4e dd d6 3e
       0.41345587 0.20079735 0.42023584 0.41965717
000290 af 8e 49 be c3 ff f8 bd e1 5e e2 3e bc 06 28 be
       -0.19683336 -0.12158158 0.44213012 -0.16408819
0002a0 e7 0c 57 3e 29 8f 0e bf cc 95 81 bc c3 48 19 3f
       0.21001016 -0.55687195 -0.015818499 0.5987665
0002b0 57 2e e0 bc 12 01 fe be 03 18 49 be 50 04 ec 3e
       -0.027365847 -0.49610192 -0.19638066 0.4609704
0002c0 78 70 35 3e b6 79 8b bd c9 29 18 3e 02 8e 87 3e
       0.17718685 -0.06810324 0.1485969 0.2647553
0002d0 c1 3c c5 bc 98 96 b1 3e ee 08 d0 bd 73 cc fe 3d
       -0.024076821 0.34685206 -0.10157953 0.12441339
0002e0 c5 d6 24 3f ec 4a 11 3f f4 c1 82 3e 2a cc 0c 3b
       0.6439021 0.56754947 0.255386 0.0021483996
0002f0 bc cc c2 bd 57 a8 d8 be 08 8e 85 3e 8b b0 5e 3e
       -0.09511706 -0.42315933 0.26084924 0.21747033
000300 58 ca fd 3e ad 9b d5 3e 45 55 59 3e 72 e7 a4 3c
       0.4956844 0.41720334 0.21223934 0.020129893
000310 9e e8 4e 3d 9e f5 33 bf 97 01 cf 3e 38 41 82 bd
       0.05051481 -0.7029666 0.404309 -0.06360096
000320 20 b9 06 bf 9c 70 b4 bd 63 8d d6 bd 1f 34 03 3e
       -0.5262623 -0.08810541 -0.10476186 0.12812851
000330 a7 fb 1b bf 58 5a 80 3e 2a d0 bd be 05 5f 8d 3e
       -0.60930866 0.25068927 -0.3707288 0.27611557
000340 02 14 3d 3e af cf 84 be 32 f8 27 3e 8c 75 88 be
       0.18464664 -0.259397 0.16403273 -0.2665218
000350 d7 c5 df bd d2 06 4b bd ea 2f 2e bb 2a 9e f9 bd
       -0.10926407 -0.04956705 -0.0026578852 -0.121883705
000360 3b f9 bf 3e d7 7e a2 bd 28 1d 47 be a5 b3 bd 3c
       0.37494835 -0.07934349 -0.19444716 0.02315695
000370 c2 bf 32 3e b6 bf 02 bf 0a ee 2b 3e 58 97 39 3e
       0.17455962 -0.5107378 0.16790023 0.1812414
000380 21 c8 b0 be dd 95 40 3e e4 13 84 bc a1 5a 99 3d
       -0.34527686 0.18807168 -0.016122766 0.07487989
000390 43 5f b0 bd c0 de fa 3c 80 30 20 be 15 48 06 3f
       -0.0861192 0.030623794 -0.15643501 0.5245374
0003a0 c9 29 bb 3e 31 69 d5 be 37 66 27 3c 0d 8a a9 3e
       0.36555317 -0.41681817 0.010217241 0.33113137
0003b0 43 bf 34 3e ab 2a 9e bd cc 94 86 bd e7 79 c5 3e
       0.17651086 -0.07722982 -0.065713495 0.38569567
0003c0 fc fa 57 be 69 67 3d 3c 20 e5 a9 be f8 d1 d8 be
       -0.21091837 0.011560299 -0.3318262 -0.42347693
0003d0 5c 57 fb bd d9 44 e2 bd ed da 6b be c6 3e f2 3d
       -0.12272522 -0.11048288 -0.23032732 0.11828379
0003e0 69 01 a9 be 07 00 48 be e2 1c 08 be 45 5e e2 3d
       -0.33008888 -0.1953126 -0.13292268 0.11053137
0003f0 66 b5 8a be 75 72 84 be 16 61 08 3f 83 88 10 3f
       -0.2709152 -0.25868574 0.5327314 0.564583

cell.gru.bias_ih f4 [192]
000000 11 cb 46 be be 46 d9 be 84 cd 62 bd 48 44 4e bd
       -0.19413401 -0.42436785 -0.055371776 -0.050358087
000010 e4 f0 1f be d6 83 37 3e ae fd c8 3d 5c f2 eb 3e
       -0.15619236 0.17921385 0.098140106 0.46083343
000020 13 8a d3 be 46 76 be be 85 6d 82 3d 35 10 3d bf
       -0.4131628 -0.3719961 0.063685454 -0.73852855
000030 10 96 84 3e 22 5f 22 3d 80 0d 65 bc b2 3f cc bb
       0.2589574 0.039641507 -0.013980269 -0.006233179
000040 b9 41 42 be 97 68 39 be d9 72 06 be a1 17 a3 bd
       -0.18970384 -0.18106304 -0.13129748 -0.07963491
000050 ae e2 2f 3d 1a 00 b8 be f9 2c f8 3e bf 99 c1 be
       0.042940788 -0.35937577 0.4847181 -0.3781261
000060 44 98 cd bd f3 e3 4d be 8a 8d a0 bc 5a 35 56 bd
       -0.10038808 -0.20106487 -0.019598741 -0.052296974
000070 3a d6 40 3e c1 b9 05 bd 4f 6b 00 bd 5f 6b a5 be
       0.18831721 -0.03264785 -0.031352337 -0.3230848
000080 73 24 d0 bd 41 8f 8a be 20 3b 96 3c 76 fd 06 bf
       -0.10163202 -0.2706242 0.01833874 -0.527305
000090 7c 71 5d 3d 73 0c 47 3d 73 97 1c be 0b e2 a8 3e
       0.054063305 0.048595857 -0.15292148 0.32984957
0000a0 f2 ca 2c bd 2a 27 7d be f5 da 0b be 32 dd 8d be
       -0.04218573 -0.24721971 -0.13657744 -0.2770782
0000b0 b5 50 49 bd 39 82 ec 3d f2 5b 62 be 9d 8e 79 be
       -0.049149234 0.115482755 -0.22105387 -0.24370809
0000c0 b2 f6 36 be 00 67 9b be d8 e9 00 3f 17 fe ca bd
       -0.17867544 -0.3035202 0.5035682 -0.09911745
0000d0 97 25 68 bf 59 3d e9 3e bc 48 7e 3e e1 5b 9a 3e
       -0.9068236 0.45554617 0.24832433 0.30148223
0000e0 4b 60 c9 be 53 71 cc bd 65 2d 91 bd 04 16 51 3e
       -0.39331278 -0.099825524 -0.070887364 0.20418555
0000f0 19 51 ce 3b 7c 91 0e 3e cb af 55 bf ee 70 80 3d
       0.0062962887 0.13922685 -0.83471364 0.0627154
000100 a5 fe f3 3e eb c0 b2 3d 8f 74 40 3e 22 69 03 3d
       0.47655216 0.087282024 0.18794464 0.032082684
000110 8e fc 15 3d 0d e9 bd bd 6a 81 8d 3d ca cf f7 3d
       0.036617808 -0.092729665 0.069094494 0.121001795
000120 34 b4 81 bc 35 6c b5 3d 68 b7 a3 3e 81 3f ee bd
       -0.015832998 0.088585295 0.31975865 -0.11633206
000130 c8 eb 30 3e a1 f8 2b be 95 ab 5f be a2 d9 b8 bc
       0.17277443 -0.16794063 -0.21842797 -0.022564713
000140 e5 ca 2a 3e bf 16 d0 be 96 6c 2c 3e 6c 79 73 be
       0.1667896 -0.40642354 0.16838297 -0.23776788
000150 f0 1f d0 bb 88 9b 60 bd c0 64 b4 be 3a 85 93 3e
       -0.0063514635 -0.054835826 -0.35233116 0.2881258
000160 47 ff ad 3e 37 56 4e 3e 9f dc d7 bc 35 c2 aa 3e
       0.33983824 0.20150076 -0.026350318 0.33351293
000170 bc a7 12 3e 69 34 1d 3f 2e b9 60 bd 39 0b 39 3e
       0.14321798 0.61408097 -0.0548641 0.18070687
000180 f5 5c 94 bb 5e 0e 42 be ea 99 c7 bd ab 49 bc 3e
       -0.004527683 -0.18950793 -0.09746154 0.36774954
000190 3b 30 14 3d 81 89 4c 3e 08 97 11 3e 18 f7 2e 3d
       0.03617881 0.19974329 0.1421777 0.042716116
0001a0 b3 18 07 3e 01 9b 92 be 8a a9 d5 3d 63 80 8d be
       0.13193016 -0.28633884 0.10432728 -0.27637014
0001b0 7d 5e 20 3e 73 1f 87 3e 0e 93 e9 bd 25 f8 a8 bd
       0.15661044 0.2639118 -0.114050016 -0.08250455
0001c0 09 3e 09 3e ba 12 66 3e 3b ff 2d 3e fb 77 d7 bd
       0.13402571 0.22468081 0.16991894 -0.10520931
0001d0 e9 b0 4e be 73 2a aa bd e1 f6 84 3e 1a 9c fb 3d
       -0.20184673 -0.08308878 0.25969604 0.122856334
0001e0 9a c0 53 3e 70 03 9a 3e 11 6f b0 be 7c c0 d4 bc
       0.2067894 0.30080748 -0.34459737 -0.02597069
0001f0 f5 b0 02 3f 84 b8 8e 3e 73 df a2 3d 11 8b ab 3d
       0.51051265 0.2787515 0.07952776 0.08376134
000200 42 7f 87 bd d3 27 56 bc 75 65 3b be 55 ed 55 3c
       -0.066160694 -0.013071018 -0.18300422 0.013057073
000210 ed 59 e5 3c 9e 9c 09 3e e2 e2 27 3c 03 c9 5e be
       0.027996982 0.13438651 0.010246964 -0.21756367
000220 80 62 de ba 80 02 24 be 82 0a 25 3e af 8c 89 bd
       -0.0016966611 -0.16016579 0.1611729 -0.067162864
000230 15 20 05 3e fe a3 3d be 6b 88 82 bc ea ef 41 3d
       0.1300052 -0.1851959 -0.01593419 0.04734794
000240 b7 80 84 bd 4c 58 bc 3d 05 46 3b 3d d3 6c 74 3e
       -0.06469863 0.09196529 0.045721073 0.23869638
000250 4f ef 05 3e 32 fc 9b bd bd e5 4a 3e 25 c3 fd bc
       0.1307957 -0.07616462 0.198142 -0.030976841
000260 25 9d 91 3c 06 ba 12 3e bd d7 ec bd 8e 94 9b 3c
       0.017775128 0.14328775 -0.11564586 0.018991735
000270 0c 0a 27 3e e7 ee c1 bb 40 21 31 b9 f9 fc 56 bd
       0.16312426 -0.005918372 -0.00016892422 -0.052487347
000280 41 3b 50 3d 4c 33 a5 bd 80 67 06 be 72 c8 d1 3c
       0.05083776 -0.08066425 -0.1312542 0.025608275
000290 46 3e 7e 3d 47 ca 83 3c 7a 18 49 be 4f 0a 69 be
       0.062071107 0.016087664 -0.19638243 -0.22757839
0002a0 85 9e 34 bd 24 57 f4 3c e5 41 d2 bc 2c 76 39 be
       -0.04409649 0.029826708 -0.025666187 -0.18111485
0002b0 a0 1d 41 3c 27 aa f5 3d 65 57 32 3e 92 94 b4 be
       0.011786848 0.119953446 0.17416151 -0.352696
0002c0 32 57 e1 bc a1 88 ec bd f6 59 80 bb e3 d7 80 be
       -0.027507398 -0.115494974 -0.003916974 -0.25164708
0002d0 f2 8f c4 3d 1e fd 3d bc 22 af bc 3d 9c 75 9a bd
       0.09597768 -0.011595992 0.092130914 -0.075419635
0002e0 fe ec 55 3e ce f3 db bc 82 3e 87 3a 25 eb c9 bd
       0.20891187 -0.026849654 0.0010318311 -0.098593034
0002f0 15 93 d1 bc 6d 9d 1c 3c 83 33 11 bd 53 ea b0 3c
       -0.02558283 0.009559018 -0.035449516 0.02159611

cell.gru.bias_hh f4 [192]
000000 f5 c2 e1 bd c6 0a bf be a1 30 83 3d ec d3 48 be
       -0.11023513 -0.37312907 0.064057596 -0.19612092
000010 5e 95 51 be 68 a4 14 bd 5d 48 e7 3d 74 78 eb 3e
       -0.20467135 -0.036289603 0.11293099 0.45990336
000020 09 dc 2d be 36 14 e5 be 67 28 11 3e 97 30 2c bf
       -0.16978468 -0.44741982 0.14175569 -0.6726164
000030 5d db 7c 3e 74 a9 39 bd 04 8f 86 3d 64 8b 08 be
       0.24693055 -0.04532762 0.06570247 -0.13334423
000040 e1 fb 88 be a1 ae 13 be b9 45 07 be 47 67 89 ba
       -0.26754668 -0.14422084 -0.13210191 -0.001048305
000050 38 f7 f1 bc eb 0d be be 9d 7d 80 3e 9b 7d ba be
       -0.029536828 -0.37119994 0.25095835 -0.36423954
000060 83 0c 63 be 71 3a 1f be 64 ed d9 3d c1 44 a8 bb
       -0.22172742 -0.15549637 0.10640982 -0.005135149
000070 4a 50 e4 3d fc f1 95 bd 26 5f 73 bd b5 d4 83 be
       0.111481264 -0.073215455 -0.059416912 -0.2574822
000080 ed 32 01 be 51 ab 5a be 49 f9 98 3b cf 05 e6 be
       -0.12617083 -0.21354415 0.004668389 -0.44926307
000090 1b 17 10 3d 60 1c a1 3d 2f b7 46 be 26 b5 62 3e
       0.035178285 0.0786674 -0.19405816 0.22139415
0000a0 98 35 bf bd 19 17 3a be ba 0e 0a be 03 36 85 be
       -0.09336394 -0.18172874 -0.1348218 -0.2601777
0000b0 de a2 6a bd 84 24 5b 3d d4 27 d6 be 85 a1 56 be
       -0.05728423 0.05350162 -0.4182726 -0.20960052
0000c0 03 0b 3d be 07 51 cc be d7 dd be 3e 28 3a 59 be
       -0.18461232 -0.3990557 0.37278625 -0.21213591
0000d0 35 e8 6a bf ca 92 d4 3e fd 61 a9 3e 8c df aa 3e
       -0.9176057 0.4151824 0.33082572 0.33373678
0000e0 d0 1e a9 be 87 76 1c be a6 41 2f 3e df f4 96 3d
       -0.3303132 -0.1527959 0.17114887 0.07370924
0000f0 f6 99 27 3e fb 5f 93 3d 08 3a 6c bf 6a 12 95 3e
       0.16367325 0.07196041 -0.9227605 0.2911561
000100 d2 d2 0e 3f d4 10 9d bd d0 f4 97 3d 13 03 89 3e
       0.55790436 -0.07669225 0.07419741 0.26760158
000110 a6 a3 1b 3e d0 cc d3 bd aa 20 b4 3d 29 8a 50 3e
       0.15199146 -0.10341799 0.08795293 0.20365204
000120 d4 90 10 be ba 46 8e 3c 4a 98 57 3e 6c 5d 9f be
       -0.14117748 0.01736771 0.21054187 -0.31125963
000130 3a 49 2b 3e c4 5c a2 3b 3b fd 2b be ae b8 c5 bd
       0.16727152 0.004954906 -0.16795819 -0.096543655
000140 23 4e 75 3e 25 92 c4 be 10 cd 4e 3e 59 96 b6 be
       0.23955588 -0.3839275 0.20195413 -0.3566158
000150 8b 2a ad 3d 6d c3 07 3e fd ce c4 be 61 31 b2 3e
       0.0845538 0.13258143 -0.3843917 0.34803298
000160 74 97 73 3e 5b f4 a9 3e 55 a4 68 3d 48 96 a3 3e
       0.23788244 0.3319424 0.056797344 0.31950593
000170 56 01 90 3e 9e 8f 46 3f 3b 9e a0 3d 66 91 7d 3e
       0.2812602 0.7756289 0.0784268 0.24762496
000180 40 ea 0d be 59 a8 4d be 9b fa ef bd c8 91 8a 3e
       -0.1385889 -0.20083751 -0.11717721 0.27064347
000190 42 63 4f bd b0 2f f9 3d bd 34 3a 3e 2c 9c 76 3e
       -0.05063177 0.12167299 0.1818418 0.24083012
0001a0 66 2a 85 3e af d2 ac be f6 ff 7f 3e 45 48 8d be
       0.2600891 -0.3375449 0.24999985 -0.275942
0001b0 8f e5 23 3e bc 52 db 3e 56 c4 5a be 01 82 4d bd
       0.16005538 0.4283656 -0.21363959 -0.05017281
0001c0 31 03 4c 3e 72 50 1b 3d 21 e8 b6 3d c5 62 49 bd
       0.19923092 0.037918516 0.08930994 -0.04916646
0001d0 7f 8e 90 be 0b af 3c be 5d ee 88 3e fc b5 6b 3e
       -0.28233716 -0.18426149 0.26744357 0.2301864
0001e0 14 31 ff 3d 0a 36 1e 3e cc 14 33 be 8c 13 43 3c
       0.12460533 0.15450302 -0.17488402 0.011906516
0001f0 6c cd d9 3e 78 50 68 3e 35 34 a2 3d 14 00 4c 3e
       0.42539537 0.22686946 0.07920114 0.19921905
000200 b5 53 6e 3d 4f e3 35 3d 46 b2 00 3d fd e5 c2 3d
       0.058185298 0.04440623 0.031420015 0.09516523
000210 e5 d5 29 3b 82 93 41 be d5 48 be bd 28 23 80 3e
       0.0025914845 -0.18903926 -0.09291235 0.25026822
000220 b9 03 11 3d c2 b1 fd 3e c9 9b 8d be a4 fe 37 be
       0.03540394 0.4954968 -0.27657917 -0.17968231
000230 11 d7 36 3e 0d 8a 7c 3d e2 2e 8f 3d d4 0c e6 bd
       0.17855479 0.061655093 0.06991364 -0.112329155
000240 2f 5f 22 3e 31 ae 6f be 17 a7 5e bd 0a ae 7e 3e
       0.15856622 -0.23406292 -0.054358568 0.24871078
000250 24 d7 e0 3d 22 5d 1d 3e 54 2a ea be ec db c3 3e
       0.10978535 0.15367559 -0.4573542 0.38253725
000260 3c ad 09 be 16 94 6a be 88 d4 21 be 69 7b a7 3d
       -0.1344499 -0.22908053 -0.1580373 0.081778355
000270 f4 b2 a1 be 2a 14 8d bd 28 43 13 be 10 df 05 3d
       -0.31581843 -0.068886116 -0.14381087 0.032683432
000280 a3 77 42 3d 0c 8d 35 3e f2 5f 93 3d 15 4a 84 bc
       0.047477376 0.17729586 0.071960345 -0.016148606
000290 0d 1f c4 bd 2b e2 00 bd f9 d9 0a 3f 8f ca 8e be
       -0.09576235 -0.03146569 0.5423885 -0.27888915
0002a0 2c 00 e5 3d 90 00 90 3d c8 15 64 be d0 7c 8b be
       0.111816734 0.07031357 -0.22273934 -0.27243662
0002b0 3c 08 cd bd e9 ba 0f be be 56 c4 3d c0 f3 b9 3e
       -0.10011336 -0.14036144 0.09586857 0.3631878
0002c0 ca e9 47 be 50 21 ad 3e ca a1 93 3e fa e7 f2 3d
       -0.19522777 0.33814478 0.28834373 0.11860652
0002d0 98 24 19 be e3 dc dc bc 3a 16 5c bc 17 1a 62 3e
       -0.14955366 -0.026960796 -0.013433034 0.22080265
0002e0 db 00 b7 bc 0d 43 16 bd 79 1f d2 3d fa 31 16 3c
       -0.022339275 -0.03668504 0.10259909 0.009167189
0002f0 90 fd a2 bd 91 10 16 3e f1 5c 3a 3e bc 80 08 3d
       -0.079585195 0.14654757 0.18199517 0.033325896

fc_out.weight f4 [6, 64]
000000 95 dd 16 be c5 86 81 be ad ff 3a 3e 76 0e 56 3e
       -0.14732964 -0.25298133 0.18261595 0.20903954
000010 82 aa 3f be e1 5f e9 bd b6 a8 c5 bc 4f 49 7d 3e
       -0.18717387 -0.113952406 -0.0241283 0.24734996
000020 47 90 33 be c1 7b b2 3e 12 4e 45 3d a8 58 8c 3d
       -0.17535506 0.34860042 0.048170157 0.06852847
000030 bf 4d e3 3d 43 65 57 bc bd 69 a1 bd 9f a4 48 3e
       0.11098813 -0.013146701 -0.07881496 0.19594048
000040 1a 41 70 be 7c 92 b1 3d bc 04 27 be eb f7 72 3c
       -0.23462334 0.08670518 -0.163104 0.014829616
000050 10 17 51 bd 79 48 77 3e 5a 25 07 be e7 bd 26 be
       -0.051047385 0.2414874 -0.13197842 -0.1628338
000060 02 29 cf be 1d f5 6e 3e 78 3a 73 bd 54 12 04 bf
       -0.40460974 0.23335691 -0.059381932 -0.51590466
000070 7c 12 34 be e2 c1 4c 3e a8 e0 c2 bc 58 1f 86 be
       -0.17585176 0.19995835 -0.023788765 -0.26195788
000080 d4 2e f1 bb ae b5 2e 3e 06 62 f4 3d 75 28 ce be
       -0.0073603187 0.17061493 0.11932759 -0.4026524
000090 36 bd ba bc 18 7a 7d be fd 08 8c 3e 9d 11 c6 bc
       -0.0227953 -0.24753606 0.27350608 -0.02417832
0000a0 ee f7 4f be 77 9f 8d bd dd 81 72 3e 2c 55 59 3d
       -0.20309421 -0.06915181 0.23682351 0.05305974
0000b0 e6 14 6c 3e 7f a1 7a be 41 ba 48 3e 94 98 da bd
       0.23054847 -0.24475668 0.196023 -0.10673633
0000c0 67 0e df 3d 2b 14 77 be ae c8 61 3e 3b 47 92 3d
       0.10891419 -0.24128787 0.2204921 0.071424924
0000d0 cd 9f 23 3e eb 9e 69 3c 71 4d d7 3d e2 15 16 3e
       0.15978928 0.01425908 0.10512818 0.14656785
0000e0 de 04 71 3d 73 fb 18 3e 28 c1 00 3e 45 51 68 3d
       0.058842532 0.1493967 0.12573683 0.05671813
0000f0 dd bd 9d 3e eb d9 c4 bd b4 10 69 bf 2d 44 84 bd
       0.30808917 -0.09611877 -0.9104111 -0.06458316
000100 0d c3 ef bd 65 9b 46 be 15 c8 54 3e 2f be 3f 3e
       -0.11707125 -0.19395216 0.2077945 0.18724893
000110 e3 8c 4f be a9 69 db bd 05 9f 0b 3b 89 ba 57 3e
       -0.20268588 -0.107135125 0.00213045 0.21067251
000120 be 72 2e be 38 ff 92 3e 60 ad 33 3d 69 ea a6 3d
       -0.17035958 0.2871034 0.043866515 0.08150179
000130 9d 8e dc 3d 7b 3b 07 bd 55 94 90 bd 7d ae 3c 3e
       0.10769389 -0.03301571 -0.07059542 0.18425937
000140 7c f9 59 be bc 06 d5 3d b4 ca 29 be bc 55 9e 3c
       -0.21286577 0.10401675 -0.16581231 0.01932799
000150 8c 27 ad bd 34 9a 5f 3e 33 ba eb bd 58 36 3e be
       -0.084548086 0.21836168 -0.11510124 -0.18575418
000160 70 27 ce be 14 56 51 3e 7c 7c a4 bd f8 5e f0 be
       -0.40264463 0.20442992 -0.08031556 -0.46947455
000170 12 a9 54 be 04 03 28 3e 6c f9 db bc 2f 0d 57 be
       -0.2076762 0.164074 -0.026852332 -0.21001123
000180 94 a8 86 3c 10 d0 2e 3e a9 17 d3 3d 31 5a d7 be
       0.016437806 0.17071557 0.10307247 -0.42060998
000190 51 40 36 bd 57 e7 63 be 1e 06 69 3e 30 87 90 bc
       -0.04449493 -0.22256218 0.2275624 -0.017642587
0001a0 da 18 55 be 38 cc 69 bd 6c ac 7d 3e c0 af 42 3d
       -0.20810261 -0.057079524 0.24772805 0.04753089
0001b0 9a ec 53 3e 89 86 72 be 33 dc 53 3e 77 c0 14 be
       0.20695725 -0.23684134 0.20689468 -0.14526545
0001c0 2b e7 ef 3d c5 5d 58 be 4e 21 40 3e d5 9c 8a 3d
       0.11714014 -0.2112952 0.18762705 0.067681946
0001d0 79 2b 34 3e 1c d0 a5 3c b6 d3 f7 3d 10 cc 11 3e
       0.17594709 0.020240836 0.121009275 0.14238
0001e0 57 2b 96 3d d3 f0 0a 3e 6d 35 06 3e 96 05 92 3d
       0.07332485 0.1356843 0.13106318 0.07129972
0001f0 bd fe 8f 3e 55 48 cb bd 9b 4d 53 bf 4a e1 10 bd
       0.28124037 -0.099259056 -0.8254029 -0.035371102
000200 e9 05 be bd b8 34 14 be 9c 86 69 3e c7 d1 2c 3e
       -0.09278471 -0.14473236 0.22805256 0.16876899
000210 8b 95 5d be 3a e6 cb bd f3 5f fd 3c 7f d7 3d 3e
       -0.21639077 -0.099560216 0.030929541 0.18539236
000220 1c 38 29 be 87 3f 6f 3e db e9 1e 3d 3c ca c4 3d
       -0.1652531 0.23364078 0.03879724 0.09608886
000230 78 2b d0 3d 00 59 60 bd ff a3 93 bd ee 3a 35 3e
       0.10164541 -0.054772377 -0.07209014 0.17698261
000240 fd 4b 45 be be 93 f5 3d f1 3d 2e be b4 5b 9d 3c
       -0.19267268 0.1199107 -0.17015816 0.019208767
000250 fc 98 e9 bd 69 0f 4b 3e d7 4a d7 bd 22 1b 4e be
       -0.114061326 0.19830097 -0.105123214 -0.20127538
000260 b8 d7 ca be b7 49 34 3e 78 44 d1 bd c6 d7 d3 be
       -0.39617705 0.17606245 -0.102181375 -0.4137556
000270 dc 96 66 be b2 9e 05 3e 4c 1c d8 bc 6a d0 2a be
       -0.22518486 0.13048819 -0.02638068 -0.16681066
000280 6e 09 03 3d 46 c2 2c 3e de eb c2 3d 9a aa df be
       0.031991415 0.16870984 0.09517644 -0.43684846
000290 f5 3d 61 bd 5f 61 4a be 7c 79 3c 3e 13 01 30 bc
       -0.054990727 -0.19763707 0.18405718 -0.010742444
0002a0 4a 33 54 be 87 45 68 bd b0 f7 83 3e 28 a4 2f 3d
       -0.2072269 -0.05670693 0.25774908 0.04288116
0002b0 d0 ba 48 3e ee 3f 6a be b1 7c 59 3e 34 e4 2a be
       0.19602513 -0.2287595 0.21238972 -0.16688615
0002c0 09 b4 fc 3d 72 1b 43 be 92 b4 22 3e 7a 5e 81 3d
       0.123390265 -0.19053438 0.15889195 0.06316848
0002d0 13 97 3c 3e 9e e3 d9 3c 2f 12 15 3e fa 12 11 3e
       0.18417005 0.026597794 0.14557718 0.14167395
0002e0 32 f3 b7 3d ea 51 fb 3d 56 42 04 3e 10 2e b1 3d
       0.08981933 0.12271483 0.1291593 0.08651364
0002f0 e1 19 84 3e ff 2f da bd 2d a0 3b bf e7 79 51 3b
       0.25800994 -0.10653686 -0.73291284 0.0031963529
000300 e4 c8 81 bd a0 66 cf bd 07 0f 76 3e 96 8e 18 3e
       -0.06337145 -0.10126996 0.2402917 0.14898142
000310 dd fe 64 be 7c 16 c6 bd 99 60 72 3d d2 04 28 3e
       -0.22362848 -0.09672257 0.059174154 0.16408089
000320 35 57 21 be 5c 93 43 3e cf 45 11 3d 4d d3 dd 3d
       -0.15755923 0.19099182 0.035466965 0.10831318
000330 89 c1 be 3d 47 e4 98 bd bc 6d 9a bd ef b7 33 3e
       0.09314258 -0.074654154 -0.075404614 0.17550634
000340 c8 8a 30 be 96 a1 09 3e 0b 0a 34 be a0 38 86 3c
       -0.17240441 0.13440546 -0.17581956 0.016384423
000350 db fc 11 be 41 85 41 3e f1 37 c9 bd c2 63 5a be
       -0.14256613 0.18898489 -0.09825123 -0.21327117
000360 57 6d c2 be 1c 99 18 3e 21 6d fa bd ff f2 b9 be
       -0.37974045 0.14902157 -0.12227846 -0.36318204
000370 86 69 6f be b3 4b c8 3d 75 8b d5 bc 6e 86 08 be
       -0.23380098 0.097800635 -0.026067475 -0.13332531
000380 22 c5 44 3d 65 aa 29 3e a5 ab ba 3d c9 18 e4 be
       0.048039563 0.16568907 0.0911477 -0.4455016
000390 46 3f 75 bd d5 2e 2e be 25 ab 1a 3e 8a 81 c9 bb
       -0.059874795 -0.17010053 0.15104349 -0.0061494755
0003a0 d2 c8 56 be f0 d9 64 bd 68 8a 88 3e 9a 57 1f 3d
       -0.20975044 -0.055871904 0.26668096 0.038901903
0003b0 86 ea 41 3e 8d 51 5d be a9 b1 5c 3e d3 e9 33 be
       0.1893712 -0.2161314 0.21552147 -0.17569666
0003c0 13 93 00 3e a3 d6 31 be 51 40 0b 3e ee 04 5b 3d
       0.12556104 -0.17367034 0.13598754 0.0534715
0003d0 86 55 3f 3e 8f a1 05 3d c5 61 2e 3e 46 6c 13 3e
       0.18684968 0.032624777 0.17029484 0.14396772
0003e0 20 5f e4 3d f8 8d e2 3d cb 79 f6 3d da f6 d1 3d
       0.11150956 0.11062235 0.12034949 0.10252161
0003f0 2b b9 74 3e 4e f6 e5 bd 65 96 23 bf d6 89 3f 3d
       0.23898761 -0.112286195 -0.6390136 0.04676231

fc_out.bias f4 [6]
000000 4c ac 0a 3d 97 c6 08 3d 89 e3 05 3d bd bb 04 3d
       0.03385572 0.033392515 0.032687698 0.032405604
000010 27 0e 06 3d b3 55 03 3d
       0.03272834 0.03206415
