notebooks/DCRNN/No_Adj_15mins/dcrnn_best.pt (torch, 543479 bytes, 8 tensors)

adj f4 [325, 325]
0	0x3fa78f7b	1.3090662
1	0xbbb015ca	-0.005373691
2	0xbce5adb5	-0.028036932
3	0xbce787ed	-0.028263057
4	0xbc163176	-0.009167066
5	0x3d140b5f	0.036143657
6	0x3c443d42	0.011977496
7	0xbcbdf967	-0.023190213
8	0x3c029fdd	0.007972685
9	0xbcd3ec14	-0.025869407
10	0x3abde9f9	0.0014489285
11	0xbc07b7a7	-0.008283532
12	0xbcef5c6b	-0.029218873
13	0x3a95a25c	0.0011416185
14	0x3d45676a	0.048194326
15	0xbcb30b39	-0.021855937
16	0x3b8afde0	0.00424169
17	0xbb5d2ca7	-0.0033748539
18	0xbd6b510a	-0.05745033
19	0x3d8f09d2	0.06984295
20	0xbd4972f7	-0.049181905
21	0x3c0d5006	0.008625036
22	0x3c62abf4	0.013834942
23	0x3cb4e5fb	0.02208232
24	0xbbcaa98a	-0.0061847614
25	0x3be5a5e1	0.0070082997
26	0x3cfe2e9d	0.031028086
27	0x3c85b17b	0.01631998
28	0x3d7f8011	0.062377993
29	0x3cbbb563	0.02291364
30	0xbd196a3f	-0.03745484
31	0xbcc7477a	-0.024326075
32	0xbc61a9d1	-0.013773398
33	0x3d4e562c	0.05037515
34	0x3d314e96	0.043287836
35	0xbc4ea903	-0.012613538
36	0x3dfc3f54	0.123167664
37	0x3b8204f6	0.0039678765
38	0xbcca0639	-0.02466117
39	0x3c167575	0.009183277
40	0xbd0ce6ce	-0.0343998
41	0xbbfb48f4	-0.007668609
42	0x3d1dfa59	0.03856883
43	0x3ccb6963	0.024830526
44	0xbd149fd1	-0.036285225
45	0x3d51fba5	0.051265378
46	0xbc883ccc	-0.016630553
47	0x3ca28f1b	0.019843629
48	0xbc7f9d4c	-0.015601467
49	0xbd2f9b6a	-0.042872824
50	0x3d267190	0.040635645
51	0xbcf03c91	-0.029325755
52	0x3d0a2815	0.03372963
53	0x3ca61c81	0.020277264
54	0xbd5a2a5a	-0.053263046
55	0x3c853772	0.01626179
56	0x3d6a483a	0.057197787
57	0x3d258e20	0.040418744
58	0x3a201c9c	0.0006107779
59	0xbd5fe297	-0.054659452
60	0xbcaa9d2d	-0.0208269
61	0x3d3b38d3	0.04570849
62	0xbb15b52a	-0.0022843578
63	0xbac96cda	-0.0015367523
64	0x3d946ef5	0.07247726
65	0x3c2779fa	0.010221953
66	0x3c024436	0.007950833
67	0x3c79b209	0.015240201
68	0x3c2b5617	0.010457537
69	0x3d9c276a	0.07624705
70	0xbb05b4f5	-0.0020402048
71	0x3d669c2a	0.056301273
72	0x3d478b1d	0.048716653
73	0xbcdf9a16	-0.027295154
74	0x3caad6cd	0.020854378
75	0xbcbb337b	-0.022851696
76	0x3c37be1f	0.011214762
77	0x3c9cef52	0.019157086
78	0x3d641efd	0.055693615
79	0x3bb3faeb	0.0054925582
80	0x3d14fe99	0.036375616
81	0x3d0229a8	0.031778008
82	0x3c043f5b	0.008071746
83	0x3ce2ce61	0.0276863
84	0x3c012b27	0.0078838235
85	0xbd249064	-0.040176764
86	0xbca3289c	-0.019916825
87	0x3cff7bb0	0.031186908
88	0xbd57188c	-0.052513644
89	0x3cb2d196	0.021828454
90	0x3cd4c8de	0.025974687
91	0x3c15e0d5	0.009147842
92	0x3c44a6e2	0.012002679
93	0x3d50e143	0.050996076
94	0x3c632fd1	0.013866381
95	0x3d04d1a9	0.03242651
96	0xbcd3192c	-0.025768839
97	0xbc243047	-0.010021276
98	0x3c0f3f99	0.00874319
99	0x3ca2fe84	0.019896753
100	0x3bdfc428	0.0068288036
101	0x3b74f3ea	0.003737683
102	0x3d193498	0.037403673
103	0x3b97a238	0.0046274923
104	0xbd0c631b	-0.0342742
105	0x3d4fd3e7	0.050739195
106	0xbd4139ce	-0.047174267
107	0xbd2a7ab5	-0.04162093
108	0xbd8f5e80	-0.07000446
109	0xbc16579c	-0.009176161
110	0xbcf83c92	-0.03030232
111	0x3ce3decb	0.027816197
112	0x3c50e613	0.0127501665
113	0xbc327511	-0.010892169
114	0x3d2510df	0.040299293
115	0x3ccf4926	0.025303435
116	0xbce24200	-0.027619362
117	0xbd0fb475	-0.035084207
118	0x3e1fb1b6	0.15595135
119	0x3bb3fb55	0.0054926076
120	0xbd47978e	-0.04872852
121	0x3c8699f8	0.01643084
122	0xbd35d24d	-0.04439001
123	0x3afec86b	0.0019438391
124	0x3deb4d9f	0.114894144
125	0x3cb92ba6	0.022603821
126	0x3c832adf	0.016011653
127	0x3a51b53e	0.00079997245
128	0xbd1f81c7	-0.038942125
129	0x3c8a9882	0.016918425
130	0x3c0198e4	0.007909987
131	0x3c9bb718	0.019008204
132	0x3e0486fe	0.1294212
133	0x3b374eaf	0.0027970483
134	0xbd80a309	-0.062810965
135	0x3d5f3e4e	0.054502778
136	0xbb01401b	-0.0019722048
137	0x3d794910	0.060860693
138	0x3bccbf9c	0.0062484276
139	0x3bff38d8	0.0077887587
140	0xbd90308f	-0.07040512
141	0xbc091b24	-0.008368287
142	0x3cc422f9	0.023942458
143	0x3bb0d91b	0.0053969747
144	0xbcdaf7ec	-0.026729546
145	0x3cc5c98a	0.024143953
146	0x3c2e3ed6	0.010635098
147	0xbc30803e	-0.010772763
148	0x3de2f514	0.11081901
149	0xbd191fb1	-0.03738374
150	0x3a3030a1	0.00067211135
151	0xbd8098de	-0.06279157
152	0x3c34d9fd	0.011038301
153	0x3b9ff0ef	0.0048810164
154	0xbc901341	-0.017587306
155	0xbd1b1331	-0.0378601
156	0x3bb3149d	0.005465104
157	0x3901f48e	0.00012393502
158	0xbba64d73	-0.0050751506
159	0x3d2003b1	0.03906602
160	0xbd5ea417	-0.054355707
161	0x3cc48cf3	0.023992991
162	0xbc9da1ba	-0.019242156
163	0xbda6204c	-0.08111629
164	0xbca1c517	-0.0197473
165	0x3d223654	0.039602593
166	0xbd449661	-0.047994975
167	0x3c99487b	0.01871132
168	0xbd27e5ba	-0.04099057
169	0x3b69e38d	0.003568861
170	0xbb9bb689	-0.0047519845
171	0x3ce37f2d	0.027770603
172	0xbbf16efa	-0.0073679658
173	0x3cb3333c	0.021875016
174	0xbbba0693	-0.0056770532
175	0xbbc08182	-0.0058748135
176	0x3d02aad0	0.03190118
177	0x3ba512a3	0.005037622
178	0x3bd2d2ac	0.0064338055
179	0x3cef01b5	0.029175619
180	0x3d0741be	0.03302168
181	0xbb1e30af	-0.0024137904
182	0xbc8b3ddb	-0.016997268
183	0x3cfd519a	0.0309227
184	0x3c5a4fb0	0.013324663
185	0x3ccf8e4a	0.025336403
186	0xbc62c63a	-0.013841206
187	0xbd3b9792	-0.045798846
188	0xbd10f5e7	-0.03539076
189	0x3ccf1aef	0.025281398
190	0xbc74bd22	-0.014937671
191	0x3a80a75b	0.0009815501
192	0xbc14491d	-0.009050635
193	0x3c5f3aed	0.013624889
194	0xbcbcc581	-0.023043396
195	0xbd407d00	-0.04699421
196	0x3cef14ca	0.029184718
197	0xbc480fdd	-0.012210813
198	0xbc029bb8	-0.007971697
199	0x3cbb3d9c	0.022856526
200	0x3d75cff2	0.060012765
201	0xbd935bc3	-0.071952365
202	0x3d3b615a	0.04574714
203	0x3d1a52b2	0.03767652
204	0xbcafd8c3	-0.021465665
205	0xbc6c65f2	-0.0144286025
206	0xbc79eb21	-0.015253813
207	0x3d3e78dd	0.046501983
208	0xbd9241ee	-0.07141481
209	0xbca16053	-0.019699251
210	0x3c44b8e5	0.012006973
211	0x3d778382	0.06042815
212	0xbbdee82f	-0.006802581
213	0x3d8b5d6d	0.06804929
214	0x3dc9342e	0.098244056
215	0x3bf46f67	0.0074595693
216	0x3e4190a6	0.18902835
217	0x3c708219	0.014679455
218	0xbd285d88	-0.041104823
219	0x3cc9ce87	0.024634613
220	0x39eba57b	0.00044945985
221	0xbc7a6a19	-0.015284085
222	0xbd92acbe	-0.07161854
223	0xbcebb848	-0.028774396
224	0xbc66dd16	-0.014090797
225	0xbd10929c	-0.035296068
226	0xbd272631	-0.040807907
227	0x3d1ffeb4	0.039061263
228	0x3c33dc82	0.010977866
229	0xbc927457	-0.01787774
230	0x3bc93579	0.0061404076
231	0x3cb1d2ba	0.021706928
232	0x3ca06a26	0.019581866
233	0xbce9e483	-0.028551346
234	0xbb1f1e65	-0.002427959
235	0xbd079e94	-0.033110216
236	0x3cc01ddc	0.023451738
237	0xbbfd94db	-0.007738692
238	0x3cc3f43b	0.02392017
239	0x3caff430	0.021478742
240	0xbda8c5d2	-0.08240856
241	0x3d2bfa01	0.04198647
242	0xbc863eeb	-0.016387424
243	0x3ce83ffd	0.028350824
244	0xbd00b49a	-0.031422235
245	0xbd195690	-0.037436068
246	0xbc905859	-0.017620252
247	0xbd138734	-0.03601761
248	0x3d547457	0.051868763
249	0x3d825651	0.0636412
250	0x3d87c01b	0.06628438
251	0x3d1060a2	0.035248406
252	0xbc9b9cdf	-0.0189957
253	0x3dd4440d	0.10364542
254	0xbd45e856	-0.048317276
255	0xbceb74c5	-0.028742203

cell.diff.theta f4 [65, 64]
0	0x3e128c09	0.14311232
1	0x3e4648ef	0.1936376
2	0xbe6bcbc1	-0.23026945
3	0xbdba6b49	-0.09102494
4	0x3e255ad8	0.16147935
5	0x3e598ac2	0.21244338
6	0xbe62f502	-0.22163776
7	0xbd4c0eb7	-0.04981872
8	0x3ad97103	0.0016589466
9	0xbd5da371	-0.054110948
10	0x3d6f586f	0.058433946
11	0xbd6988b5	-0.05701514
12	0xbe4e6d73	-0.20158939
13	0xbe653b45	-0.22385891
14	0xbd56067d	-0.05225228
15	0xbd9c4326	-0.07629995
16	0xbdb2bb9f	-0.08727192
17	0xbe6bfc81	-0.23045541
18	0xbda61797	-0.08109968
19	0x3c8820f5	0.016617278
20	0xbe5209b3	-0.20511512
21	0x3e3fdcd1	0.18736579
22	0x3de83381	0.113379486
23	0x3dd42b7c	0.103598565
24	0x3de814d3	0.11332097
25	0x3db409e3	0.08790948
26	0x3e3e3c93	0.18577795
27	0xbe61eece	-0.22063753
28	0x3e556d95	0.20842583
29	0xbd080729	-0.033209953
30	0xbe7fd236	-0.24982533
31	0xbe40d6c8	-0.18831933
32	0x3cef8f0a	0.029243011
33	0xbe5dc2ba	-0.21656314
34	0x3c3a3275	0.011364569
35	0xbd034260	-0.032045722
36	0x3e4c082d	0.19924994
37	0xbe5c630b	-0.21522157
38	0xbe498e2c	-0.1968314
39	0xbe674597	-0.2258514
40	0x3e0a3760	0.13497686
41	0x3cfe760a	0.031062145
42	0x3e64e6a6	0.2235361
43	0x3e1127ec	0.14175385
44	0x3e565254	0.20929843
45	0x3dd83c74	0.105584055
46	0x3e694767	0.22781144
47	0xbdb70e77	-0.08938306
48	0xbe26d354	-0.16291553
49	0x3e598fb3	0.21246223
50	0x3e82f88e	0.25580257
51	0xbe318265	-0.17334898
52	0x3e09505c	0.13409561
53	0x3e64bc81	0.22337534
54	0x3e635208	0.22199261
55	0x3d8baa95	0.06819645
56	0xbe5b1729	-0.21395554
57	0x3e03437d	0.12818713
58	0x3e0fb3dd	0.14033456
59	0x3e6ad5a5	0.22933061
60	0xbc4aef21	-0.012386114
61	0xbde77ac8	-0.113027155
62	0x3e1b676e	0.15176174
63	0x3e6e480a	0.23269668
64	0xbe05cb99	-0.13065948
65	0xbd21e6d3	-0.03952677
66	0x3c95e9bc	0.01829993
67	0x3e3ced01	0.18449785
68	0x3cb220d6	0.021744173
69	0xbd8cd66b	-0.068768345
70	0x3d30da35	0.04317685
71	0x3d82578d	0.06364355
72	0x3d6626ee	0.05618947
73	0x3e801ba9	0.25021103
74	0x3cdf51dd	0.027260715
75	0x3e141968	0.14462817
76	0xbc7a848a	-0.015290389
77	0xbcfa2548	-0.030535355
78	0xbdff22e7	-0.12457829
79	0xbde289d7	-0.11061447
80	0x3dffa5cc	0.12482795
81	0x3d2c1009	0.04200748
82	0xbe03a4c0	-0.12855816
83	0xbd37c9e1	-0.04487026
84	0x3d2fc575	0.04291292
85	0x3d2235c3	0.039602052
86	0xbd6f1929	-0.058373604
87	0x3cdf34ce	0.027246859
88	0xbc59f47e	-0.01330292
89	0x3d564898	0.052315325
90	0x3cf2d903	0.029644495
91	0x3d5e4c98	0.054272264
92	0xbd330ae6	-0.043711565
93	0x3ddcaa45	0.10774664
94	0xbd374721	-0.04474557
95	0xbc8e0a09	-0.01733877
96	0xbd90f66e	-0.07078253
97	0x3d40619d	0.04696809
98	0x3dc3b1bb	0.09555384
99	0x3db5afd7	0.088714294
100	0xbbc40b99	-0.005982828
101	0x3db471f6	0.08810799
102	0x3c476902	0.012171032
103	0xbb943c38	-0.00452378
104	0x3d98d084	0.07461646
105	0x3d0da66b	0.034582537
106	0x3d523b5b	0.051326137
107	0xbcb82191	-0.022476943
108	0xbde1c370	-0.11023605
109	0x3d182c8d	0.037151862
110	0xbdc6704a	-0.09689386
111	0x3e3e9be3	0.18614154
112	0x3dae67d5	0.08515898
113	0xbe033d8a	-0.12816444
114	0xbdad593d	-0.084642865
115	0xbda46a92	-0.08028139
116	0xbd93ac28	-0.072105706
117	0xbb3db953	-0.0028949573
118	0x3b30a412	0.0026953262
119	0xbe263e4b	-0.162347
120	0xbcb7652c	-0.02238711
121	0x3db57996	0.08861081
122	0xbd6eaec9	-0.058272157
123	0xbc85a588	-0.016314283
124	0x3e29234c	0.16517371
125	0xbd02b490	-0.03191048
126	0xbe392473	-0.1808031
127	0xbdfdc698	-0.123913944
128	0xbc100b73	-0.008791792
129	0xbcf152a9	-0.02945836
130	0x3df4c367	0.119513325
131	0xbd540061	-0.051758174
132	0x3d41d9ef	0.04732698
133	0xbd30360b	-0.04302029
134	0xbdc19c22	-0.09453608
135	0x3c4e8079	0.012603872
136	0x3dba4a93	0.09096255
137	0xbdbdf021	-0.092743166
138	0xbe0e008f	-0.138674
139	0x3de25b9b	0.110526286
140	0xbc44b426	-0.012005841
141	0x3e188ab9	0.14896668
142	0x3e41adda	0.18913975
143	0xbdb313d9	-0.0874402
144	0xbb9b0bb0	-0.004731618
145	0xbc18a150	-0.009315804
146	0x3e0e9fbc	0.13928121
147	0xbda04cb0	-0.07827127
148	0x3d319e03	0.043363582
149	0xbd87a124	-0.06622532
150	0xbe22cbe5	-0.15898092
151	0xbdac0e35	-0.08401147
152	0x3d44b377	0.048022714
153	0xbdfc82de	-0.123296484
154	0xbca2932b	-0.019845566
155	0x3d74761d	0.059682954
156	0xbe31ffda	-0.17382756
157	0x3d6217af	0.055198368
158	0x3cd401c6	0.025879752
159	0xbcaecd34	-0.021338083
160	0xbe573f47	-0.21020232
161	0x3e1ffe9c	0.1562447
162	0x3e01f5b0	0.12691379
163	0x3c338123	0.010956082
164	0xbe11e0a5	-0.14245851
165	0x3e5a2b76	0.21305642
166	0x3cfdd3c0	0.03098476
167	0x3e492c64	0.1964584
168	0xbe0ddc14	-0.13853484
169	0xbe5da15e	-0.21643588
170	0x3dc90c5d	0.09816811
171	0xbd681c56	-0.05666765
172	0xbe017ac1	-0.12644483
173	0xbe0e7cd6	-0.13914809
174	0xbe44ee69	-0.19231571
175	0xbdc1a96b	-0.09456142
176	0x3da646c8	0.08118969
177	0x3cd09518	0.025461718
178	0xbdba8c54	-0.09108797
179	0x3e0fd259	0.14045085
180	0x3b42adf4	0.0029705735
181	0xbcba5ed9	-0.022750305
182	0xbc5a12f2	-0.013310181
183	0xbd08a33b	-0.033358794
184	0x3d8a2d42	0.067469135
185	0x3c90d899	0.017681407
186	0x3d795e68	0.06088105
187	0xbdd82b4f	-0.105551355
188	0x3c04d04c	0.0081063025
189	0x3cf17766	0.029475879
190	0xbe3a5343	-0.18195824
191	0xbdf49428	-0.11942321
192	0xbd5b61de	-0.05356013
193	0xbd9be432	-0.07611884
194	0x3cad43b9	0.021150457
195	0x3e015785	0.12631042
196	0xbdb6a467	-0.08918076
197	0xbcd37fb4	-0.02581773
198	0x3d9e8163	0.07739522
199	0x3d8d3b8f	0.068961255
200	0xbe281078	-0.16412532
201	0x3e79a2b9	0.2437848
202	0xbe1ff8b9	-0.15622224
203	0xbc8533cc	-0.01626005
204	0xbdbc475f	-0.091933005
205	0x3db37bb6	0.0876383
206	0x3d7a5f51	0.061126057
207	0xbdbceade	-0.09224485
208	0xbda3f29f	-0.08005261
209	0xbd6ffa6d	-0.058588434
210	0xbdb1543a	-0.08658643
211	0xbd73e3b7	-0.059543338
212	0x3c824960	0.015904129
213	0xbd167ef0	-0.03674215
214	0x3da27672	0.07932748
215	0xbe4b66f8	-0.19863498
216	0x3d454938	0.04816553
217	0x3e01dd60	0.12682104
218	0x3c768f1d	0.015048769
219	0x3da6f15c	0.081515044
220	0x3da5d87c	0.08097932
221	0xbd31865e	-0.043341033
222	0x3bf1092e	0.0073558306
223	0x3d23dd70	0.0400061
224	0xbd7d7daa	-0.06188742
225	0x3cb5aaa5	0.022176096
226	0xbd59d53c	-0.05318187
227	0xbcaa1ae9	-0.020764785
228	0x3bb89499	0.0056329486
229	0xbe1aaea3	-0.15105681
230	0x3cb517a6	0.022106003
231	0xbb0f82a7	-0.0021897943
232	0x3e1541ea	0.14575925
233	0x3dd5767e	0.10422991
234	0xbe09f28f	-0.13471435
235	0x3d4b367d	0.04961251
236	0xbd801251	-0.062534936
237	0x3ca7513f	0.020424483
238	0x3d03a92c	0.032143757
239	0x3e02ea9c	0.12784809
240	0x3d75ea43	0.060037863
241	0x3d5c7b22	0.053828366
242	0xbd82355b	-0.06357833
243	0x3e130d11	0.14360453
244	0xbd76a5e7	-0.06021681
245	0xbd61bf9b	-0.05511437
246	0xbda321d3	-0.07965436
247	0x3d939c8a	0.07207592
248	0xbd3e9680	-0.046530247
249	0xbd40a0b6	-0.047028266
250	0x3d2f74b4	0.042835906
251	0x3d82e79f	0.063918345
252	0xbc85743f	-0.016290782
253	0x3ce2618f	0.02763441
254	0x3d830b13	0.063985966
255	0x3c68560b	0.0141806705

cell.gru.weight_ih f4 [192, 64]
0	0xbe5f2c84	-0.21794325
1	0x3e9373be	0.28799242
2	0xbee31c13	-0.44357356
3	0xbe4545d3	-0.19264917
4	0xbe04a9c5	-0.12955387
5	0x3dd40c24	0.10353878
6	0x3e0b41e0	0.13599348
7	0xbe8ed840	-0.2789936
8	0x3f07ca25	0.53042823
9	0xbdbb8b4c	-0.09157428
10	0x3f0ffcc1	0.56245047
11	0x3e0effe2	0.13964799
12	0xbec9e0d6	-0.3942935
13	0xbec4190c	-0.3830036
14	0xbd18bbd1	-0.03728849
15	0x3e86929e	0.26283735
16	0xbe15ae11	-0.14617182
17	0xbd8585be	-0.0651965
18	0x3e06b23b	0.13153927
19	0xbebab5ae	-0.36466736
20	0xbe855733	-0.2604309
21	0x3e906bab	0.28207144
22	0xbdbef447	-0.09323936
23	0x3e87f6d1	0.26555493
24	0xbbd17e75	-0.0063932487
25	0xbe300792	-0.17190388
26	0x3e1a9b1d	0.15098234
27	0xbe7251f3	-0.23664074
28	0xbdd25d31	-0.10271681
29	0x3edc8140	0.4306736
30	0xbe7d0830	-0.24710155
31	0xbeadb9bf	-0.33930776
32	0xbe167fb3	-0.14697151
33	0xbcf381ee	-0.029725041
34	0x3e81fec0	0.2538967
35	0x3e6b907a	0.23004332
36	0x3f1ad027	0.60473865
37	0x3e0356cd	0.1282608
38	0xbd7a3133	-0.061082076
39	0xbeee25ee	-0.46513313
40	0xbe875f86	-0.26440066
41	0xbe7e7319	-0.24848594
42	0x3e1b06e2	0.15139344
43	0xbdfa3fd3	-0.12219205
44	0xbe81f7ef	-0.2538447
45	0xbe6832de	-0.22675654
46	0x3f14b360	0.58086205
47	0x3dbd4492	0.092415944
48	0xbba49863	-0.0050230487
49	0xbe0110b5	-0.1260403
50	0x3f046a01	0.5172425
51	0xbf6a335c	-0.9148462
52	0x3e1279a3	0.14304213
53	0xbc49dd7a	-0.0123208705
54	0x3ed4e809	0.4158328
55	0xbed1a067	-0.4094269
56	0xbea556dd	-0.32292834
57	0x3d824b23	0.063619874
58	0xbdbf0a6f	-0.09328162
59	0xbe49b5ae	-0.19698212
60	0xbee553f5	-0.44790617
61	0x3bd7a1b5	0.0065805563
62	0x3c82b974	0.015957572
63	0x3e25df6c	0.1619851
64	0x3d49c21a	0.049257375
65	0xbd9cb2ae	-0.07651268
66	0x3e014940	0.12625599
67	0x3d09aaff	0.03361034
68	0x3c65e9f7	0.014032832
69	0xbe50566a	-0.20345464
70	0xbd3352b3	-0.04378004
71	0x3e087316	0.13325152
72	0xbaa9f4a3	-0.0012966584
73	0xbe12883c	-0.14309782
74	0x3b8288ed	0.003983608
75	0x3c7f2a00	0.015573978
76	0xbcb1317b	-0.02163004
77	0xbc213f24	-0.009841714
78	0x3c9bcef0	0.019019574
79	0xbd9d5b5a	-0.076834396
80	0xbd9f4989	-0.077776976
81	0xbb0fa0d1	-0.0021915922
82	0xbd09db2f	-0.033656295
83	0x3d966423	0.07343318
84	0x3d639718	0.055564016
85	0xb95f6f0e	-0.00021308308
86	0x3e45b58a	0.19307533
87	0x3d1ec992	0.03876645
88	0x3da95591	0.082682736
89	0x3d5f33d0	0.05449277
90	0xbd70cfb5	-0.058791835
91	0x3c3db9a4	0.011579905
92	0xbe101811	-0.1407168
93	0xbdb29f1a	-0.087217525
94	0xbcfa1cfc	-0.030531399
95	0x3e136196	0.14392695
96	0x3e01f9a0	0.1269288
97	0x3dc5bc8b	0.09655102
98	0xbd8d3c0d	-0.068962194
99	0xbcdfb592	-0.02730826
100	0x3d3644e4	0.044499293
101	0x3c9b60d5	0.018967072
102	0xbd7fce47	-0.06245258
103	0x3de6d717	0.11271494
104	0x3e3191f1	0.17340828
105	0x3dc5634e	0.096380815
106	0x3d0b1b5f	0.03396165
107	0xbc18c185	-0.009323482
108	0xbd7a0730	-0.06104201
109	0x3e226212	0.15857723
110	0xbdf01e05	-0.11724476
111	0x3d5540f2	0.05206389
112	0x3bf74154	0.0075456295
113	0xbba54f01	-0.0050448184
114	0xbe499314	-0.19685012
115	0x3e596724	0.21230751
116	0x3d8ef3f7	0.06980126
117	0xbd025014	-0.03181465
118	0xbe354a70	-0.17704177
119	0x3e02cbdf	0.12773083
120	0x3dc67f4a	0.09692247
121	0xbca80b33	-0.020513153
122	0x3d2e8e10	0.04261595
123	0x3d6e1943	0.05812956
124	0x3e39bb84	0.18137938
125	0x3d7b72cf	0.061388787
126	0xbc505c20	-0.012717277
127	0xbe4a632d	-0.19764395
128	0x3ebd94c7	0.3702757
129	0x3e6b3bac	0.22971982
130	0xbd963a00	-0.07335281
131	0x3d5145cf	0.051091965
132	0xbd25f828	-0.040519863
133	0xbe40535c	-0.18781799
134	0xbe741fbe	-0.23840234
135	0x3d926b18	0.07149333
136	0xbef518b7	-0.47870418
137	0xbd42d437	-0.047565665
138	0xbd8b93c0	-0.068152905
139	0xbea29e33	-0.3176132
140	0x38153d62	3.5581535e-05
141	0xbb278822	-0.002556332
142	0xbd8b4da1	-0.06801916
143	0xbd0c8e81	-0.03431559
144	0xbe27d857	-0.16391121
145	0xbe5575e5	-0.20845754
146	0xbefffad5	-0.49996057
147	0x3e425067	0.18975984
148	0x3cc3de5f	0.023909746
149	0xbe9fae4e	-0.3118767
150	0x3dc8f73c	0.09812781
151	0xbe4f6605	-0.20253761
152	0x3e80c811	0.2515264
153	0x3e910df7	0.28330967
154	0x3d9a463a	0.07532926
155	0xbcbf0a62	-0.02332038
156	0xbc02bfcc	-0.007980298
157	0xbef432be	-0.47694963
158	0x3e2d3e72	0.16918352
159	0x3da1dc91	0.07903398
160	0x3e9e037d	0.30862036
161	0xb31d3ff9	-3.6612594e-08
162	0xbe960c1c	-0.29306114
163	0xbecb128b	-0.39662585
164	0xbe40c2da	-0.1882433
165	0xbe7a4894	-0.24441749
166	0xbd961393	-0.07327952
167	0x3e4995f6	0.19686112
168	0x3e431f75	0.19054969
169	0x3e9b01d6	0.30274838
170	0x3e144989	0.14481176
171	0x3e6c0720	0.23049593
172	0x3df6f06a	0.12057574
173	0x3e625850	0.22104001
174	0x3c88e516	0.0167108
175	0x3cd47455	0.025934378
176	0xbbe61c71	-0.0070224334
177	0xbce8c16a	-0.02841254
178	0xbe0a2f73	-0.13494663
179	0x3f0358cc	0.5130737
180	0xbddddef3	-0.1083354
181	0xbdcd30cf	-0.10019075
182	0xbe55cf85	-0.20879944
183	0x3e9f9252	0.3116632
184	0x3dd774d2	0.105203286
185	0xbbad3993	-0.0052864044
186	0x3e02a75c	0.12759155
187	0x3cb8cd0f	0.022558717
188	0x3eb7923e	0.3585376
189	0xbe903498	-0.28165126
190	0x3e1efb1b	0.15525477
191	0x3d077b68	0.033076674
192	0xbdcb3c9f	-0.09923672
193	0xbd9a6a5b	-0.07539817
194	0xbc2a20f0	-0.0103838295
195	0x3da18be4	0.0788801
196	0x3b5efd51	0.00340255
197	0xbd67085f	-0.056404468
198	0x3d3db378	0.046313733
199	0xbde20b3a	-0.110372975
200	0xbdbf0f79	-0.09329123
201	0xbdc3747d	-0.09543703
202	0x3d562c3b	0.052288275
203	0xbd4db4d6	-0.050221287
204	0x3d48c04a	0.049011506
205	0x3d168946	0.036752008
206	0xbbbdb2f1	-0.0057891537
207	0xbe7ccf72	-0.24688509
208	0x3e0b41a3	0.13599257
209	0x3df20bae	0.11818634
210	0x3d9ab1bf	0.075534336
211	0x3d461b29	0.048365746
212	0x3daf28d3	0.085527085
213	0xbcef1c77	-0.029188378
214	0x3d89512e	0.06704937
215	0xbe2f3dcb	-0.17113416
216	0x3d982a86	0.07429986
217	0x3d8a6ad3	0.06758656
218	0x3d82a02f	0.06378209
219	0x3db23a08	0.08702475
220	0xbd2b3e27	-0.04180732
221	0xbe2fc1c1	-0.17163755
222	0x3d9b144c	0.07572231
223	0x3d008e68	0.03138581
224	0x3e1c5471	0.15266587
225	0x3c4f1382	0.012638928
226	0x3dc5ccfe	0.0965824
227	0xbd6f00e6	-0.058350466
228	0xbe13c338	-0.14429939
229	0x3dbaf14a	0.091280535
230	0x3e3d3a3b	0.18479244
231	0x3db04172	0.08606233
232	0x3dac31b2	0.08407916
233	0x3e2dd658	0.16976297
234	0xbd5f515c	-0.05452095
235	0x3cb6c121	0.022308888
236	0x3daadce4	0.08342913
237	0x3e8a0ac2	0.26961333
238	0x3ba0d27d	0.0049079047
239	0x3ad3d995	0.0016162867
240	0x3ae44b9c	0.0017417553
241	0xbe13dabe	-0.14438912
242	0xbccb0b09	-0.024785535
243	0xbce2e645	-0.027697692
244	0xbd423220	-0.047411084
245	0xbd6d41d7	-0.057924118
246	0xbd9ad81f	-0.07560753
247	0xbdf483a8	-0.11939174
248	0x3d280f45	0.041030187
249	0xbd9545d6	-0.07288711
250	0x3bf50143	0.007476957
251	0xbdb84321	-0.08997179
252	0xbca1c574	-0.019747473
253	0xbe63a6f3	-0.22231655
254	0x3c8c4153	0.017120993
255	0xbd4a677c	-0.049415097

cell.gru.weight_hh f4 [192, 64]
0	0xbc8e4485	-0.017366657
1	0x3e447875	0.19186576
2	0xbf32a498	-0.697824
3	0x3e16e383	0.14735226
4	0xbe0403f5	-0.12892134
5	0x3e410fa9	0.1885363
6	0x3d9e5d6e	0.07732664
7	0xbdbfabf5	-0.0935897
8	0xbe27bf8c	-0.16381663
9	0x3dbb4249	0.09143502
10	0x3d39578e	0.045249514
11	0xbd80d513	-0.06290641
12	0x3d4ae908	0.049538642
13	0x3e7afff4	0.24511701
14	0xbd80fe41	-0.06298495
15	0x3c394b14	0.011309404
16	0x3f34e73f	0.70665354
17	0x3eae6424	0.34060776
18	0x3eb6187a	0.3556555
19	0xbcdf7751	-0.027278574
20	0x3e87f897	0.26556846
21	0xbd9893a3	-0.074500345
22	0xbe51c2d4	-0.20484477
23	0x3e0c30f8	0.13690555
24	0x3e99e8d1	0.30060437
25	0xbdfd43ce	-0.12366448
26	0xbe6ed35f	-0.23322819
27	0x3ea11d8d	0.31467858
28	0x3dbc6f42	0.09200908
29	0x3e8253ee	0.25454658
30	0xbec063b6	-0.37576073
31	0x3e9bebca	0.3045333
32	0xbd3fa4d3	-0.046788048
33	0x3eea17cc	0.4572128
34	0x3e7b0c70	0.24516463
35	0x3ecaf663	0.39641103
36	0xbdd20abb	-0.10255953
37	0xbe358aec	-0.17728776
38	0xbd417867	-0.047233965
39	0xbe38ea7b	-0.18058197
40	0xbdd61c41	-0.10454608
41	0x3cf28cad	0.029608095
42	0xbeda566e	-0.42644066
43	0xbd90d043	-0.07070973
44	0xbea0372b	-0.3129209
45	0x3e8932a1	0.2679644
46	0x3d4bd0b9	0.0497596
47	0xbf042952	-0.5162555
48	0xbe746b0b	-0.23868959
49	0xbe22010f	-0.15820716
50	0xbe575635	-0.21028979
51	0x3d829b47	0.06377273
52	0xbe5a51f4	-0.21320325
53	0x3db242cb	0.08704146
54	0xbe88363f	-0.26603886
55	0xbcd8bc7a	-0.02645706
56	0xbd4f35ee	-0.05058854
57	0x3d54a0ae	0.05191105
58	0x3e778ea3	0.24175505
59	0xbe106848	-0.1410228
60	0xbf58f1bd	-0.84743863
61	0xbe5ae4be	-0.2137632
62	0x3d6fce62	0.05854643
63	0x3e54d529	0.20784439
64	0x3e823b08	0.25435662
65	0x3e84367d	0.2582282
66	0x3cf500b0	0.029907554
67	0x3d75292c	0.059853718
68	0x3c89f61e	0.01684099
69	0x3dd736d7	0.10508507
70	0x3ddd4c1e	0.10805534
71	0xbbbdbd63	-0.005790399
72	0xbdc439a1	-0.09581304
73	0x3ca7be04	0.020476349
74	0x3da0551d	0.07828734
75	0xbb378e4e	-0.0028008404
76	0xbcbd7c8f	-0.023130683
77	0x3d282429	0.04105011
78	0xbd30eee5	-0.043196578
79	0x3cb2b2a0	0.02181369
80	0xbd371fcb	-0.044708055
81	0xbdda50b2	-0.10659923
82	0xba91db65	-0.0011128007
83	0x3d26ac71	0.040691797
84	0x3dcc5886	0.09977822
85	0x3cc31671	0.023814412
86	0x3d269d82	0.040677555
87	0xbd8400c2	-0.06445457
88	0xbe00873b	-0.12551586
89	0x3cfa387d	0.030544514
90	0x3d79b580	0.060964108
91	0x3e0064bb	0.12538426
92	0xbc4c4be1	-0.012469263
93	0xbe1380f6	-0.14404663
94	0x3ce9293e	0.028462049
95	0xbd4a5af3	-0.049403142
96	0xbd852fca	-0.06503256
97	0xbcd24e84	-0.025672205
98	0xbe335be9	-0.1751553
99	0x3d9aa626	0.075512215
100	0xbcbe4caa	-0.023229916
101	0x3d922126	0.07135229
102	0xbd15e57f	-0.036595818
103	0x3d35a50f	0.044346865
104	0x3e4345a6	0.19069538
105	0x3bc5febd	0.00604233
106	0x3d9ebd9f	0.07751011
107	0xbdc5631d	-0.09638045
108	0x3da667ce	0.08125268
109	0x3c41f5cf	0.0118383905
110	0x3c166db0	0.009181425
111	0x3c16d62b	0.009206335
112	0x3d9ad652	0.075604096
113	0x3c534d6f	0.01289688
114	0x3e3a2d5a	0.18181363
115	0x3cf8bf11	0.030364545
116	0x3d74fcee	0.059811525
117	0x3c71b338	0.014752202
118	0xbe07633c	-0.13221449
119	0x3e30607a	0.17224303
120	0xbd82a0c8	-0.06378323
121	0xbdda940f	-0.10672771
122	0xbd3e45a5	-0.046453137
123	0xbe1b9d2c	-0.15196675
124	0x3daa4ad9	0.08315057
125	0xbddd5df2	-0.10808934
126	0x3e0c2ec6	0.13689718
127	0xbcf784de	-0.030214723
128	0x3f68b463	0.9090025
129	0x3d8466f0	0.06464946
130	0x3d56ac10	0.052410185
131	0x3db82f0a	0.08993347
132	0x3eb364da	0.3503788
133	0xbed22bd1	-0.41049054
134	0x3ebc6bf0	0.368011
135	0x3dbacbeb	0.091209255
136	0x3e6635d4	0.22481471
137	0x3d8fe47e	0.07026003
138	0x3e08629a	0.13318864
139	0x3e451ba4	0.19248825
140	0x3d187762	0.037223227
141	0xbe87baa4	-0.26509583
142	0x3ea27e6c	0.31737077
143	0xbd1a8a76	-0.037729703
144	0xbf780555	-0.96883136
145	0xbdc46ad6	-0.0959069
146	0xbe1139a3	-0.14182143
147	0xbce63c05	-0.028104791
148	0x3ce6f99b	0.028195193
149	0x3f0a7625	0.54086524
150	0x3e071cb0	0.13194537
151	0x3e0cb06d	0.13739176
152	0xbde0c8f0	-0.10975826
153	0x3f4d2359	0.8013206
154	0xbdcd7e76	-0.10033886
155	0x3d1f67ef	0.03891748
156	0xbe5bf72b	-0.21481006
157	0xbef74bc2	-0.48299986
158	0xbd770e8e	-0.060316615
159	0xbf1ea9a0	-0.6197758
160	0xbea06066	-0.31323546
161	0xbe088c4c	-0.13334769
162	0xbf0bcef8	-0.54612684
163	0xbe7f74cb	-0.24946897
164	0x3d107443	0.035267126
165	0x3e3b2ca3	0.18278746
166	0x3d2d220e	0.042268805
167	0xbcfbc78b	-0.030734798
168	0x3e85028b	0.25978503
169	0x3e9c9b11	0.30587056
170	0x3e20df16	0.157101
171	0x3e9dcfc5	0.30822578
172	0x3e36479c	0.17800754
173	0xbdcd6df6	-0.10030739
174	0xbe0fca1c	-0.14041942
175	0x3eb375aa	0.35050708
176	0x3b877ab0	0.0041344985
177	0x3e988dfc	0.29795825
178	0x3f3b49e0	0.731596
179	0x3dff42a2	0.12463881
180	0x3e50db9b	0.20396273
181	0xbe840cac	-0.25790918
182	0xbc5339fe	-0.012892244
183	0x3dd7d7d1	0.105392106
184	0xbdf95335	-0.121740736
185	0xbe39d1fc	-0.18146509
186	0xbdbad7a2	-0.0912316
187	0x3e6ccc12	0.23124722
188	0x3edb6ecd	0.42857972
189	0x3d316f4c	0.04331903
190	0xbc973074	-0.018455721
191	0xbf2f3761	-0.68443877
192	0x3dc4882d	0.09596286
193	0xbd569bc6	-0.05239465
194	0xbd392f7b	-0.045211297
195	0x3dcd0738	0.100111425
196	0xbda683a8	-0.0813058
197	0xbd2b8a46	-0.041879915
198	0xbd140257	-0.036135044
199	0x3ca34a1e	0.019932803
200	0xbc9809aa	-0.018559296
201	0x3d6bc278	0.057558507
202	0xbbb00a9d	-0.005372359
203	0xbdd44e60	-0.10366511
204	0x3d80eced	0.0629519
205	0xbe4130fa	-0.1886634
206	0xbccc2231	-0.024918647
207	0xbd89dc86	-0.06731515
208	0x3d33162c	0.043722317
209	0x3e1135ce	0.14180681
210	0x3c42a504	0.011880163
211	0xbd7432e0	-0.05961883
212	0x3d2d88c5	0.04236676
213	0x3d8d9496	0.06913106
214	0xbccdd27c	-0.02512478
215	0x3dd1329e	0.102147326
216	0x3d82ee65	0.063931264
217	0x3e216cfa	0.15764228
218	0xbd478c71	-0.04871792
219	0x3db1bdd7	0.08678787
220	0x3d58e395	0.052951414
221	0xbdd5cd0c	-0.104395
222	0xbde798a0	-0.11308408
223	0x3d8f1a7c	0.06987473
224	0xbc08083c	-0.0083027445
225	0x3db2d7a2	0.08732535
226	0xbc611a90	-0.013739243
227	0x3cc81cbb	0.024427762
228	0xbd889e5c	-0.0667083
229	0x3d6aa32b	0.057284515
230	0xbe035346	-0.12824735
231	0x3da4956e	0.08036314
232	0x3c1df9b2	0.0096420515
233	0x3d861b07	0.06548124
234	0x3db03ad2	0.08604969
235	0xbdd79477	-0.10526364
236	0x3d9e40e4	0.07727221
237	0x3cc28a90	0.023747712
238	0x3de89ab9	0.11357636
239	0x3e1c65a9	0.15273155
240	0x3e15a63a	0.14614192
241	0x3d9297f5	0.0715789
242	0xbda1d916	-0.07902734
243	0x3de4ef2b	0.1117843
244	0x3ac1297c	0.0014737095
245	0xbdc949d0	-0.09828532
246	0x3e0646fc	0.13113016
247	0x3c8a03a0	0.016847432
248	0xbce61792	-0.028087411
249	0xbbd10fba	-0.0063800486
250	0x3e275c41	0.16343786
251	0x3d9f604a	0.077820376
252	0xbdc110ac	-0.09427008
253	0x3d104cde	0.035229556
254	0x3d0c1497	0.034199324
255	0x3df47e04	0.11938098

cell.gru.bias_ih f4 [192]
0	0xbd5acfd5	-0.05342086
1	0xbe0fbc86	-0.1403676
2	0xbe92fd78	-0.28709006
3	0xbdfe988d	-0.124314405
4	0xbe4bf760	-0.19918585
5	0xbe4d3aec	-0.20042008
6	0xbe2a99b9	-0.16660203
7	0xbf0121fa	-0.5044247
8	0x3e385e00	0.18004608
9	0xbeac21b7	-0.33619472
10	0x3dbe037f	0.092780106
11	0x3e56a0c7	0.20959769
12	0xbddadd25	-0.10686711
13	0x3cc0fde9	0.023558574
14	0xbe1bda64	-0.15220028
15	0xbe3585f7	-0.17726885
16	0xbd0a9c3c	-0.033840403
17	0xbe6dbd75	-0.23216803
18	0x3e9d4607	0.3071749
19	0xbe2dd7ef	-0.16976903
20	0xbe02e818	-0.12783849
21	0xbdaa375d	-0.08311341
22	0xbe53fec3	-0.20702653
23	0xbe81a600	-0.2532196
24	0xbd0bf3f3	-0.034168195
25	0xbedbddf3	-0.4294277
26	0xbedccb12	-0.4312368
27	0xbdc5b600	-0.09653854
28	0x3df5dd98	0.12005156
29	0xbd68661b	-0.056738
30	0xbf3bcc5f	-0.7335872
31	0xbe00f255	-0.12592442
32	0x3e66ed94	0.22551566
33	0x3dba1065	0.09085158
34	0xbcfd90fc	-0.030952923
35	0xbe9793c5	-0.29604927
36	0x3c722e54	0.014781553
37	0xbe34ffe3	-0.17675738
38	0xbee47939	-0.44623736
39	0xbd8b1e7c	-0.06792924
40	0x3da046eb	0.078260265
41	0x3dc06f2c	0.09396204
42	0xbea845cc	-0.3286575
43	0x3db267c4	0.08711198
44	0xbde126e3	-0.10993745
45	0xbe5c7c09	-0.2153169
46	0xbe1000c4	-0.14062792
47	0xbea7b9ac	-0.32758844
48	0xbea80aa1	-0.3282061
49	0x3d757d63	0.05993403
50	0xbdb8c369	-0.090216465
51	0xbe8155d5	-0.25260797
52	0xbe6d9461	-0.23201133
53	0xbe9a4f4a	-0.30138618
54	0xbe12b66e	-0.14327404
55	0x3ea13181	0.3148308
56	0xbcd68dcc	-0.02619066
57	0xbe6f36bf	-0.23360728
58	0xbedfdbe4	-0.4372245
59	0xbe80bd12	-0.2514425
60	0x3d3627de	0.044471614
61	0xbe8287c2	-0.254942
62	0x3e8807d5	0.26568475
63	0xbe8a64be	-0.27029985
64	0xbec73ab6	-0.3891198
65	0x3de79d7c	0.11309335
66	0x3d82faeb	0.06395515
67	0x3df88924	0.121355325
68	0x3d2e1967	0.042504694
69	0x3d017fd6	0.031616054
70	0x3dee6b8b	0.11641606
71	0x3e62408b	0.22094934
72	0xbe9ed216	-0.31019658
73	0x3da5bf25	0.080930986
74	0xbe068bde	-0.13139293
75	0x3d4c29ea	0.04984466
76	0x3d0e597e	0.034753315
77	0xbd8c1641	-0.06840182
78	0xbefa7a0f	-0.48921248
79	0x3e552601	0.20815279
80	0x3e2180b8	0.15771759
81	0xbec9194f	-0.3927712
82	0xbdae9c89	-0.085259505
83	0x3d769cc0	0.060208082
84	0xbdeaec6c	-0.11470875
85	0xbddcc6ff	-0.10780143
86	0x3c9fbac3	0.019498235
87	0x3c6c4236	0.014420083
88	0x3d8b769c	0.06809732
89	0xbe9dc5b1	-0.3081489
90	0xbd59b0c3	-0.05314709
91	0x3e2b1128	0.16705763
92	0xbede6d25	-0.43442646
93	0x3edb648b	0.42850146
94	0xbd31617a	-0.04330585
95	0xbe14e2a9	-0.14539589
96	0x3dbb347a	0.091408685
97	0x3d414788	0.04718736
98	0x3da33869	0.07969744
99	0xbc994fd8	-0.01871483
100	0x3df89aa5	0.12138871
101	0x3d6f987a	0.058495022
102	0xbc903847	-0.01760496
103	0x3cbe4680	0.023226976
104	0x3d34a71b	0.044104677
105	0x3d7bb817	0.06145486
106	0x3e29b86b	0.16574256
107	0xbe61f0be	-0.22064492
108	0x3e05917c	0.13043779
109	0xbdc0096e	-0.093767986
110	0xbd1292e2	-0.03578461
111	0xbd2ff647	-0.042959478
112	0x3ac03365	0.0014663754
113	0x3d6888d1	0.056771103
114	0xbde07b4c	-0.10961017
115	0x3e157353	0.14594774
116	0x3ddcc328	0.107794106
117	0x3c5d46b4	0.0135056265
118	0x3c911d0c	0.017714046
119	0x3e10efde	0.14154002
120	0x3e6e97ac	0.23300046
121	0xbc345ee5	-0.011008953
122	0x3bc16414	0.005901823
123	0x3d33b2fa	0.043871857
124	0x3e523002	0.20526126
125	0x3d577c3e	0.05260872
126	0xbd95dffe	-0.07318114
127	0xbe798b89	-0.24369635
128	0xbc972e49	-0.018454688
129	0x3c05dc3e	0.008170186
130	0xbd0562fd	-0.032565106
131	0x3baef074	0.005338723
132	0xbc248952	-0.010042505
133	0xbc0f17a7	-0.0087336665
134	0xbce23a2a	-0.027615625
135	0x3c1ced29	0.009578028
136	0x3d8a504e	0.06753598
137	0x3d1bc930	0.038033664
138	0x3dda0663	0.106457494
139	0x3c3288a8	0.010896839
140	0x3c496a53	0.012293416
141	0xbd12ec34	-0.035869792
142	0x3da15dcf	0.07879221
143	0x3ce1970b	0.027537843
144	0xbc8ed6e5	-0.017436454
145	0x3a95bb56	0.0011423628
146	0x3d7dd8b7	0.061974254
147	0xbd2d30c9	-0.042282853
148	0x3df9a8e4	0.121904165
149	0x3d7b7e06	0.061399482
150	0xbca575a5	-0.020197699
151	0xbc3b5759	-0.0114343995
152	0x3ce01dc3	0.027357941
153	0xbcaced28	-0.021109179
154	0xbc28624c	-0.010277342
155	0xbd77aec6	-0.06046941
156	0x3d81d90e	0.06340228
157	0xbd482ffd	-0.04887389
158	0xbb520a4f	-0.0032049601
159	0xbc869bbf	-0.016431687
160	0xbd4aedef	-0.049543317
161	0x3d1b4333	0.037905883
162	0xbd2f88c3	-0.042855036
163	0x3c158613	0.009126204
164	0x3d10c189	0.03534082
165	0xbd6578b9	-0.056023333
166	0xbbb85b29	-0.0056261015
167	0xbb6de51f	-0.0036299897
168	0x3d728233	0.0592062
169	0x3cb2b418	0.021814391
170	0x3cac2182	0.021012072
171	0x3cc3f0bb	0.0239185
172	0x3d4e0ed1	0.0503071
173	0x3ca61d5c	0.020277672
174	0x3c12b60f	0.008954539
175	0xbd3d95d5	-0.04628547
176	0x3d58c1a9	0.052919064
177	0xbc03f18c	-0.008053195
178	0xbc116447	-0.008874006
179	0x3d0473f0	0.03233713
180	0xbc45146c	-0.012028795
181	0xbd022f60	-0.03178346
182	0xbc3669cc	-0.011133622
183	0xbd160267	-0.036623385
184	0x3ce4aa15	0.027913133
185	0x3b5e7b85	0.0033948135
186	0xbd147c81	-0.03625155
187	0x3bbec219	0.005821478
188	0x3d74006a	0.059570707
189	0xbd318a57	-0.04334482
190	0x3cded972	0.027203295
191	0x3ca5209a	0.020157147

cell.gru.bias_hh f4 [192]
0	0xbdd8ded0	-0.10589373
1	0xbeac7c6e	-0.33688682
2	0xbed90993	-0.42390117
3	0xbe6d3805	-0.23165901
4	0xbd4d569b	-0.05013142
5	0xbe8440bc	-0.25830638
6	0xbd3c782e	-0.04601305
7	0xbf2ed72c	-0.68297076
8	0x3e2c04e5	0.16798742
9	0xbeb4c513	-0.35306606
10	0x3d079b18	0.033106893
11	0x3d7f3e05	0.062315006
12	0xbbe6c24c	-0.007042205
13	0xbaff54b5	-0.0019480201
14	0x3d9d23ab	0.07672819
15	0xbe98987f	-0.29803845
16	0x3d5c5046	0.053787492
17	0xbebff6b7	-0.37492916
18	0x3e95587e	0.29169077
19	0xbe996d57	-0.29966232
20	0xbd87dbe4	-0.06633738
21	0xbc708ed8	-0.014682494
22	0xbe76a7e6	-0.24087486
23	0xbe7f5803	-0.24935918
24	0xbe001fb4	-0.12512094
25	0xbecb1c7c	-0.3967017
26	0xbebedd95	-0.3727843
27	0xbe0597ff	-0.13046263
28	0x3ddcc963	0.10780599
29	0xbd544f8b	-0.05183367
30	0xbf3c3ff4	-0.73535085
31	0xbd5bafb2	-0.053634353
32	0x3e44a2f7	0.19202791
33	0x3e07c05c	0.13256973
34	0xbe27d557	-0.16389976
35	0xbe8c7f43	-0.27440843
36	0xbe497b16	-0.1967586
37	0xbe4edb3a	-0.20200816
38	0xbee1f089	-0.44128826
39	0xbe63bb5a	-0.22239438
40	0x3d2a7717	0.04161748
41	0xbdb52de0	-0.088466406
42	0xbe570f34	-0.21001893
43	0x3e3bcbb1	0.18339421
44	0xbd3705c1	-0.04468322
45	0xbe6cd86d	-0.23129435
46	0xbe705289	-0.23468985
47	0xbea23117	-0.31678078
48	0xbe23f467	-0.16011201
49	0xbdc15f84	-0.09442046
50	0x3caef8d1	0.02135888
51	0xbe6b6157	-0.22986351
52	0xbe88d453	-0.2672449
53	0xbea7afdc	-0.32751358
54	0xbdcacf57	-0.09902828
55	0x3ec236a1	0.37932304
56	0xbe752826	-0.23941097
57	0xbe2db8c3	-0.16965012
58	0xbe9c7a16	-0.30561894
59	0xbe9b608a	-0.3034709
60	0x3c50313c	0.012707051
61	0xbdd930a4	-0.106049806
62	0x3e62be3f	0.22142886
63	0xbe0e905c	-0.13922256
64	0xbeeb09fb	-0.45906052
65	0x3dd8fbe2	0.10594918
66	0x3d946a49	0.07246835
67	0x3dcbd463	0.09952619
68	0x3db0a74c	0.08625659
69	0x3d39e91a	0.04538832
70	0x3c292de5	0.0103258835
71	0x3e121f99	0.14269866
72	0xbeb51360	-0.35366344
73	0x3d78c4b4	0.060734466
74	0xbd06f680	-0.032949924
75	0x3d812d9a	0.06307526
76	0x3d54bf54	0.051940277
77	0x3cf9f60c	0.030512832
78	0xbf14ca85	-0.5812152
79	0x3e1c281a	0.15249673
80	0x3e1d2d17	0.15349232
81	0xbed1e7ff	-0.4099731
82	0x3deb26c9	0.11482007
83	0x3dca8725	0.09889058
84	0xbd380151	-0.04492313
85	0xbdc27efc	-0.094968766
86	0x3cbacea4	0.022803612
87	0x3e66a590	0.22524095
88	0x3d845708	0.064619124
89	0xbe8c2e5e	-0.27379125
90	0x3d14ae55	0.03629907
91	0x3de41bbf	0.11138105
92	0xbefa6298	-0.48903346
93	0x3ed09fb9	0.4074686
94	0xbda8417d	-0.08215616
95	0xbe768395	-0.24073632
96	0xbd654dad	-0.05598228
97	0xbcc31a78	-0.023816332
98	0x3dca763e	0.09885834
99	0xbba396d1	-0.004992344
100	0x3e9d519f	0.30726334
101	0xbd855afa	-0.06511493
102	0xbda03366	-0.078223035
103	0x3cb2c448	0.02182211
104	0x3e29546e	0.16536114
105	0x3d58b6c0	0.05290866
106	0xbd9bc4d6	-0.07605903
107	0xbed37680	-0.41301346
108	0x3dc650b5	0.096833624
109	0xbcbd68be	-0.023121234
110	0x3ddaabd6	0.10677306
111	0xbd046589	-0.032323394
112	0x3bc4643d	0.0059933946
113	0x3d40177a	0.04689739
114	0xbdc751ec	-0.09732422
115	0x3e7f1a67	0.24912415
116	0x3eb2687d	0.34845343
117	0xbd9c13cc	-0.076209635
118	0x3d0bc8ae	0.03412693
119	0x3e76c3e6	0.24098167
120	0x3b2ef0d5	0.002669384
121	0x3db6821c	0.08911535
122	0x3e277761	0.16354133
123	0x3e2f5783	0.17123227
124	0x3e3b51cb	0.1829292
125	0xbd671536	-0.056416713
126	0x3e08143d	0.1328897
127	0xbe965b3e	-0.29366487
128	0x3c84252a	0.016131002
129	0xbc97c2a3	-0.018525427
130	0x3df5572d	0.11979518
131	0xbce3cdc7	-0.027808083
132	0x3c075a78	0.0082613155
133	0x3c9387c4	0.018009074
134	0x3d9694e2	0.07352616
135	0xbd119314	-0.035540655
136	0xbe3886fe	-0.18020245
137	0xbdf66bfa	-0.12032314
138	0xbe5b67e3	-0.21426348
139	0xbd083612	-0.03325469
140	0xbd5a22a6	-0.0532557
141	0x3d47f7e4	0.04882039
142	0xbe7dade7	-0.2477337
143	0xbdd5690b	-0.10420426
144	0x3d411c6a	0.04714624
145	0x3d5661f3	0.052339505
146	0xbde330c0	-0.11093283
147	0x3df074bf	0.117410176
148	0xbe8cb917	-0.27484962
149	0xbdbfa58c	-0.093577474
150	0x3d764fd0	0.06013471
151	0x3d22ae0c	0.039716765
152	0xbd94a7fe	-0.072586045
153	0xbd4ae2f3	-0.049532842
154	0x3d3dbd26	0.046322964
155	0x3e071d6e	0.1319482
156	0xbe41b6c6	-0.18917379
157	0x3b714755	0.00368162
158	0xbce33791	-0.027736457
159	0x3ce182f7	0.02752827
160	0x3cbf51f3	0.023354506
161	0xbdbc3d4e	-0.091913804
162	0x3d5284ff	0.051396366
163	0xbd43ac57	-0.047771778
164	0xbdb045be	-0.08607052
165	0x3dfc380a	0.12315376
166	0x3c9bc169	0.019013124
167	0x3cdaf634	0.026728727
168	0xbdae71e8	-0.0851782
169	0xbd167451	-0.03673202
170	0xbd3f88b8	-0.046761245
171	0x3b720da6	0.0036934405
172	0xbddee629	-0.10883743
173	0xbd324f19	-0.043532465
174	0xbd05f676	-0.032705747
175	0xbc6887c7	-0.014192528
176	0xbe127833	-0.14303665
177	0x3cecb7af	0.02889618
178	0x3d105a8a	0.035242595
179	0xbdababe2	-0.083823934
180	0x3d971a40	0.07378054
181	0x3d9a8c43	0.07546284
182	0x3d108aab	0.035288494
183	0x3dbd9de8	0.09258634
184	0xbd670e18	-0.056409925
185	0xbcd9dc81	-0.026594402
186	0x3dcb608b	0.099305235
187	0x3c0e883a	0.008699471
188	0xbe08866f	-0.13332532
189	0x3dd42e38	0.10360378
190	0xbd46fc01	-0.048580173
191	0xbd8cf788	-0.0688315

fc_out.weight f4 [3, 64]
0	0x3da9123b	0.0825543
1	0x3ea57393	0.3231474
2	0x3d218641	0.039434675
3	0x3e89e7aa	0.26934558
4	0x3e606fa0	0.21917582
5	0xbe70cc79	-0.235155
6	0x3e29eccf	0.16594242
7	0x3e985c4c	0.29757917
8	0xbe86016b	-0.26172957
9	0x3e9afbf0	0.30270338
10	0x3e460785	0.19338806
11	0xbe5a92ef	-0.21345113
12	0x3e857af4	0.26070368
13	0xbe2fdc0d	-0.17173786
14	0xbe30a03a	-0.17248622
15	0x3e7c46f0	0.24636436
16	0x3e0e5aab	0.13901775
17	0xbdcaf028	-0.099090874
18	0x3e7d5d0c	0.24742526
19	0xbea3029e	-0.31837934
20	0x3ec423fa	0.38308698
21	0xbe977d0b	-0.29587588
22	0xbe97715d	-0.29578677
23	0x3e880876	0.26568955
24	0x3e9068cd	0.28204957
25	0xbde7b92b	-0.11314615
26	0xbea89507	-0.329262
27	0x3ea294e9	0.31754234
28	0xbdb5372a	-0.08848412
29	0x3e157ca3	0.14598326
30	0x3e8d7b7a	0.27633268
31	0x3e6beb7e	0.23039052
32	0x3e49bc9e	0.19700858
33	0x3e8162c7	0.25270674
34	0x3e84a766	0.25908965
35	0xbe492eb3	-0.1964672
36	0xbea52121	-0.32251838
37	0xbeb7969f	-0.35857102
38	0x3ea87595	0.32902208
39	0xbe7f30ed	-0.24921007
40	0xbe603099	-0.21893539
41	0x3dfe81ae	0.12427078
42	0xbe89027b	-0.26759705
43	0x3dfc0352	0.12305321
44	0xbe99ee7d	-0.30064765
45	0x3e950e92	0.2911268
46	0xbe8b1a32	-0.27168423
47	0xbe65b856	-0.224336
48	0xbe8fcd76	-0.28086442
49	0xbe7874c7	-0.24263297
50	0xbdeefdbe	-0.11669491
51	0x3e8cfad2	0.2753511
52	0xbe7134b6	-0.23555264
53	0xbe846e46	-0.25865382
54	0xbe8eac92	-0.27866036
55	0xbe452e49	-0.19255938
56	0xbe6c1a4d	-0.23056908
57	0x3e88840d	0.26663247
58	0xbe92d51c	-0.28678215
59	0x3ebae340	0.36501503
60	0xbe8b4a13	-0.27204952
61	0xbe9b6105	-0.30347458
62	0xbe5a1db3	-0.21300392
63	0xbdd2a53b	-0.102854215
64	0x3dbd0761	0.09229923
65	0x3e7edc26	0.24888667
66	0x3e425542	0.18977836
67	0x3e6457ca	0.22299114
68	0x3e5e1038	0.21685874
69	0xbe5b640f	-0.21424888
70	0x3e641a16	0.22275576
71	0x3eba29d6	0.36360043
72	0xbe76444d	-0.24049492
73	0x3ea9e803	0.33184823
74	0x3e5ea5ee	0.21742985
75	0xbe8087f3	-0.2510372
76	0x3e6fdfb6	0.23425183
77	0xbe3778d2	-0.17917183
78	0xbe2e2c4d	-0.17009087
79	0x3ea441e9	0.32081535
80	0x3e56089d	0.20901723
81	0xbe185812	-0.14877346
82	0x3e80378b	0.25042376
83	0xbe811dbb	-0.25217995
84	0x3e9ac421	0.3022776
85	0xbe94768f	-0.28996703
86	0xbe7609c3	-0.24027161
87	0x3e7c6f12	0.24651745
88	0x3e3d5982	0.18491176
89	0xbe4231c9	-0.18964304
90	0xbe8e2453	-0.27762088
91	0x3e69c44f	0.22828792
92	0xbe1e60da	-0.15466633
93	0x3e8fcf5f	0.280879
94	0x3edd3ecc	0.43211973
95	0x3e0d5f1d	0.13805814
96	0x3e865d9b	0.2624329
97	0x3e8590e5	0.26087108
98	0x3e87f670	0.26555204
99	0xbe3b9afd	-0.18320842
100	0xbe731967	-0.23740159
101	0xbe972850	-0.29522943
102	0x3ea7169d	0.3263444
103	0xbe62da9d	-0.22153707
104	0xbe8d5713	-0.27605495
105	0x3e2e836a	0.17042318
106	0xbe4677cd	-0.19381638
107	0x3e37f7e6	0.1796566
108	0xbe6f4ea5	-0.23369844
109	0x3e87d27f	0.26527783
110	0xbe8024b8	-0.25028014
111	0xbe2bd7b3	-0.16781501
112	0xbe83ba6b	-0.25728163
113	0xbe8009e4	-0.25007546
114	0xbde057bb	-0.10954233
115	0x3e8499f3	0.25898704
116	0xbe9423db	-0.28933606
117	0xbe5acdc3	-0.21367554
118	0xbe54981a	-0.20761147
119	0xbe7daa1c	-0.24771923
120	0xbe657dde	-0.22411296
121	0x3e643bc1	0.2228842
122	0xbe920414	-0.28518736
123	0x3e9c0f0c	0.3048023
124	0xbe7a15d3	-0.24422388
125	0xbe6c53fa	-0.2307891
126	0xbe6aeef2	-0.22942713
127	0xbdec9d38	-0.115534246
128	0x3df8de41	0.121517666
129	0x3e2cc1b0	0.16870761
130	0x3ea704f4	0.32620966
131	0x3e32568a	0.17415825
132	0x3e6d3dc7	0.23168097
133	0xbe4e57f5	-0.2015074
134	0x3e90937f	0.2823753
135	0x3ecd1b2d	0.40059796
136	0xbe3bb36e	-0.18330166
137	0x3eafc17b	0.343273
138	0x3e75e34b	0.24012487
139	0xbe80157d	-0.25016394
140	0x3e5e4f67	0.21709977
141	0xbe3d1d6f	-0.1846826
142	0xbe0c32b7	-0.13691221
143	0x3ec9b500	0.39395905
144	0x3e800563	0.2500411
145	0xbe674970	-0.22586608
146	0x3e7781d1	0.24170615
147	0xbe579652	-0.21053436
148	0x3e813432	0.25235134
149	0xbe89ba6e	-0.26900047
150	0xbe5d988c	-0.21640223
151	0x3e6702f7	0.22559725
152	0x3dee60fe	0.116395935
153	0xbe6f8947	-0.23392211
154	0xbe59f22c	-0.21283787
155	0x3e1ced52	0.15324906
156	0xbe74857f	-0.2387905
157	0x3ecb8951	0.39753202
158	0x3ef2936b	0.47378096
159	0x3d4b6a33	0.049661826
160	0x3ea69076	0.3253209
161	0x3e6e17e7	0.23251306
162	0x3e744d3b	0.23857586
163	0xbe3dd5a6	-0.18538532
164	0xbe41e56a	-0.18935171
165	0xbe8892b2	-0.2667442
166	0x3ea7864e	0.32719654
167	0xbe58b71e	-0.21163604
168	0xbeadb89b	-0.33929905
169	0x3e623e14	0.22093993
170	0xbe066d05	-0.13127525
171	0x3e740c98	0.23832929
172	0xbe19ce0e	-0.1502001
173	0x3e8346f8	0.25640082
174	0xbe5f1387	-0.21784793
175	0xbd8f9a73	-0.07011881
176	0xbe74eb1e	-0.23917815
177	0xbe867ee1	-0.26268676
178	0xbdca4806	-0.09877019
179	0x3e7b3410	0.24531579
180	0xbea001ed	-0.3125147
181	0xbe2c7024	-0.16839653
182	0xbe2768e6	-0.1634861
183	0xbe95cad1	-0.292563
184	0xbe60776e	-0.21920559
185	0x3e3e57ef	0.18588232
186	0xbe8eaa3d	-0.27864257
187	0x3e721711	0.23641612
188	0xbe698ea6	-0.22808322
189	0xbe41616a	-0.18884817
190	0xbe721e08	-0.23644269
191	0xbe1406ef	-0.1445577

fc_out.bias f4 [3]
0	0x3cefa23d	0.029252166
1	0x3d060dca	0.032727994
2	0x3d15d050	0.036575615
