notebooks/DCRNN/Adj_05mins/dcrnn_best.pt (torch, 120248 bytes, 6 tensors)

cell.diff.theta f4 [65, 64]
0	0x3e0d9eb3	0.1383007
1	0xbe61c87a	-0.22049132
2	0x38daf7be	0.000104411956
3	0x3d876405	0.06610874
4	0x3e6c88a0	0.23098993
5	0x3d4f196d	0.050561357
6	0x3e05d6e0	0.1307025
7	0x3e2ff1c5	0.17182072
8	0x3e25f010	0.16204858
9	0x3dd5f21d	0.1044657
10	0xbe2823c8	-0.164199
11	0x3d04697b	0.032327157
12	0x3e7d8db6	0.2476109
13	0xbc90a676	-0.0176575
14	0xbca5b2b4	-0.020226814
15	0xbe2723fe	-0.16322324
16	0xbe246bc2	-0.16056731
17	0x3dc461c4	0.0958896
18	0x3e6be073	0.2303484
19	0x3e149360	0.14509344
20	0x3e5df10f	0.21673988
21	0x3e56435e	0.20924136
22	0x3d4a52a3	0.049395215
23	0xbe140670	-0.1445558
24	0x3e832c7d	0.2561988
25	0xbde6b5df	-0.11265158
26	0x3e5e2210	0.21692681
27	0xbe43fb9f	-0.19138955
28	0x3dab8fd2	0.08377041
29	0x3c0f781f	0.008756666
30	0xbe8df3d3	-0.27725086
31	0x3df22ded	0.11825166
32	0x3d8a1709	0.06742675
33	0x3e1acf37	0.15118109
34	0x3d35c64c	0.044378564
35	0x3e729cef	0.23692678
36	0xbe125e29	-0.14293732
37	0x3d062853	0.0327533
38	0xbe1ba20a	-0.15198532
39	0xbba34a44	-0.0049832184
40	0x3e1af3a6	0.15132007
41	0xbdba65c7	-0.09101444
42	0xbe557f2f	-0.20849298
43	0xbdeffd17	-0.11718195
44	0xbb256aad	-0.0025240586
45	0x3d149ed6	0.03628429
46	0xbe8d6ddc	-0.2762288
47	0xbe06a95c	-0.13150543
48	0xbcfdabd9	-0.030965732
49	0x3d919848	0.071091235
50	0xbd2dae71	-0.04240269
51	0x3d38dffe	0.04513549
52	0xbda096f8	-0.07841295
53	0x3e75bf26	0.23998699
54	0xbe6a32a6	-0.22870883
55	0xbd9f831d	-0.0778868
56	0x3e421fa0	0.18957376
57	0x3da91ba7	0.082572274
58	0xbe18215a	-0.14856473
59	0xbcc1404b	-0.023590228
60	0xbdda0ad6	-0.10646598
61	0x3e433dd0	0.19066548
62	0xbe785d8d	-0.24254437
63	0xbe42c497	-0.19020306
64	0xbd7d5eea	-0.061858095
65	0xbc864b30	-0.016393274
66	0x3da07985	0.07835678
67	0xbdb26396	-0.08710401
68	0x3de772c7	0.11301189
69	0xbc657bf1	-0.014006601
70	0xbbb8f19b	-0.005644036
71	0x3d54b077	0.051926102
72	0x3d826dc5	0.06368593
73	0x3dd7b9fa	0.10533519
74	0x3d71d984	0.05904533
75	0x3d9b30a0	0.07577634
76	0x3d544205	0.051820774
77	0x3e2bf31b	0.16791956
78	0xbdeb8dad	-0.11501632
79	0xbd3cf6f4	-0.04613395
80	0xbbd28e23	-0.0064256354
81	0x3d17234e	0.036898904
82	0x3d82b35b	0.063818656
83	0x3d1e2aaa	0.038614906
84	0x3d90c6a0	0.07069135
85	0x3dd8e02e	0.10589634
86	0xbd89b3a3	-0.06723716
87	0x3d4ace6d	0.04951327
88	0x3dd76860	0.10517955
89	0xbe2cb77a	-0.16866866
90	0x3dc73aad	0.097279884
91	0xbd6e25e5	-0.058141608
92	0xbda6c670	-0.08143318
93	0xbe0fa34a	-0.14027134
94	0xbdc59539	-0.096476026
95	0x3decb67e	0.11558245
96	0x3db80bbb	0.089866124
97	0x3dc60d54	0.09670511
98	0x3db0be97	0.08630102
99	0xbd567559	-0.052358005
100	0x3d30a162	0.043122657
101	0x3ddee5d9	0.10883684
102	0xbd0d4d8c	-0.034497783
103	0x3d4d7442	0.0501597
104	0x3bbd91c3	0.0057851984
105	0x3e13ee2b	0.14446323
106	0xbbde1b70	-0.006778173
107	0x3d994d3e	0.07485436
108	0x3b826427	0.0039792242
109	0x3c321f88	0.010871775
110	0xbe056f32	-0.13030699
111	0xbded9cd6	-0.1160218
112	0xbe0ad5c8	-0.13558114
113	0x3d333236	0.043749057
114	0x3c367054	0.01113518
115	0x3dc88980	0.09791851
116	0xbd98522e	-0.074375495
117	0x3cc6f9a9	0.02428897
118	0xbde17d06	-0.110101745
119	0x3ab210f1	0.0013585371
120	0x3e3e81b4	0.18604165
121	0xbe11df68	-0.14245379
122	0x3ce0755d	0.027399713
123	0x3e246e72	0.16057757
124	0x3e2c63c9	0.1683494
125	0x3dc369bf	0.09541654
126	0xbdb037f5	-0.08604423
127	0xbde2a2ec	-0.11066231
128	0x3c18399c	0.009291079
129	0xbd90ba50	-0.07066786
130	0x3bd058bf	0.0063582356
131	0x3cc0a025	0.023513863
132	0x3d8776dc	0.066144675
133	0x3d83e36a	0.0643986
134	0xbd6988ed	-0.05701535
135	0x3c35ccf3	0.011096227
136	0xba1b6fa2	-0.00059294153
137	0x3c88f11d	0.016716534
138	0xbd2f7a86	-0.042841457
139	0xbcdf47d2	-0.027255926
140	0x3d97a886	0.0740519
141	0x3c88cf93	0.016700542
142	0xbd03afcf	-0.032150086
143	0x3bb78747	0.005600843
144	0xbe22b29b	-0.15888445
145	0x3d6f6f00	0.058455467
146	0x3dcb53cc	0.09928092
147	0xbd833b98	-0.06407851
148	0x3da5c89a	0.08094902
149	0x3df68e21	0.12038828
150	0x3ccd9f83	0.025100475
151	0x3ce7bcad	0.02828821
152	0x3db93229	0.090427704
153	0xbdb71896	-0.08940236
154	0x3d303bed	0.0430259
155	0x3d4dd74c	0.05025415
156	0xbd1a8d49	-0.037732396
157	0x3c96a1b2	0.01838765
158	0xbe1d5969	-0.15366139
159	0xbb4cf9f4	-0.0031276913
160	0xbd623422	-0.0552255
161	0x3d54af78	0.051925153
162	0x3c6aae19	0.014323735
163	0x3e07bdeb	0.13256042
164	0x3d0f4e0f	0.03498655
165	0xbb43162a	-0.002976785
166	0xbcff875f	-0.03119248
167	0xbd933e90	-0.07189667
168	0x3e12fa91	0.14353396
169	0x3c5dd074	0.013538469
170	0xbd9e64cc	-0.07734069
171	0xbdb7fee7	-0.08984166
172	0x3d39579e	0.045249574
173	0x3c9a4423	0.018831318
174	0xbbd607b1	-0.0065316786
175	0x38c94441	9.59714e-05
176	0x3ceba6d9	0.028766083
177	0x3cfe2bb7	0.031026704
178	0x3d2b2c01	0.041790012
179	0xbb86f143	-0.004118116
180	0xbd1e81d5	-0.038698036
181	0x3cf48f68	0.029853538
182	0xbe110d85	-0.14165314
183	0xbc8282d7	-0.01593153
184	0xbdc6ddf6	-0.097103044
185	0xbd829e7e	-0.06377886
186	0xbdc0093b	-0.093767606
187	0x3d822eab	0.063565575
188	0xbdc4e250	-0.09613478
189	0x3d833531	0.0640663
190	0xbcec8411	-0.028871568
191	0xbda9226e	-0.0825852
192	0x3ceb9b4c	0.028760575
193	0xbc827a37	-0.015927417
194	0xbccb3418	-0.024805114
195	0xbce17a16	-0.027524035
196	0x3cf519b1	0.029919477
197	0xbd6df0d1	-0.05809099
198	0x3dc98b31	0.09841002
199	0x3d30cf15	0.04316624
200	0x3cacf43e	0.021112558
201	0x3d55d2b4	0.052202895
202	0xbcc554f3	-0.024088359
203	0x3cb33726	0.021876883
204	0x3de87d4c	0.113520235
205	0x3d834bca	0.0641094
206	0xbd752e37	-0.059858527
207	0x3bdba412	0.0067029083
208	0xbd8a0e42	-0.06741001
209	0xbd0f3c16	-0.03496941
210	0xbbd15d23	-0.0063892766
211	0x3c8db113	0.01729635
212	0x3c8ae134	0.016953088
213	0x3c37dad6	0.011221608
214	0xbddf6466	-0.10907821
215	0xbdc19631	-0.09452475
216	0x3d82bbae	0.06383453
217	0x3d366b99	0.044536207
218	0x3cbb6565	0.022875497
219	0xbd18c050	-0.03729278
220	0x3c26a8d8	0.010172091
221	0x3dc3822e	0.09546314
222	0xbe31a408	-0.17347729
223	0xba2d84fa	-0.00066192413
224	0x3c2ebdc0	0.010665357
225	0x3d589b1c	0.0528823
226	0x3d250cb0	0.040295303
227	0x3e419b6b	0.18906944
228	0xbc0ec613	-0.008714217
229	0xbd8afaa1	-0.06786085
230	0x3cb5be67	0.022185517
231	0xbcb5317b	-0.02211832
232	0xbba226f0	-0.0049484894
233	0xbd7d0120	-0.06176865
234	0xbdc071fd	-0.093967415
235	0xbda401f6	-0.080081865
236	0xbcd6dc4f	-0.026228098
237	0xbcb29182	-0.0217979
238	0xbcda294c	-0.02663102
239	0x3d7cada2	0.061689027
240	0xbc0c9ad1	-0.008581833
241	0x3d991b14	0.07475868
242	0xbce41cb5	-0.02784572
243	0x3daf0fa0	0.08547902
244	0x3bd73762	0.0065678814
245	0x3daa7775	0.08323566
246	0xbcc04b23	-0.023473328
247	0xbdb10fa1	-0.08645559
248	0xbca9cc83	-0.020727402
249	0x3e04a957	0.12955223
250	0xbd9690b2	-0.07351817
251	0xbcff4ef3	-0.031165576
252	0x3ba6b45d	0.005087419
253	0x3baf48da	0.0053492608
254	0xbac46f2c	-0.0014986745
255	0xbdc944ce	-0.098275766

cell.gru.weight_ih f4 [192, 64]
0	0x3d54c3b8	0.051944464
1	0x3ea14efc	0.31505573
2	0xbe81f97f	-0.25385663
3	0xbdeb616a	-0.1149319
4	0xbe68a23f	-0.22718142
5	0xbcde4423	-0.0271321
6	0x3da95571	0.0826825
7	0xbdb42253	-0.08795609
8	0xbddc5b4c	-0.10759601
9	0xbcf19edd	-0.029494697
10	0x3e864437	0.2622392
11	0x3dcf2bf7	0.101158075
12	0xbd69c0ac	-0.05706851
13	0x3e9ecadb	0.3101414
14	0x3d057c9a	0.032589532
15	0x3e7cd31b	0.24689905
16	0x3ecad044	0.3961202
17	0xbd3691fd	-0.04457282
18	0xbea954c2	-0.33072478
19	0xbcdcb82c	-0.026943289
20	0xbdb32844	-0.087479144
21	0xbe59e7af	-0.21279787
22	0xbe4c11fa	-0.19928733
23	0xbc5aa312	-0.013344543
24	0xbdb1f86e	-0.08689962
25	0x3cbff32b	0.023431381
26	0x3c1a957d	0.009435055
27	0x3f22c394	0.6357968
28	0xbe67fdfb	-0.2265548
29	0xbe661943	-0.22470574
30	0xbdcc9314	-0.099889904
31	0x3d59b501	0.053151134
32	0xbdf094ca	-0.11747129
33	0xbd7f81ee	-0.06237977
34	0xbd8029eb	-0.06257995
35	0xbf066e20	-0.5251179
36	0x3e4a75e4	0.19771534
37	0xbe7605ac	-0.24025601
38	0x3cdc70aa	0.026909191
39	0x3e3361a9	0.17517723
40	0xbdbf5eba	-0.093442395
41	0x3ed86b1c	0.42269218
42	0xbd5f1dee	-0.054471903
43	0x3ebd42d6	0.36965054
44	0xbe2f3f81	-0.17114069
45	0xbea4e74b	-0.32207713
46	0xbd2bb12a	-0.041917004
47	0x3e2c43cd	0.16822739
48	0xbe725d56	-0.23668417
49	0x3e52feaf	0.20604967
50	0x3e490013	0.19628935
51	0xbc6d6bab	-0.014491002
52	0x3f0f06e4	0.5586989
53	0xbf269815	-0.6507581
54	0x3e509a0d	0.20371266
55	0x3ea60ce3	0.32431707
56	0x3ea477d8	0.32122684
57	0x3e482e85	0.19548996
58	0x3dff3ef8	0.12463182
59	0x3e9e0174	0.30860484
60	0xbd6976fb	-0.056998234
61	0x3da5313a	0.0806603
62	0x3f1ea65c	0.61972594
63	0x3e7e4507	0.2483102
64	0xbdedf8fd	-0.11619756
65	0xbdea41bb	-0.11438318
66	0x3d3ff909	0.046868358
67	0xbe1a4713	-0.15066175
68	0xbba25334	-0.0049537662
69	0x3da2f4f6	0.07956879
70	0x3d6a23b1	0.057162944
71	0x3db14b45	0.08656935
72	0xbc5ea2df	-0.013588636
73	0x3d3f3c52	0.046688385
74	0x3d2534c1	0.040333513
75	0xbd4bdebd	-0.049772967
76	0x3d9957c0	0.0748744
77	0xbe1995c1	-0.14998533
78	0x3e0550ee	0.13019153
79	0x3af6d63d	0.0018832159
80	0xbd35eb06	-0.04441359
81	0x3c4470da	0.0119897965
82	0x3da6a3eb	0.081367336
83	0x3e8075e9	0.25089958
84	0x3d958991	0.07301629
85	0x3e226a40	0.15860844
86	0x3d5e5ffc	0.054290757
87	0x3e307195	0.17230828
88	0x3cd36040	0.025802732
89	0x3e020ec7	0.1270095
90	0xba2291ab	-0.0006201516
91	0xbe014c1c	-0.1262669
92	0x3e08769a	0.13326493
93	0x3e3df0ec	0.18548936
94	0x3d4ac12c	0.04950063
95	0xbb946886	-0.0045290617
96	0xba900525	-0.0010987861
97	0x3d4ccbfb	0.04999922
98	0xbe090fdf	-0.1338496
99	0xbd0aaf86	-0.0338588
100	0xbd275349	-0.04085091
101	0x3db9e702	0.09077264
102	0xbe25caf5	-0.16190703
103	0xba2366ae	-0.0006233257
104	0x3ca9ac8f	0.020712165
105	0xbe0374a1	-0.12837459
106	0x3d1b3d1b	0.03790007
107	0xbdb2a13f	-0.087221615
108	0xbd5d6ff0	-0.05406183
109	0xbbd90f9c	-0.0066241752
110	0xbe006dc1	-0.12541868
111	0xbcde327c	-0.027123682
112	0x3d2ad039	0.041702483
113	0xbde11c37	-0.1099171
114	0x3dbd8438	0.09253734
115	0xbbd205ed	-0.006409398
116	0xbd724f1c	-0.059157476
117	0x3df189be	0.1179385
118	0x3d0dc8d4	0.034615353
119	0xbd558f03	-0.05213834
120	0xbdac0c11	-0.08400739
121	0x3e1ebbfd	0.155014
122	0x3d6f2e46	0.05839374
123	0xbe08b8d1	-0.13351752
124	0xbe074093	-0.13208227
125	0x3bfc990b	0.007708674
126	0xbe06a373	-0.13148288
127	0x3cc92266	0.024552535
128	0x3dc25855	0.09489504
129	0xbe42a96d	-0.19009943
130	0xbe441510	-0.1914866
131	0x3d0fdd41	0.035123114
132	0x3dc42186	0.095767066
133	0xbda13dc8	-0.07873112
134	0xbe228f6b	-0.15875022
135	0xbd942ae9	-0.07234747
136	0x3b9f83e3	0.004868017
137	0x3dc8cabb	0.09804293
138	0x3c020616	0.007936021
139	0x3d964383	0.073370956
140	0x3dc74545	0.09730009
141	0x3e441f21	0.191525
142	0xbdc723da	-0.09723635
143	0x3d814477	0.06311887
144	0x3e287034	0.16449052
145	0xbe5b254e	-0.2140095
146	0x3e20c1a4	0.15698868
147	0x3b8af28b	0.004240339
148	0xbceba848	-0.028766766
149	0x3d643520	0.055714726
150	0xbdfdc4d6	-0.12391059
151	0xbdb80e96	-0.08987157
152	0x3e12a12f	0.14319299
153	0xbe1acca6	-0.1511713
154	0x3d476a87	0.048685577
155	0xbdd91320	-0.10599351
156	0xbc33719d	-0.0109523805
157	0x3bad7b2d	0.0052942247
158	0xbd15d8f4	-0.036583856
159	0x3c84d902	0.016216759
160	0x3d209c4b	0.039211553
161	0xbc16177a	-0.009160871
162	0xbcd3756b	-0.025812825
163	0x3c8d3b01	0.01724005
164	0x3e812ee3	0.25231084
165	0xbda5bf0b	-0.08093079
166	0x3dd1541f	0.10221123
167	0x3e5681d5	0.20947964
168	0x3e1d36b7	0.15352903
169	0x3e8dccf3	0.27695426
170	0x3c62a03d	0.013832149
171	0xbd1328e7	-0.03592768
172	0xbcad2c87	-0.021139396
173	0xbe7e3c09	-0.24827589
174	0xbd1711d9	-0.036882255
175	0x3e147a72	0.14499834
176	0xbe3bbb2e	-0.18333122
177	0x3dd851a5	0.105624475
178	0x3e070fb0	0.13189578
179	0xbd34ab73	-0.04410882
180	0x3c8b3eb8	0.01699768
181	0x3cee76c4	0.029109366
182	0x3bca0347	0.0061649415
183	0x3e281b27	0.16416608
184	0x3d738b18	0.059458822
185	0x3d1fda81	0.03902674
186	0xbe12ca10	-0.14334893
187	0x3e014cab	0.12626903
188	0x3deef5df	0.1166799
189	0xbcd91e44	-0.02650369
190	0x3bab4abe	0.005227416
191	0xbd1cdf7c	-0.03829907
192	0x3ee3b182	0.44471365
193	0xbe25893a	-0.16165629
194	0xbcb40c72	-0.02197859
195	0x3e276507	0.16347133
196	0xbdf24249	-0.11829049
197	0xbe8bdbf0	-0.27316236
198	0x3ced3fae	0.028961029
199	0xbe1c2777	-0.1524943
200	0xbcc06856	-0.023487251
201	0xbea18edd	-0.3155431
202	0x3e3e194f	0.18564342
203	0xbdba7a54	-0.091053635
204	0xbe908707	-0.28228018
205	0x3d7e5cc8	0.0621002
206	0xbede6b48	-0.43441224
207	0x3f2f3660	0.68442345
208	0x3ea1fcdb	0.31638226
209	0x3d66db35	0.056361396
210	0xbe88ec93	-0.26742992
211	0xbeff48dd	-0.49860278
212	0x3d0b6546	0.03403213
213	0xbdca915d	-0.09891007
214	0xbe2fd604	-0.17171484
215	0xbdc7c498	-0.09754294
216	0xbce9c4cd	-0.028536225
217	0x3da2e146	0.07953124
218	0xbd17ba18	-0.037042707
219	0xbd7ef3bc	-0.062244162
220	0xbd32c6b8	-0.043646544
221	0xbb854198	-0.0040666573
222	0x3d3f2c34	0.046673015
223	0xbd3f3491	-0.04668099
224	0xbe641f06	-0.2227746
225	0xbe21173e	-0.15731522
226	0xbe316cad	-0.17326613
227	0xbbdca1e5	-0.0067331665
228	0x3f58ff17	0.84764236
229	0x3d9a0847	0.0752111
230	0x3df9bc18	0.12194079
231	0x3ec0979a	0.37615663
232	0xbd4db807	-0.05022433
233	0xbdf787f9	-0.120864816
234	0xbcca2a5b	-0.0246784
235	0x3e62e538	0.22157753
236	0x3ded8d9f	0.11599278
237	0xbc84dfc0	-0.016219974
238	0x3e638b05	0.22221
239	0x3e8dca7a	0.2769354
240	0xbeeb34ec	-0.45938814
241	0x3eb78e84	0.35850918
242	0x3db0f6d7	0.08640831
243	0xbc906488	-0.017626062
244	0x3bcd7970	0.00627058
245	0xbda9cd13	-0.08291068
246	0x3f1786bf	0.5918998
247	0x3ed940a2	0.42432123
248	0x3e666e6d	0.22503062
249	0xbc29ede8	-0.010371663
250	0xbdd1b697	-0.102399044
251	0xbe26f424	-0.1630407
252	0x3eba7f13	0.36425075
253	0x3df0d57a	0.117594674
254	0x3ef280bf	0.4736385
255	0x3e1e7786	0.15475282

cell.gru.weight_hh f4 [192, 64]
0	0x3db0f25d	0.08639977
1	0x3f42e6ca	0.76133406
2	0xbe534c6e	-0.20634624
3	0xbec02950	-0.3753152
4	0x3e8c6527	0.27420923
5	0x3e874d45	0.2642614
6	0xbdf01f94	-0.11724773
7	0xbe2fdcd0	-0.17174077
8	0x3ee72a1f	0.45149323
9	0xbde31a9b	-0.11089059
10	0x3d3e3a1f	0.046442147
11	0xbd709724	-0.05873789
12	0xbd87b34c	-0.06625995
13	0xbdb94491	-0.09046281
14	0x3ed9f12e	0.42566818
15	0x3cc219aa	0.023693878
16	0x3e5b447d	0.21412845
17	0xbd89c2ae	-0.06726585
18	0x3f25d44a	0.6477705
19	0x3ec75b9a	0.38937074
20	0xbeab6714	-0.3347708
21	0xbf5fd6be	-0.87437046
22	0xbde8d26c	-0.1136826
23	0xbe81b34c	-0.25332105
24	0xbe7e4943	-0.24832635
25	0xbeb5424a	-0.35402137
26	0xbda45a13	-0.08024993
27	0x3c96b025	0.01839454
28	0xbeca6775	-0.39532056
29	0x3e51214b	0.20422857
30	0x3d002498	0.0312849
31	0x3dc1c2f0	0.094610095
32	0x3e81d79c	0.2535981
33	0xbf766748	-0.96251345
34	0xbe58900e	-0.21148703
35	0x3dde1b21	0.10845018
36	0x3e6dda63	0.23227839
37	0xbc68c29c	-0.014206555
38	0xbe0d544a	-0.13801685
39	0xbeee71bb	-0.46571144
40	0xbeb9bb2d	-0.36275616
41	0xbe2ea181	-0.17053796
42	0xbd5f75c8	-0.054555684
43	0xbd0173d1	-0.03160459
44	0xbe1349ba	-0.14383593
45	0xbe44857f	-0.1919155
46	0x3ea81559	0.32828787
47	0x3eb65e45	0.35618797
48	0xbeb42b06	-0.35189074
49	0xbd937b71	-0.07201279
50	0x3e2faaa6	0.17154941
51	0xbee9e1b1	-0.4568
52	0xbc89fbff	-0.016843794
53	0x3f3578eb	0.7088763
54	0xbe3c7ad7	-0.18406235
55	0xbe2fb56a	-0.17159048
56	0x3f0fca91	0.56168467
57	0x3e5cbd43	0.21556573
58	0x3ebde662	0.3708983
59	0xbe5512ad	-0.20807905
60	0xbe839b8b	-0.25704607
61	0x3d429926	0.047509335
62	0xbe814190	-0.25245333
63	0xbea37d1e	-0.31931394
64	0xbdb7f3ec	-0.08982071
65	0x3ebc1ad5	0.3673922
66	0xbd9253e9	-0.07144911
67	0x3e92f2ef	0.2870097
68	0xbe67e3a6	-0.22645435
69	0x3c541d95	0.012946506
70	0xbceb9c95	-0.028761188
71	0x3aeb890d	0.0017969921
72	0xbe925f39	-0.28588274
73	0x3e04a3eb	0.12953155
74	0xbe8a6da6	-0.2703678
75	0x3e90b419	0.28262404
76	0x3d39e6f2	0.045386262
77	0xbeaf6dcb	-0.34263453
78	0xbd3237e9	-0.04351035
79	0x3e9aae47	0.30211088
80	0x3e83e3f7	0.2575986
81	0xbea15d0e	-0.31516308
82	0xbefbb42c	-0.49160898
83	0xbee88203	-0.4541169
84	0xbeb88db5	-0.36045614
85	0x3dd0ded7	0.10198753
86	0xbd34213b	-0.043977004
87	0xbce3bd56	-0.027800243
88	0x3d3d9b58	0.046290725
89	0x3e179d2d	0.14806052
90	0x3e852367	0.26003572
91	0x3d8f41eb	0.06994995
92	0xbdd3d9e0	-0.10344291
93	0xbae6ec16	-0.0017617967
94	0xbe20db2f	-0.15708612
95	0xbe35abef	-0.17741369
96	0xbeb6ead6	-0.3572604
97	0x3ee2134e	0.44155353
98	0x3dc40a90	0.09572327
99	0x3da64e7b	0.08120438
100	0x3e2da677	0.16958033
101	0xbe1866a8	-0.1488291
102	0x3f0072b6	0.50175035
103	0xbd35f249	-0.044420514
104	0x3df0cf14	0.11758247
105	0xbd7f8ae8	-0.06238833
106	0xbe8591ad	-0.26087704
107	0x3e278ed0	0.16363072
108	0x3dc6457e	0.09681223
109	0x3e336711	0.17519785
110	0x3e7590ec	0.23981065
111	0xbeba3b0e	-0.3637318
112	0xbc9e0faa	-0.019294579
113	0xbe16280c	-0.14663714
114	0x3e3d6472	0.18495348
115	0xbe81944a	-0.25308448
116	0x3ec46c7e	0.38364023
117	0xbedd652b	-0.43241248
118	0x3e29d4c0	0.16585064
119	0xbd4878be	-0.048943274
120	0xbf336132	-0.70070183
121	0xbdb28cb0	-0.0871824
122	0xbb46e829	-0.003035078
123	0x3d1a7aa7	0.037714627
124	0xbe02972c	-0.1275298
125	0x3e6beca4	0.2303949
126	0x3ebd7ae6	0.37007827
127	0x3e3ed957	0.18637596
128	0xbe9bdbf7	-0.30441257
129	0xbda7f133	-0.08200302
130	0xbf015a24	-0.5052817
131	0xbda1cdb1	-0.07900561
132	0x3f6f2c0c	0.93426585
133	0xbaa3d2c1	-0.0012498723
134	0x3e143b7e	0.1447582
135	0xbf1e4729	-0.6182733
136	0x3f3c9a30	0.7367277
137	0xbe9f9b16	-0.3117301
138	0x3d354ac8	0.04426077
139	0x3d56e35c	0.05246292
140	0x3f1fcf8f	0.62426084
141	0x3dc37dcf	0.095454805
142	0xbe82dc7a	-0.25558835
143	0xbb3fc8bf	-0.002926394
144	0xbdd5a566	-0.10431938
145	0xbe39a2dd	-0.18128534
146	0xbd7feb4f	-0.062480267
147	0x3ec97312	0.39345604
148	0xbc903da0	-0.01760751
149	0xbdb744fc	-0.089487046
150	0xbd96b524	-0.073587686
151	0x3e0caafb	0.13737099
152	0x3efeda9c	0.4977616
153	0xbf61903b	-0.88110703
154	0x3db39291	0.0876819
155	0x3b9881b3	0.004654133
156	0x3e95c274	0.29249918
157	0xbe2a4ad2	-0.16630104
158	0xbe40ac37	-0.18815695
159	0xbe160edd	-0.14654107
160	0x3dc4938f	0.09598457
161	0xbedbe7a9	-0.4295018
162	0x3ead0cba	0.33798772
163	0xbe966764	-0.29375756
164	0x3e2bbc10	0.16770959
165	0xbe9563e6	-0.2917778
166	0xbecabe5d	-0.3959836
167	0xbee8f2d2	-0.45497757
168	0xbea053b1	-0.3131385
169	0xbe0507e5	-0.12991293
170	0xbeda3c68	-0.4262421
171	0x3e00c01c	0.12573284
172	0x3ea9deac	0.33177698
173	0xbdbf620b	-0.09344872
174	0x3edec092	0.43506294
175	0xbdf303e7	-0.11865979
176	0x3d99d5e9	0.07511503
177	0xbe94babe	-0.29048723
178	0xbdc62394	-0.09674755
179	0xbf03623b	-0.5132176
180	0x3c42a5c6	0.011880344
181	0x3e85384f	0.26019523
182	0x3c5fb5fb	0.013654227
183	0xbdc3ed79	-0.09566779
184	0x3e61d4a7	0.22053777
185	0x3e87a10e	0.26490062
186	0x3e014c0c	0.12626666
187	0xbe0cd64c	-0.13753623
188	0xbd870a66	-0.0659378
189	0xbd08f638	-0.033437937
190	0x3ef28308	0.47365594
191	0xbde98e6b	-0.11404117
192	0xbec7467c	-0.38920963
193	0x3f6a9c23	0.91644496
194	0x3eb61ea1	0.35570243
195	0xbfef253c	-1.8683238
196	0x3ec3958c	0.38200033
197	0x3cb193ec	0.02167698
198	0x3d94f7fc	0.07273862
199	0x3caebc4e	0.021330025
200	0x3eacd450	0.33755732
201	0x3f1f6c14	0.6227429
202	0xbe555c55	-0.20836003
203	0x3f12ba48	0.5731549
204	0x3f2279c0	0.63467026
205	0xbe9d23ac	-0.30691278
206	0x3f43ebc7	0.7653164
207	0x3e81bcdc	0.253394
208	0x3e8084ca	0.2510131
209	0x3dca4e1f	0.09878182
210	0x3f2dd171	0.6789771
211	0xbe4afa3c	-0.1982202
212	0xbde79b40	-0.113089085
213	0xbdb1a11c	-0.08673307
214	0x3d327cf8	0.04357621
215	0x3e553c92	0.20823887
216	0xbeec2217	-0.46119758
217	0xbec5c0f0	-0.38623762
218	0x3eaeb2a2	0.3412066
219	0x3f1d4440	0.61432266
220	0xbe2f8278	-0.17139614
221	0x3f10f182	0.5661851
222	0xbe630709	-0.22170652
223	0xbec616bf	-0.3868923
224	0x3ea89298	0.32924342
225	0xbed59bc4	-0.41720402
226	0x3e2e2e09	0.17009749
227	0xbda8529f	-0.08218884
228	0xbf0a3f6e	-0.54003036
229	0xbe1e11d0	-0.15436482
230	0xbf1b76c7	-0.60728115
231	0xbe58964a	-0.2115108
232	0x3e25ef20	0.162045
233	0x3eb9ed19	0.36313704
234	0x3cb7db26	0.022443365
235	0x3e322df8	0.17400348
236	0xbe1523c8	-0.1456443
237	0xbe875c8e	-0.264378
238	0xbe217e15	-0.15770753
239	0x3ed5dd7f	0.4177055
240	0x3f825c79	1.018447
241	0xbec7842f	-0.38968036
242	0x3d2c0b04	0.042002693
243	0xbd20031a	-0.039065458
244	0xbd853ba2	-0.06505515
245	0x3ec33098	0.38123012
246	0xbe8d787a	-0.2763098
247	0xbdad5167	-0.08462792
248	0x3e32246d	0.17396708
249	0x3e806d12	0.25083214
250	0x3e574504	0.21022421
251	0xbf04bc51	-0.5184985
252	0x3e7f548e	0.24934599
253	0x3e6eb196	0.23309931
254	0xbebc8534	-0.36820376
255	0xbe5dc4d2	-0.21657112

cell.gru.bias_ih f4 [192]
0	0xbea4ec2d	-0.32211438
1	0x3e99ee51	0.30064633
2	0xbe18d368	-0.14924395
3	0xbd9cc354	-0.076544434
4	0x3c1617aa	0.009160915
5	0xbec3c5f0	-0.38236952
6	0x3dcadd8b	0.09905537
7	0xbedefb8a	-0.43551284
8	0xbe9912a4	-0.29897034
9	0xbe8143aa	-0.25246936
10	0xbd8dc174	-0.06921664
11	0x3da535d8	0.080669105
12	0x3e6dd4b9	0.23225679
13	0x3edc3473	0.43008766
14	0x3dd3cf9d	0.103423335
15	0xbf060044	-0.52344155
16	0xbe0d729a	-0.13813248
17	0xbc771fcc	-0.015083265
18	0x3e051324	0.12995583
19	0xbf0ad0cb	-0.5422484
20	0xbdebe0fe	-0.11517523
21	0x3e363999	0.1779541
22	0xbdd3e10d	-0.103456594
23	0x3eaf3bc0	0.34225273
24	0x3e1564fb	0.14589302
25	0x3e297557	0.16548668
26	0xbe086bbd	-0.13322349
27	0xbe316e42	-0.17327216
28	0xbe23a792	-0.15981892
29	0xbebebe63	-0.3725463
30	0xbedbd3a0	-0.42934895
31	0x3eac68f3	0.3367382
32	0x3ef2fc6a	0.47458202
33	0xbd78bd94	-0.06072767
34	0xbec92978	-0.3928945
35	0xbdbb58e0	-0.09147811
36	0xbe98cd8a	-0.29844314
37	0xbd7b7910	-0.06139475
38	0xbe2bd76b	-0.16781394
39	0xbd6bc7e4	-0.057563677
40	0xbebf604b	-0.37378153
41	0xbebb6ad0	-0.3660493
42	0xbe89336c	-0.26797044
43	0x3e5b142f	0.21394418
44	0x3d0daeeb	0.034590643
45	0x3e80b796	0.25140065
46	0xbec48319	-0.3838127
47	0x3e54c92b	0.20779864
48	0xbe1209ba	-0.14261523
49	0xbe68a152	-0.22717789
50	0xbe18c08f	-0.14917205
51	0xbe55cbda	-0.20878544
52	0x3d221e52	0.039579697
53	0x3e150da7	0.14555989
54	0x3d90af7d	0.07064722
55	0xbc2f321f	-0.010693102
56	0x3ebe4d70	0.37168455
57	0x3daf9f6d	0.0857533
58	0xbda71e9e	-0.08160137
59	0xbf3e8b35	-0.74431163
60	0xbe0c2e77	-0.136896
61	0xbf281cf8	-0.656692
62	0x3e939048	0.28821015
63	0xbeb2b356	-0.34902447
64	0x3e438697	0.1909431
65	0x3dfa8fe8	0.12234479
66	0x3e431791	0.19051959
67	0x3e558bfd	0.20854183
68	0xbe670652	-0.22561005
69	0x3ea6c74d	0.3257393
70	0x3e94ab35	0.2903687
71	0xbe6f6047	-0.2337657
72	0xbeac3316	-0.33632725
73	0x3ec5a209	0.38600186
74	0x3d93853f	0.07203149
75	0x3cf00ebc	0.0293039
76	0xbd903730	-0.07041776
77	0x3e8d66cb	0.27617487
78	0x3defec78	0.11715025
79	0x3ca3ff51	0.020019205
80	0x3d8b222f	0.067936294
81	0x3dd2c584	0.10291579
82	0x3e562878	0.20913875
83	0xbc9a5fc7	-0.018844498
84	0xbe649b32	-0.22324827
85	0xbdc963d9	-0.098334976
86	0x3d2756fa	0.04085443
87	0xbc57da90	-0.013174668
88	0x3ea45669	0.32097176
89	0xbe78dd98	-0.24303281
90	0xbdc18bdc	-0.09450504
91	0xbe14a531	-0.1451614
92	0x3e15545e	0.14582965
93	0x3e022004	0.12707525
94	0x3e78c9c7	0.24295722
95	0x3e2ab1fa	0.16669455
96	0x3f0ec28f	0.5576562
97	0xbd45b313	-0.04826648
98	0x3e2ed06b	0.17071693
99	0x3ed3c021	0.4135752
100	0x3deb3974	0.11485568
101	0xbee08be8	-0.4385674
102	0xbf12207a	-0.57080805
103	0xbe1ef0e5	-0.15521581
104	0x3ea6b51f	0.3256006
105	0xbdf3ac37	-0.11898082
106	0x3e607754	0.2192052
107	0xbc1cc3a9	-0.009568133
108	0xbda304fa	-0.079599336
109	0xbf3f8d18	-0.74824667
110	0x3dafbbc0	0.08580732
111	0x3d7fa9ab	0.062417667
112	0xbd4b235e	-0.049594276
113	0x3e15e813	0.1463931
114	0x3ed31717	0.41228554
115	0xbe57f698	-0.21090162
116	0xbd9400d6	-0.07226722
117	0x3da72bb8	0.081626356
118	0xbd81645b	-0.063179694
119	0xbe605db8	-0.21910751
120	0x3e5adf77	0.21374308
121	0x3e343e81	0.17601968
122	0x3cfc7b59	0.030820535
123	0xbedce7ca	-0.4314559
124	0xbdb66e6a	-0.089077786
125	0xbe843a8d	-0.2582592
126	0xbd222a9b	-0.039591413
127	0xbe268262	-0.16260675
128	0xbe7cab16	-0.24674639
129	0x3d046571	0.032323305
130	0x3e03b6e3	0.12862734
131	0xbdb5f7f8	-0.08885187
132	0x3bf0b55b	0.007345838
133	0x3dc4ee18	0.09615725
134	0xbdfd007d	-0.12353609
135	0x3d109fcb	0.03530864
136	0xbd6d2cbb	-0.057903986
137	0x3e667bae	0.22508118
138	0xbc7380be	-0.0148622375
139	0xbd9c1191	-0.07620538
140	0x3d8feed9	0.070279785
141	0x3d3410c4	0.0439613
142	0x3df40c97	0.11916464
143	0x3d061382	0.032733448
144	0x3d9757e1	0.073898084
145	0xbd8ff343	-0.0702882
146	0x3e491b1c	0.19639248
147	0xbd230611	-0.039800707
148	0xbde07cb1	-0.10961283
149	0x3d2dc95d	0.042428363
150	0x3e05aaa7	0.1305338
151	0x3d907ba4	0.070548326
152	0xbdbcdcc9	-0.09221799
153	0xbd7cfc39	-0.061763976
154	0xbe8efd97	-0.2792785
155	0x3dd842db	0.10559627
156	0x3cc43147	0.023949279
157	0x3d691137	0.056901183
158	0xbd3c8dd7	-0.046033707
159	0x3c436ae9	0.011927345
160	0x3dda900a	0.106720045
161	0x3d8a8ecd	0.06765518
162	0x3e3699ce	0.1783211
163	0xbc1a1a42	-0.009405674
164	0xbdda917f	-0.106722824
165	0x3df88c7d	0.12136171
166	0x3b90795e	0.0044089993
167	0x3e1d4d20	0.15361452
168	0x3de2a984	0.11067489
169	0xbda4fcfc	-0.080560654
170	0x3d9e358a	0.077250555
171	0x3ca89798	0.020580098
172	0xbd84da15	-0.06486908
173	0x3e55689c	0.20840687
174	0xbd7807c6	-0.06055429
175	0xbc5ef453	-0.013608056
176	0x3df69a1e	0.12041114
177	0x3e4ff100	0.20306778
178	0xbdd51677	-0.104046755
179	0x3ba2e93e	0.0049716523
180	0xbd9cd2e1	-0.076574095
181	0xbe56800a	-0.2094728
182	0xbe5df3e9	-0.21675076
183	0x3be0235a	0.0068401517
184	0xbdb7640c	-0.08954629
185	0xbc104757	-0.008806071
186	0xbdc424f7	-0.09577363
187	0x3e087305	0.13325126
188	0xbbd989eb	-0.0066387556
189	0x3d2db5e9	0.04240981
190	0xbe66ea6d	-0.22550364
191	0x3dfaf1f8	0.12253183

cell.gru.bias_hh f4 [192]
0	0xbe7864c6	-0.24257192
1	0x3ecb747c	0.39737308
2	0x3d4c8e73	0.049940538
3	0xbe3b0e4e	-0.18267176
4	0x3df58c0f	0.11989605
5	0xbebda392	-0.37038857
6	0xbd7441ab	-0.05963294
7	0xbec04936	-0.37555856
8	0xbeb6cfbf	-0.35705373
9	0xbe03db45	-0.12876613
10	0xbe32026b	-0.17383735
11	0x3d61a252	0.05508644
12	0x3ea41e41	0.32054332
13	0x3e84cbcb	0.25936732
14	0x3dbfc0ce	0.093629465
15	0xbec53e3c	-0.38524044
16	0xbe488daa	-0.1958529
17	0xbd5232b6	-0.051317893
18	0x3e79fee4	0.2441364
19	0xbeb1b85a	-0.34710962
20	0xbd1a4e82	-0.037672527
21	0x3d4c30d3	0.04985125
22	0xbdf000f7	-0.11718934
23	0x3ec4c04f	0.3842797
24	0x3e890d93	0.2676817
25	0xbd91ba1c	-0.07115576
26	0xbdcbe83d	-0.09956405
27	0xbd849374	-0.06473437
28	0xbe979c67	-0.29611513
29	0xbe8fa71d	-0.28057185
30	0xbe5f489b	-0.2180504
31	0x3e89e689	0.26933697
32	0x3f0eddfc	0.5580747
33	0xbcdee917	-0.027210755
34	0xbecf4c69	-0.40487984
35	0xbe1ef457	-0.15522896
36	0xbe69676c	-0.22793359
37	0xbe16c019	-0.14721717
38	0xbe29eed3	-0.1659501
39	0xbd89e340	-0.067327976
40	0xbee073c3	-0.4383832
41	0xbeb2ed51	-0.34946683
42	0xbe26b254	-0.16278964
43	0x3e339235	0.17536242
44	0xbbd39278	-0.0064566694
45	0x3e7f5d9f	0.24938057
46	0xbe835844	-0.2565328
47	0x3e0a8fa0	0.13531351
48	0xbce02a44	-0.027363904
49	0xbd7340b1	-0.059387866
50	0xbeae3be1	-0.3403006
51	0xbe56de5c	-0.20983261
52	0xbd208660	-0.03919065
53	0x3db85600	0.09000778
54	0x3e5c5687	0.21517383
55	0xbd93e10d	-0.072206594
56	0x3ee2e156	0.44312543
57	0xbca67351	-0.020318659
58	0xbe34119d	-0.17584844
59	0xbf1dbccc	-0.61616206
60	0xbe107289	-0.14106192
61	0xbf2e97f2	-0.682006
62	0x3e16f948	0.14743531
63	0xbed1ae32	-0.40953213
64	0x3e45697e	0.19278523
65	0x3e288a88	0.16459095
66	0x3ec3b30e	0.38222545
67	0x3e3b3f4b	0.18285863
68	0xbeb3de26	-0.35130423
69	0x3e81376e	0.25237602
70	0x3e8d8aa0	0.27644825
71	0xbdc19ecc	-0.09454116
72	0xbe9ca06a	-0.30591136
73	0x3e8fb768	0.28069615
74	0x3e831757	0.25603744
75	0x3d7e0db6	0.062024795
76	0x3caa3420	0.020776808
77	0x3da32a27	0.07967024
78	0x3dfbf480	0.12302494
79	0x3d31474c	0.043280885
80	0x3e536205	0.2064286
81	0x3dc7cecf	0.097562425
82	0x3dad3aaa	0.08458455
83	0xbd8fdf23	-0.07024982
84	0xbe9b8902	-0.30377966
85	0xbe46372a	-0.19356981
86	0x3e883438	0.2660234
87	0xbd97cc33	-0.07411995
88	0x3eeaa1f0	0.45826674
89	0xbec21814	-0.37908995
90	0x3da514ae	0.08060585
91	0xbb3e4dca	-0.0029038065
92	0x3e8d6bc3	0.27621278
93	0x3d9d654c	0.076853365
94	0x3e350409	0.1767732
95	0x3e1a6d7c	0.15080827
96	0x3ef6bb3b	0.4818972
97	0xbdaac7f7	-0.083389215
98	0x3e18c734	0.1491974
99	0x3e8c166a	0.2736085
100	0x3e511aaf	0.20420335
101	0xbe962249	-0.29323032
102	0xbedb7b00	-0.4286728
103	0x3d8d9bce	0.06914483
104	0x3eae6803	0.3406373
105	0xbe044993	-0.12918691
106	0x3d854e4b	0.06509074
107	0x3e18b893	0.1491416
108	0xbd46cd73	-0.048535775
109	0xbf3ee128	-0.7456231
110	0x3e046a77	0.12931238
111	0x3e680f4f	0.2266209
112	0xbdb16b0e	-0.08662997
113	0x3e58ab80	0.21159172
114	0x3ea9e15d	0.3317975
115	0xbeb1b96b	-0.34711775
116	0xbdfa7ee9	-0.122312374
117	0x3df3f527	0.119119935
118	0x3d513fbe	0.05108618
119	0xbd20fa7b	-0.039301377
120	0x3ebb48ae	0.36578888
121	0x3d78c2be	0.060732596
122	0x3deea912	0.11653341
123	0xbed9b45a	-0.4252041
124	0xbb864520	-0.004097596
125	0xbe4dddf1	-0.20104195
126	0xbb9efb07	-0.004851702
127	0xbe3c16a5	-0.18368013
128	0x3dee0633	0.11622276
129	0xbe876922	-0.26447397
130	0x3d8086c4	0.062757045
131	0x3ef69ac3	0.4816495
132	0x3dd6198d	0.10454092
133	0xbf01e975	-0.5074685
134	0x3edcbec0	0.4311428
135	0x3de760b3	0.11297741
136	0x3cfe71e7	0.031060172
137	0xbef739ed	-0.4828638
138	0x3e6e2194	0.23254997
139	0x3e37776a	0.17916647
140	0xbd97b6d7	-0.07407921
141	0xbd1276ec	-0.035757944
142	0xbe34b948	-0.17648804
143	0xbe98788c	-0.2977947
144	0xbe8150f8	-0.25257087
145	0x3dfc24a5	0.12311677
146	0xbee7a2ca	-0.45241386
147	0x3d0356d0	0.032065213
148	0x3edaecf8	0.42758918
149	0x3e4565fe	0.19277188
150	0xbc83b2ff	-0.016076563
151	0xbe630213	-0.2216876
152	0x3d9915c7	0.07474857
153	0x3dbc1b98	0.091849506
154	0xbe520b43	-0.20512109
155	0xbebe2161	-0.3713484
156	0xbe922c0c	-0.2854923
157	0xbe15a38d	-0.14613171
158	0xbd0fe3f0	-0.035129488
159	0x3c67f966	0.014158582
160	0xbe082e10	-0.13298821
161	0x3e4c37c4	0.19943148
162	0xbf20a510	-0.62751865
163	0x3cbc6075	0.022995213
164	0x3e9a421b	0.3012856
165	0x3de520d9	0.11187906
166	0x3ef9f025	0.48816028
167	0xbded5194	-0.115878254
168	0xbeaf332b	-0.34218726
169	0xbe496001	-0.19665529
170	0xbdacb085	-0.08432106
171	0x3d97337b	0.07382866
172	0x3db66417	0.089058094
173	0x3f240800	0.6407471
174	0x3e03dac1	0.12876417
175	0xbe9983af	-0.2998328
176	0xbedc5e5d	-0.43040743
177	0xbe3def1b	-0.18548243
178	0x3d54c34f	0.051944073
179	0xbe842877	-0.25812122
180	0x3e35307e	0.1769428
181	0xbde9bc7e	-0.11412905
182	0x3e86c9c6	0.26325816
183	0xbb210c66	-0.002457404
184	0xbdf96123	-0.121767305
185	0x3e3e142d	0.18562384
186	0x3e060b1f	0.1309018
187	0xbec76b26	-0.38948935
188	0x3e43c0fa	0.19116583
189	0xbeb569b7	-0.35432217
190	0x3f0d244e	0.5513352
191	0x3ee25369	0.44204262

fc_out.weight f4 [1, 64]
0	0xbdefc2b6	-0.1170706
1	0xbe2500cd	-0.16113587
2	0xbedd6518	-0.4324119
3	0x3e56c04e	0.20971796
4	0x3d864bd1	0.065574296
5	0x3e93dc0a	0.28878814
6	0xbe564c51	-0.2092755
7	0xbdb8bf19	-0.09020824
8	0x3c9256a0	0.017863572
9	0xbf16215f	-0.5864467
10	0xbe61fbc6	-0.220687
11	0x3ddc49dc	0.10756275
12	0x3e0fd858	0.14047372
13	0xbe1d72e8	-0.15375865
14	0x3d4e8aa0	0.05042517
15	0x3e36e2cb	0.17859952
16	0x3e8ef995	0.2792479
17	0xbe452198	-0.19251096
18	0xbe255942	-0.1614733
19	0x3e4b9df2	0.1988447
20	0xbdc70dce	-0.0971943
21	0x3bd8dc00	0.006618023
22	0xbe874dcd	-0.26426545
23	0xbdda606a	-0.10662921
24	0x3d113eca	0.03546027
25	0xbdc7f65d	-0.09763787
26	0xbafe83eb	-0.0019417977
27	0x3e896483	0.26834497
28	0x3bdb1620	0.006685987
29	0x3eb3ff04	0.351555
30	0xbe52616a	-0.20544973
31	0xbe578107	-0.21045314
32	0xbf68d0e1	-0.90943724
33	0x3dd52508	0.10407454
34	0x3eb93269	0.36171272
35	0x3ea39345	0.31948295
36	0x3ea213e9	0.31655815
37	0xbdd46706	-0.10371213
38	0x3d47624d	0.04867773
39	0xbe502c10	-0.20329309
40	0xbf30648b	-0.68903416
41	0xbe38e48d	-0.18055935
42	0xbeb1efdc	-0.3475331
43	0xbdd37868	-0.103257
44	0xbd07cba4	-0.03315319
45	0x3ca4f8a9	0.020138102
46	0x3e9d755c	0.307536
47	0xbea132c0	-0.31484032
48	0xbe9235fa	-0.28556806
49	0xbe508e68	-0.20366824
50	0x3eba0283	0.3633004
51	0xbe38332e	-0.17988274
52	0x3dd89955	0.10576121
53	0x3bcfa965	0.006337332
54	0x3e447c8b	0.19188134
55	0xbdc506e6	-0.096204564
56	0xbe6391d6	-0.22223601
57	0x3e87a638	0.26494002
58	0x3df00b4e	0.11720906
59	0x3e6572c8	0.22407067
60	0xbdd9a828	-0.106277764
61	0x3e81b637	0.2533433
62	0x3e39bc2d	0.1813819
63	0x3d5571f5	0.05211063
