notebooks/DCRNN/No_Adj_10mins/dcrnn_best.pt (torch, 543223 bytes, 8 tensors)

adj f4 [325, 325]
1.3846737 -0.036569342 -0.016127694 -0.014559171 0.012661502 0.007882194 0.019208223 -0.0045658792
-0.0033502409 -0.058038533 -0.010689385 -0.007904243 -0.018255167 -0.009359883 0.05195157 -0.011409842
0.010823091 0.021871187 -0.07433705 0.1077469 -0.033884883 0.056434393 0.008692079 0.048671614
0.004252028 0.02755367 -0.02404481 0.0018726974 0.029399646 0.029688105 -0.015999401 -0.013113878
-0.018569767 0.03749613 0.028983967 0.017994562 0.0016706829 -0.013232306 -0.033292543 0.006738295
0.02434739 -0.0115749845 3.9850456e-05 0.0354951 -0.02936621 0.036120348 -0.006929372 -0.00051977584
-0.011269098 -0.028068721 0.03256716 -0.030877693 0.03293029 0.02403835 -0.012908169 -0.0004122516
0.021538164 0.028935362 0.05534154 -0.043466717 0.00773048 0.031202408 -0.012767962 0.020338897
0.03919112 0.01745529 0.005854142 0.046938058 0.01640236 0.092433035 -0.013399373 0.037140846
0.07446386 -0.019542523 -0.003143636 -0.010421619 0.0028613568 0.038562305 0.043380048 -0.0053376416
0.035771027 0.0042550485 0.030043753 0.0056909807 0.028139487 -0.049048215 -0.020758526 -0.0037504444
-0.045696173 0.039698813 0.049967635 -0.019322451 0.010127121 0.051702578 0.021795576 0.02551279
-0.002243538 -0.018285602 0.0057323924 0.030854916 -0.0062463265 0.03829451 0.05248577 0.025326932
-0.011901072 -0.03386691 -0.006640515 -0.046002023 -0.019566191 -0.0094708465 -0.012254967 0.0031549686
0.01907516 0.008560418 0.0077477335 -0.009343962 -0.016020041 -0.045199364 0.14954364 0.0007375519
-0.010916546 0.014286771 -0.026543453 -0.005877132 0.10275065 0.01946776 0.022423785 -0.002309699
-0.04428563 -0.0031882606 0.031674027 -0.014888585 0.1878532 -0.005091056 -0.051169578 0.0035468952
-0.020726308 0.027247623 -0.011476816 -0.0024744153 -0.026696471 -0.022894485 0.03453928 0.04435908
-0.033175807 0.017120257 0.012324777 -0.01793165 0.06703893 -0.03810662 0.008142519 -0.073662095
0.010919713 -0.0034006864 0.00016138626 -0.014853434 0.0314599 0.01602145 -0.007411837 0.01868025
-0.03768685 -0.010129512 -0.007915342 -0.046947323 -0.019805364 0.027522372 -0.009244777 -0.033043087
-0.034520682 -0.00083785574 -0.015991783 0.03418289 -0.010781339 0.027555639 0.0025429695 0.03327361
0.014584086 -0.02659742 -0.009005653 0.008628426 0.01759405 -0.0017743068 0.0033414862 0.053452924
0.007908885 0.0065553705 -0.07121054 0.0009850494 -0.011525614 0.0223388 -0.015415558 -0.0021552905
0.034901116 0.020348262 -0.006105127 -0.043821942 -0.015745906 -0.010116485 -0.008487734 0.009492675
0.03470052 -0.05663792 0.01950346 0.018188087 -0.025675563 -0.012175338 -0.018204454 0.027988378
-0.018580534 -0.027141148 0.015762625 0.08463426 -0.011111512 0.06318817 0.08631441 -0.017086154
0.21499401 -0.0076059187 -0.022978151 0.013333678 -0.020683369 -0.0148840705 -0.038396124 -0.015134804
-0.005755722 -0.013946216 0.008915282 7.386162e-05 -0.003796238 -0.0021612586 -0.02591143 0.011733786
-0.015565873 -0.051310997 -0.0060727787 -0.05546219 0.014200685 0.01501229 0.008543903 0.040364873
-0.064949445 0.039837696 -0.026466282 0.014849806 -0.02392 -0.03107779 -0.04443114 -0.03030329
0.04195494 0.04694239 0.033985157 0.015622645 -0.028649552 0.112309694 -0.05511886 -0.017901096
00000000: fd3c b13f bcc9 15bd 3a1e 84bc 9789 6ebc
00000010: 3072 4f3c 5124 013c 905a 9d3c 5f9d 95bb
00000020: b78f 5bbb d0b9 6dbd 8822 2fbc cc80 01bc
00000030: dc8b 95bc 325a 19bc 2bcb 543d 59f0 3abc
00000040: 5553 313c 342b b33c 063e 98bd 68aa dc3d
00000050: e0ca 0abd c027 673d 3969 0e3c e35b 473d
00000060: 9954 8b3b 3cb8 e13c 9ff9 c4bc 4c75 f53a
00000070: 87d7 f03c 7834 f33c 2d11 83bc 97db 56bc
00000080: a01f 98bc 8b95 193d c96f ed3c 5569 933c
00000090: d1fa da3a 50cc 58bc c35d 08bd eacc dc3b
000000a0: 2d74 c73c 01a5 3dbc 1a25 2738 4f63 113d
000000b0: 6891 f0bc eef2 133d c90f e3bb 9141 08ba
000000c0: 06a2 38bc 60f0 e5bc 2465 053d 37f3 fcbc
000000d0: e9e1 063d 13ec c43c c97c 53bc 7923 d8b9
000000e0: ce70 b03c da09 ed3c d0ad 623d 280a 32bd
000000f0: f74f fd3b 319c ff3c b730 51bc c29d a63c
00000100: de86 203d 65fe 8e3c 1ad4 bf3b 1f42 403d
00000110: 3e5e 863c 884d bd3d 0b89 5bbc 0021 183d
00000120: 8280 983d a417 a0bc 7605 4ebb 70bf 2abc
00000130: 9a85 3b3b 82f3 1d3d 47af 313d 62e7 aebb
00000140: a484 123d ef6d 8b3b 511e f63c 687b ba3b
00000150: c884 e63c c8e6 48bd c90d aabc 04ca 75bb
00000160: e92b 3bbd 399b 223d ddaa 4c3d 1e4a 9ebc
00000170: 39ec 253c 15c6 533d a38c b23c 3300 d13c
00000180: 5208 13bb b0cb 95bc cbd6 bb3b 73c3 fc3c
00000190: fcad ccbb b4da 1c3d 52fb 563d 6d7a cf3c
000001a0: b7fc 42bc 07b8 0abd ad98 d9bb 9e6c 3cbd
000001b0: 4749 a0bc 9c2b 1bbc 0fc9 48bc 97c3 4e3b
000001c0: 8343 9c3c ff40 0c3c b3e0 fd3b 6b17 19bc
000001d0: 763c 83bc f822 39bd f821 193e 4558 413a
000001e0: 50db 32bc 1013 6a3c a871 d9bc f594 c0bb
000001f0: ef6e d23d da7a 9f3c 16b2 b73c 525e 17bb
00000200: d964 35bd 23f2 50bb a0bc 013d 40ef 73bc
00000210: 975c 403e e0d2 a6bb 3197 51bd 0773 683b
00000220: 38ca a9bc 6836 df3c 4109 3cbc cd29 22bb
00000230: 8fb2 dabc 378d bbbc 0f79 0d3d deb1 353d
00000240: 5be3 07bd c83f 8c3c dded 493c 65e5 92bc
00000250: b54b 893d b015 1cbd 3368 053c 27dc 96bd
00000260: 99e8 323c 0dde 5ebb cb39 2939 d15b 73bc
00000270: 19dc 003d 6a3f 833c ffde f2bb 5307 993c
00000280: 875d 1abd 41f6 25bc 5aaf 01bc d64b 40bd
00000290: dc3e a2bc 9976 e13c 6877 17bc 3058 07bd
000002a0: 8f65 0dbd 8ca3 5bba 3301 83bc 5c03 0c3d
000002b0: 37a4 30bc 5dbc e13c f3a7 263b e949 083d
000002c0: 17f2 6e3c d5e2 d9bc 728c 13bc 3e5e 0d3c
000002d0: 6621 903c db8f e8ba d6fc 5a3b 74f1 5a3d
000002e0: 4594 013c 6fce d63b d5d6 91bd c61c 813a
000002f0: eed5 3cbc dcff b63c 8991 7cbc c63f 0dbb
00000300: 79f4 0e3d 66b1 a63c 840d c8bb a37e 33bd
00000310: 8ffd 80bc 9dbf 25bc 2310 0bbc 2a87 1b3c
00000320: 2222 0e3d 2afd 67bd b8c5 9f3c 2fff 943c
00000330: 8f55 d2bc 127b 47bc 8221 95bc e247 e53c
00000340: 3436 98bc 1d57 debc 9f20 813c ba54 ad3d
00000350: 0f0d 36bc cd68 813d 9cc5 b03d 43f8 8bbc
00000360: 6427 5c3e 123b f9bb ad3c bcbc 8075 5a3c
00000370: 2b70 a9bc 51dc 73bc 4145 1dbd f8f7 77bc
00000380: 7f9a bcbb ab7e 64bc 6711 123c 28e6 9a38
00000390: 4eca 78bb e7a3 0dbb 3544 d4bc 113f 403c
000003a0: 0108 7fbc 7b2b 52bd 29fe c6bb 522c 63bd
000003b0: fda9 683c 1cf6 753c bafb 0b3c a355 253d
000003c0: 3704 85bd da2c 233d d1cf d8bc 9a4c 733c
000003d0: e0f3 c3bc d996 febc 6dfd 35bd 9b3e f8bc
000003e0: f1d8 2b3d aa46 403d 0534 0b3d 1ff6 7f3c
000003f0: 77b2 eabc a002 e63d 50c4 61bd 52a5 92bc

cell.diff.theta f4 [65, 64]
-0.077564575 0.1307042 -0.16938536 -0.18513075 0.19724715 -0.14592493 0.0369089 -0.15404475
-0.025933694 0.09273809 0.1914756 -0.17351712 0.18740943 0.103936665 0.18027532 -0.19914052
0.13958956 -0.1761821 0.09118427 0.12367402 -0.19920509 -0.11051609 0.20757782 0.091493115
-0.17270139 0.20041615 0.12217404 0.1683469 0.19577684 -0.15417798 0.1740888 -0.14147818
-0.07450267 0.17452462 -0.024733333 -0.05125789 -0.18648416 -0.086239465 0.17534642 -0.018179182
-0.11214499 -0.18085285 0.17995885 0.15055718 -0.19192487 0.13429491 0.007971364 0.1718624
-0.16750787 -0.13149576 -0.024482295 -0.14660808 -0.12618619 -0.22006986 0.19289064 0.15091737
-0.18810374 -0.08585834 0.16089778 0.18833916 0.21403736 -0.16493641 0.09488655 -0.20587923
0.08031706 -0.0036800937 0.044677757 -0.0042833793 0.07138904 -0.0611504 0.17228973 -0.048518706
-0.04878969 -0.0031597866 0.037381034 -0.028665341 0.07159011 -0.039214537 0.09355275 0.018874966
0.0054506324 -0.0414948 0.028687581 -0.092620514 -0.056020513 0.047365326 0.046953578 -0.038848266
0.054763943 0.080795415 -0.067094 0.019467397 0.08817855 -0.058778632 0.072379485 0.10858665
-0.1443429 0.18305112 0.07645898 0.10975551 -0.065871365 0.090427354 -0.011487689 0.06319051
0.06797326 -0.00800252 0.016163513 0.046271425 -0.04501093 -0.020981703 -0.0037986198 0.059238326
0.021935228 0.037705388 -0.18727928 -0.09177842 -0.026251126 -0.07325293 0.115429215 0.017165696
-0.080450185 0.010693435 0.118775815 0.015907098 -0.005972577 0.057291493 -0.11611987 -0.045851216
-0.0848488 0.080647185 0.043777213 0.0009292924 0.13544936 -0.07122926 0.13719366 -0.010014318
0.013105879 -0.042575106 0.16513163 0.06469555 0.113873035 0.17630722 -0.09928807 -0.0580165
0.09037702 -0.04327301 0.048244808 0.07510573 -0.013184314 0.08473326 0.08022847 -0.14186676
-0.07521957 -0.026703043 0.055484526 0.16648097 0.064366534 -0.10740677 0.13581182 0.05104401
-0.101183675 0.10480333 -0.09984563 -0.045396015 0.04419132 -0.13948837 -0.06344866 -0.021991765
0.083179854 -0.11871751 -0.04271215 0.04016797 -0.12046431 -0.018603709 0.10559917 0.12729052
-0.01185452 -0.12367335 -0.12069023 0.027049838 0.0544527 0.02910903 0.007963367 0.21373814
0.019498419 0.04944294 0.10524352 0.06764237 0.116312064 -0.11663651 0.11665568 -0.09276783
-0.074688554 0.019114606 0.11223183 0.04298699 -0.03884394 -0.013047209 0.13962302 0.084754944
0.100926965 -0.006308513 -0.060814973 0.005242932 0.04136565 0.16110866 -0.028392699 0.11122345
0.013531641 0.04685039 0.13934869 -0.08818396 0.0029310517 -0.080789536 -0.015312952 0.026633177
0.11197487 0.0016345347 0.09569728 -0.031592663 -0.056455236 0.0027558056 0.078350924 -0.11078044
-0.07745918 0.016850986 0.08283591 -0.076630756 0.032625686 -0.059061974 0.05076655 -0.040927865
-0.10501734 0.0801771 0.033258636 0.027294608 0.11967599 0.04850149 0.12070983 -0.024266101
0.07760556 -0.0045323484 -0.062090404 0.038587447 -0.11107769 0.042275507 -0.068657726 -0.031838145
0.08842011 -0.07487854 -0.012126644 -0.14102148 -0.032125726 -0.02752769 -0.10773412 0.09649241
00000000: 2dda 9ebd 52d7 053e 5b73 2dbe ea92 3dbe
00000010: 28fb 493e 586d 15be c92d 173d e8bd 1dbe
00000020: e672 d4bc 78ed bd3d 2e12 443e 79ae 31be
00000030: 42e8 3f3e bfdc d43d 189a 383e 7eeb 4bbe
00000040: 91f0 0e3e 1569 34be d2be ba3d ce48 fd3d
00000050: 6bfc 4bbe 4356 e2bd 488f 543e be60 bb3d
00000060: a2d8 30be e439 4d3e 6236 fa3d 2163 2c3e
00000070: b979 483e d5e0 1dbe 5644 323e a8df 10be
00000080: db94 98bd 95b6 323e 8f9d cabc cbf3 51bd
00000090: b4f5 3ebe 519e b0bd 038e 333e 82ec 94bc
000000a0: 46ac e5bd 7d31 39be 2247 383e a92b 1a3e
000000b0: f487 44be 9b84 093e 539a 023c b2fc 2f3e
000000c0: 2f87 2bbe d3a6 06be 188f c8bc 6e20 16be
000000d0: f436 01be fe59 61be 2085 453e 158a 1a3e
000000e0: 449e 40be 7fd6 afbd 63c2 243e fbdb 403e
000000f0: 9c2c 5b3e 17e5 28be e153 c23d 01d2 52be
00000100: 457d a43d ba2d 71bb 0600 373d 975b 8cbb
00000110: 6b34 923d d878 7abd b86c 303e 8dbb 46bd
00000120: b3d7 47bd 6c14 4fbb db1c 193d 94d3 eabc
00000130: d69d 923d 6c9f 20bd 9698 bf3d ac9f 9a3c
00000140: 389b b23b 74f6 29bd 3802 eb3c d3af bdbd
00000150: c475 65bd 2502 423d 6552 403d 5c1f 1fbd
00000160: 2850 603d 1178 a53d 9468 89bd 177a 9f3c
00000170: f596 b43d ddc1 70bd b23b 943d ad62 de3d
00000180: a0ce 13be c171 3b3e 8796 9c3d 7fc7 e03d
00000190: 91e7 86bd fa31 b93d dc36 3cbc 076a 813d
000001a0: 9135 8b3d 001d 03bc 5869 843c 1b87 3d3d
000001b0: 625d 38bd d2e1 abbc 44f2 78bb e3a3 723d
000001c0: 82b1 b33c f770 1a3d 24c6 3fbe 53f6 bbbd
000001d0: 9a0c d7bc a205 96bd 2766 ec3d 139f 8c3c
000001e0: 11c3 a4bd 8433 2f3c bc40 f33d 9a4f 823c
000001f0: 9bb5 c3bb 7caa 6a3d 41d0 edbd 7cce 3bbd
00000200: 35c5 adbd 5a2a a53d bc4f 333d c29b 733a
00000210: 3db3 0a3e a5e0 91bd 7f7c 0c3e 1813 24bc
00000220: 0aba 563c 3c63 2ebd 4418 293e 1a7f 843d
00000230: 4436 e93d e189 343e 8b57 cbbd b6a2 6dbd
00000240: 9617 b93d 0a3f 31bd 599c 453d 08d1 993d
00000250: 0503 58bc a288 ad3d d34e a43d 8545 11be
00000260: b80c 9abd 57c0 dabc be43 633d fd79 2a3e
00000270: 9ad2 833d 15f8 dbbd 4112 0b3e 8613 513d
00000280: 6339 cfbd 21a3 d63d de7b ccbd 2cf1 39bd
00000290: f501 353d 0ad6 0ebe 5ff1 81bd 1328 b4bc
000002a0: 335a aa3d 2a22 f3bd eff2 2ebd 2b87 243d
000002b0: feb5 f6bd ce66 98bc 6144 d83d 7258 023e
000002c0: 7639 42bc 7448 fdbd 702c f7bd 9f97 dd3c
000002d0: cb09 5f3d 0f76 ee3c c878 023c 2cde 5a3e
000002e0: 26bb 9f3c ae84 4a3d ea89 d73d 1588 8a3d
000002f0: 0535 ee3d 1fdf eebd 2ce9 ee3d 0ffd bdbd
00000300: 50f6 98bd 3c96 9c3c cdd9 e53d 2013 303d
00000310: d31a 1fbd f6c3 55bc 56f9 0e3e 0094 ad3d
00000320: ccb2 ce3d a5b7 cebb 1f19 79bd e7cc ab3b
00000330: 076f 293d abf9 243e ce97 e8bc 1fc9 e33d
00000340: d1b3 5d3c 32e6 3f3d 6cb1 0e3e cb99 b4bd
00000350: e316 403b fc74 a5bd 2de3 7abc d22d da3c
00000360: 1553 e53d e23d d63a effc c33d 4f67 01bd
00000370: 9b3d 67bd bf9a 343b 7376 a03d dbe0 e2bd
00000380: eba2 9ebd 140b 8a3c e0a5 a93d 96f0 9cbd
00000390: 83a2 053d f8ea 71bd 96f0 4f3d faa3 27bd
000003a0: 5513 d7bd e433 a43d 353a 083d f198 df3c
000003b0: af18 f53d 80a9 463d b736 f73d b4c9 c6bc
000003c0: aaef 9e3d 1884 94bb 8252 7ebd df0d 1e3d
000003d0: b37c e3bd 1529 2d3d 6c9c 8cbd b768 02bd
000003e0: 9a15 b53d ec59 99bd d5ae 46bc ef67 10be
000003f0: 4496 03bd c081 e1bc b5a3 dcbd d09d c53d

cell.gru.weight_ih f4 [192, 64]
-0.23191996 0.4488059 -0.20063223 -0.21477644 0.290602 -0.2677786 0.22802684 -0.18918954
-0.096122816 0.14333987 0.2068282 -0.1255622 0.2583892 0.05804145 0.03566578 -0.0143454075
0.3438558 -0.1619779 0.32169518 0.1295051 -0.27995265 -0.426914 0.10892557 0.1246892
-0.075930946 0.043759365 0.16275518 -0.0603076 0.13584025 -0.15082951 0.047096334 -0.25413126
-0.37306166 0.37000272 -0.28495106 -0.08018692 -0.3076486 -0.22430101 0.26705647 -0.20675659
-0.05835605 -0.23318446 0.23574306 0.3803821 -0.007494464 0.12615335 -0.30290064 0.2733922
-0.2490797 -0.32823735 -0.35729513 -0.25668797 -0.38442168 -0.23421788 0.09871853 -0.09629649
-0.17189504 -0.18657362 0.08448305 0.09133446 0.06583534 -0.12978145 0.04237125 -0.25506875
-0.054594766 0.104533456 -0.038486052 0.036873125 -0.033956666 0.20693058 0.10599746 -0.055047333
-0.075531855 0.06606045 -0.059170946 -0.14157958 -0.12610517 -0.044728722 -0.08818693 0.21881415
0.020059008 0.16327982 -0.05423784 -0.076681 -0.042114288 -0.014609249 -0.21070491 0.25171602
0.102406345 -0.060162846 0.08433071 -0.018500231 -0.16735686 0.13284731 -0.20378537 -0.060422346
0.023458358 -0.19751413 -0.20909289 0.022896135 0.09292387 0.019464556 -0.07697915 -0.16275114
0.10843344 0.00074217794 -0.07384311 0.090303466 0.18602616 0.08569557 -0.08596503 0.06820977
-0.04227455 -0.031996734 -0.10489616 0.22927314 0.10494459 0.16994955 -0.07776718 -0.1936264
0.069823034 -0.18841876 -0.29828116 -0.081622586 -0.045302197 -0.044792768 -0.0052392096 0.029964264
-0.047030058 -0.0294669 0.073819585 0.14645611 -0.14272112 0.21844181 0.12491461 0.06602088
-0.13054024 0.08383663 0.0426008 0.059153605 0.049946696 -0.07081564 -0.024845144 0.0025867105
-0.2042088 -0.032873333 0.094270356 0.11183563 0.13188772 -0.04827912 -0.1051152 0.004222417
0.098064415 -0.16860288 0.11855293 -0.12509827 -0.107336506 0.04327863 -0.014999851 -0.13618423
-0.04672569 0.038748056 -0.3406416 -0.007975443 0.074026555 -0.12887692 -0.117002584 -0.31379282
-0.18130879 0.08920338 0.1252989 -0.031651292 -0.015129914 -0.04739098 -0.45493254 0.10650704
0.001113873 -0.14414006 -0.22742476 0.18052253 -0.13918619 0.15238357 -0.17248258 -0.07540711
-0.07792906 -0.27345788 -0.016007444 -0.036231376 -0.28467867 0.04147041 -0.025086649 0.106601775
-0.048643917 0.0126449745 0.06282297 -0.0059230225 -0.023817731 0.0686983 0.009046682 -0.07128189
0.15425731 -0.12859474 -0.04818389 -0.0029233722 -0.12428995 0.06924867 -0.016631123 -0.13157983
0.061755996 -0.050926317 -0.04267053 0.003940033 -0.033889413 0.121319935 0.16491024 0.057791017
0.043823194 -0.108702295 0.112189226 -0.0058782366 0.03691874 0.1569803 -0.07235121 0.11721408
0.07735631 -0.06480948 0.13869396 0.1878922 -0.011557544 0.119636096 0.049786583 0.28519014
0.18057558 -0.046494726 -0.06950684 -0.026433202 0.09024977 -0.017261572 0.2062112 0.03399766
-0.034977406 -0.053024843 0.15155219 0.02348183 0.12412123 0.13550672 0.057726912 -0.020510139
0.07829072 0.09625122 -0.14683722 0.03691 -0.10168595 0.0092169875 -0.13930744 -0.035663877
00000000: 6d7c 6dbe e3c9 e53e 8972 4dbe 5bee 5bbe
00000010: c9c9 943e 471a 89be de7f 693e e7ba 41be
00000020: 0adc c4bd b0c7 123e c6ca 533e 6193 00be
00000030: 974b 843e dfbc 6d3d 4816 123d 0009 6bbc
00000040: de0d b03e 89dd 25be 3bb5 a43e fc9c 043e
00000050: f455 8fbe 7994 dabe 5f14 df3d 0d5d ff3d
00000060: af81 9bbd 053d 333d 4ba9 263e 1a05 77bd
00000070: b519 0b3e 0d73 1abe 16e8 403d 7e1d 82be
00000080: f001 bfbe ff70 bd3e 1be5 91be 0a39 a4bd
00000090: 1e84 9dbe 2aaf 65be a0bb 883e 00b8 53be
000000a0: c106 6fbd e8c7 6ebe a166 713e 71c1 c23e
000000b0: 1f94 f5bb 582e 013e cb15 9bbe 10fa 8b3e
000000c0: c00e 7fbe ba0e a8be 63ef b6be 9b6c 83be
000000d0: ebd2 c4be d0d6 6fbe f12c ca3d 1837 c5bd
000000e0: 4105 30be 280d 3fbe 7305 ad3d 900d bb3d
000000f0: aed4 863d 6ee5 04be 7a8d 2d3d 5f98 82be
00000100: c39e 5fbd a315 d63d 8da3 1dbd 4608 173d
00000110: 2516 0bbd 9ce5 533e 3215 d93d 5079 61bd
00000120: 72b0 9abd b44a 873d 3c5d 72bd 3dfa 10be
00000130: b721 01be 7735 37bd 599b b4bd d110 603e
00000140: ca52 a43c d332 273e 7f28 5ebd ee0a 9dbd
00000150: 0880 2cbd a25b 6fbc 07c3 57be ece0 803e
00000160: 6bba d13d 516d 76bd 94b5 ac3d cc8d 97bc
00000170: 995f 2bbe 2009 083e 1dad 50be 6c7d 77bd
00000180: be2b c03c 2541 4abe 721c 56be ad90 bb3c
00000190: df4e be3d 2274 9f3c 3fa7 9dbd 3ca8 26be
000001a0: 5a12 de3d b88e 423a 0e3b 97bd 06f1 b83d
000001b0: a47d 3e3e 2981 af3d 6f0e b0bd 90b1 8b3d
000001c0: 1428 2dbd 020f 03bd ccd3 d6bd 94c6 6a3e
000001d0: 30ed d63d 4107 2e3e 6644 9fbd 0046 46be
000001e0: 61ff 8e3d d9f0 40be 4fb8 98be be29 a7bd
000001f0: cc8e 39bd 9f78 37bd adad abbb 9e77 f53c
00000200: 97a2 40bd 9164 f1bc b92e 973d 97f8 153e
00000210: 7c25 12be 36af 5f3e 3bd3 ff3d f535 873d
00000220: 57ac 05be 8ab2 ab3d 2d7e 2e3d 0d4b 723d
00000230: e894 4c3d ca07 91bd 0b88 cbbc cd85 293b
00000240: 1d1c 51be 30a6 06bd d110 c13d 140a e53d
00000250: 930d 073e 54c0 45bd a346 d7bd 335c 8a3b
00000260: ffd5 c83d 3ca6 2cbe e1cb f23d c319 00be
00000270: 3ed3 dbbd ef44 313d efc1 75bc e173 0bbe
00000280: 7063 3fbd 48b6 1e3d 9368 aebe 6fab 02bc
00000290: 3c9b 973d 50f8 03be 0d9f efbd 74a9 a0be
000002a0: 03a9 39be 43b0 b63d 5b4e 003e c9a4 01bd
000002b0: 75e3 77bc 0b1d 42bd ebec e8be 5d20 da3d
000002c0: 60ff 913a 7499 13be 09e2 68be e6da 383e
000002d0: d386 0ebe 700a 1c3e 469f 30be 0b6f 9abd
000002e0: 4599 9fbd ac02 8cbe 0b22 83bc 5a67 14bd
000002f0: 67c1 91be e0dc 293d 8482 cdbc 0852 da3d
00000300: d83e 47bd de2c 4f3c 54a9 803d ea15 c2bb
00000310: 671d c3bc b2b1 8c3d 8938 143c 3dfc 91bd
00000320: a1f5 1d3e 57ae 03be 785c 45bd 0c96 3fbb
00000330: bb8b febd 3fd2 8d3d fe3d 88bc ddbc 06be
00000340: dbf3 7c3d 1d98 50bd 4bc7 2ebd 641b 813b
00000350: a0cf 0abd 9676 f83d 3bde 283e 46b6 6c3d
00000360: f37f 333d 4f9f debd 77c3 e53d 399e c0bb
00000370: 1b38 173d 72bf 203e df2c 94bd f00d f03d
00000380: fc6c 9e3d d5ba 84bd ca05 0e3e d066 403e
00000390: da5b 3dbc c503 f53d 04ed 4b3d 7104 923e
000003a0: cee8 383e 4171 3ebd 9a59 8ebd 718a d8bc
000003b0: dfd4 b83d 2468 8dbc 0729 533e 2141 0b3d
000003c0: 7844 0fbd 9430 59bd 7f30 1b3e f75c c03c
000003d0: 4533 fe3d 46c2 0a3e 0e73 6c3d e104 a8bc
000003e0: e356 a03d 5c1f c53d 7f5c 16be f12e 173d
000003f0: b940 d0bd d902 173c 9ca6 0ebe 4914 12bd

cell.gru.weight_hh f4 [192, 64]
0.17141378 0.055307787 -0.32086712 0.17308874 0.22594292 -0.028257338 0.25373453 0.05520045
-0.4119383 0.058024123 -0.095957614 -0.267638 0.18450318 -0.19086269 -0.07955703 -0.2707947
0.07167011 -0.42390564 -0.20659043 -0.1228233 -0.23399079 0.061302286 -0.1070054 -0.036264624
-0.19099803 -0.2044878 0.20695405 -0.21657139 0.13183405 -0.054269653 -0.2943389 -0.13845912
0.12826306 -0.09722354 -0.10212399 -0.27794006 -0.21712111 0.045367435 -0.27533743 0.19699655
0.19759868 -0.15052634 -0.048461083 -0.28692695 0.04594373 -0.037476312 0.12401452 0.018075788
-0.05770637 0.3043096 -0.06803598 -0.025880009 -0.27485976 -0.22222693 0.1432158 0.41592458
-0.13638861 0.07355991 0.07865363 0.34127337 0.10418621 -0.12258313 0.19707671 0.17828934
0.042200286 -0.2789332 0.02510038 -0.02345463 -0.02493456 0.08527652 -0.050032772 -0.03326548
-0.22406366 -0.11521814 0.012748223 0.063733526 -0.09240267 -0.067936346 -0.05876931 -0.060759585
-0.05121067 -0.1290414 -0.037309647 -0.015262087 -0.0716094 -0.046919614 0.0395141 -0.024327919
-0.010161806 -0.05910782 -0.09544742 -0.020705108 -0.01319128 -0.052537598 0.035732716 0.18710361
0.014483006 -0.02171101 0.019465575 -0.1104259 -0.05077306 -0.09114518 -0.013939437 0.14643477
-0.028162265 -0.07467924 -0.07734227 -0.10760226 0.16436677 0.03536191 0.006047061 -0.12219938
-0.100892775 -0.0213892 0.08204102 -0.009995076 0.06174824 0.108168386 0.07847652 0.01188681
0.034587946 -0.021027902 -0.0018088138 -0.09287271 0.022772282 0.024414651 -0.108813755 0.23741688
-0.32292292 -0.3762508 0.06324454 0.054624345 -0.1839843 -0.34490284 -0.10788094 -0.03419272
-0.29926044 0.2568329 0.0733975 -0.13989376 -0.36471882 0.092581496 -0.03775949 0.012358653
-0.072907425 -0.20436741 -0.32803258 0.30867994 0.18129075 -0.06297718 0.25118056 -0.048284836
-0.061650243 0.04972615 -0.09375649 -0.0043830867 -0.16962096 0.19433217 -0.19708207 -0.018490305
0.072196834 0.1831764 0.08130942 0.12616608 0.24631163 -0.24071738 -0.08927736 -0.31434688
-0.10205927 0.26104066 0.16316707 0.15660669 -0.007927299 0.23017587 -0.343607 -0.19992228
0.08576421 -0.272328 -0.090804785 0.0778307 -0.2829896 -0.035662342 -0.13334098 0.23229954
0.2995956 0.22312899 -0.19671702 0.07348534 0.007119647 0.19684479 -0.14678152 0.13143425
0.17940347 0.15165696 -0.011938809 -0.26157153 0.104594626 -0.009779614 -0.09070496 -0.056269422
0.091868035 0.08093607 0.03752696 0.0045729387 0.086921 0.038994282 -0.029140323 0.038337972
0.0032722324 0.097706445 0.16020226 0.027129997 -0.10081108 0.008321013 -0.14117844 -0.13327701
0.07479618 -0.013777152 -0.07395042 0.046103407 0.07140592 -0.028026402 -0.13426167 0.14710642
0.014029692 -0.10904537 0.08021328 0.1206193 -0.104923 0.019697288 0.1118762 -0.022604382
0.19771023 0.15659265 -0.15937288 0.031100668 -0.016985498 -0.0059014475 0.044479374 -0.04876752
-0.01984283 0.010504987 0.20786719 -0.1455705 0.12030872 0.055250563 -0.015365298 -0.2251807
0.096962176 0.12917618 -0.059261046 0.29619953 -0.057794467 0.013836851 -0.06378707 -0.031677
00000000: 1887 2f3e 6b8a 623d b248 a4be 2d3e 313e
00000010: 955d 673e ef7b e7bc 7ee9 813e de19 623d
00000020: 94e9 d2be b4aa 6d3d 6d85 c4bd d907 89be
00000030: 67ee 3c3e 8271 43be ccee a2bd 9aa5 8abe
00000040: c7c7 923d 290a d9be 718c 53be c88a fbbd
00000050: 489b 6fbe 1b18 7b3d a625 dbbd 378a 14bd
00000060: fd94 43be 4065 51be c3eb 533e e4c4 5dbe
00000070: 81ff 063e db49 5ebd 97b3 96be 3ac8 0dbe
00000080: 6457 033e 231d c7bd 6226 d1bd 294e 8ebe
00000090: ff54 5ebe 34d3 393d 07f9 8cbe 77b9 493e
000000a0: 4f57 4a3e 9423 1abe 217f 46bd 17e8 92be
000000b0: 7e2f 3c3d c380 19bd 53fb fd3d ad13 943c
000000c0: 845d 6cbd 78ce 9b3e 7356 8bbd 5002 d4bc
000000d0: 6bba 8cbe 758f 63be 2aa7 123e 11f4 d43e
000000e0: 75a9 0bbe 94a6 963d 2815 a13d 62bb ae3e
000000f0: 945f d53d dd0c fbbd 7ace 493e 7b91 363e
00000100: 35da 2c3d 55d0 8ebe 509f cd3c ed23 c0bc
00000110: 9043 ccbc 75a5 ae3d 2aef 4cbd 6241 08bd
00000120: f270 65be 7df7 ebbd ecdd 503c b986 823d
00000130: 9c3d bdbd 3622 8bbd 17b8 70bd 0bdf 78bd
00000140: 48c2 51bd 6e23 04be 00d2 18bd d50d 7abc
00000150: f3a7 92bd c82e 40bd 89d9 213d 584b c7bc
00000160: b47d 26bc 0b1b 72bd f079 c3bd c29d a9bc
00000170: 3d20 58bc aa31 57bd 785c 123d 1798 3f3e
00000180: 214a 6d3c 4adb b1bc 4576 9f3c f926 e2bd
00000190: 6af7 4fbd 53aa babd 3d62 64bc fff2 153e
000001a0: 8db4 e6bc 6ef1 98bd a065 9ebd 935e dcbd
000001b0: c34f 283e a6d7 103d 6d26 c63b ab43 fabd
000001c0: dfa0 cebd 6738 afbc 1f05 a83d 63c2 23bc
000001d0: b9eb 7c3d 6387 dd3d 4cb8 a03d e5c0 423c
000001e0: 17ac 0d3d b542 acbc b815 edba 0c34 bebd
000001f0: f08c ba3c 3c01 c83c bfd9 debd 691d 733e
00000200: 2756 a5be f2a3 c0be 5a86 813d c7bd 5f3d
00000210: 6166 3cbe 1b97 b0be aff0 dcbd aa0d 0cbd
00000220: aa38 99be 9a7f 833e 6e51 963d 4f40 0fbe
00000230: 6dbc babe 5e9b bd3d b2a9 1abd f37b 4a3c
00000240: 7d50 95bd b145 51be e3f3 a7be 4c0b 9e3e
00000250: 48a4 393e 2efa 80bd bd9a 803e 52c6 45bd
00000260: f784 7cbd a6ad 4b3d 6703 c0bd ff9f 8fbb
00000270: 1eb1 2dbe 03ff 463e e2cf 49be fb78 97bc
00000280: efdb 933d 9892 3b3e 8e85 a63d ae31 013e
00000290: 1e39 7c3e 9e7e 76be 0cd7 b6bd 13f2 a0be
000002a0: 7304 d1bd 1fa7 853e 4515 273e 815d 203e
000002b0: 80e1 01bc 39b3 6b3e 42ed afbe 6db8 4cbe
000002c0: 25a5 af3d 936e 8bbe dcf7 b9bd b465 9f3d
000002d0: 03e4 90be ad12 12bd 8a8a 08be eedf 6d3e
000002e0: 9864 993e ed7b 643e 3070 49be 7b7f 963d
000002f0: ee4b e93b ae91 493e e54d 16be b396 063e
00000300: 8bb5 373e f64b 1b3e ff9a 43bc b4ec 85be
00000310: b535 d63d ad3a 20bc 86c3 b9bd c47a 66bd
00000320: 4f25 bc3d cfc1 a53d dfb5 193d 97d8 953b
00000330: a303 b23d 78b8 1f3d b0b7 eebc 4708 1d3d
00000340: f372 563b 511a c83d 100c 243e ba3f de3c
00000350: 0a76 cebd dc54 083c 1591 10be c579 08be
00000360: bd2e 993d 90b9 61bc 5173 97bd edd6 3c3d
00000370: 443d 923d a097 e5bc e47b 09be 11a3 163e
00000380: cbdc 653c 2e53 dfbd dc46 a43d 4007 f73d
00000390: dfe1 d6bd 355c a13c 591f e53d d32c b9bc
000003a0: 8d74 4a3e d359 203e a532 23be d4c6 fe3c
000003b0: 2c25 8bbc ee60 c1bb 0130 363d 73c0 47bd
000003c0: 6e8d a2bc 1c1d 2c3c 23db 543e 6f10 15be
000003d0: 6b64 f63d 6a4e 623d bbbe 7bbc c595 66be
000003e0: 1b94 c63d c346 043e b6bb 72bd 77a7 973e
000003f0: e4b9 6cbd f6b3 623c cca2 82bd bebf 01bd

cell.gru.bias_ih f4 [192]
-0.0021400691 -0.29900604 0.081298985 -0.0005853773 -0.1801009 -0.17589611 -0.075709745 0.16025977
-0.43684652 -0.18790564 -0.10649638 -0.25886166 -0.43399873 0.08976761 -0.33009094 -0.17274551
0.12718777 0.16643502 -0.10079784 -0.24046285 -0.46282932 -0.2470821 0.116793275 -0.016707737
-0.17769696 -0.108606555 -0.25354543 0.1681935 -0.26013446 0.18521805 -0.24289392 -0.1808687
-0.0015905434 -0.26068446 -0.3246038 -0.45557874 -0.34683824 -0.09187394 -0.11464148 -0.45640355
0.19255595 -0.49002317 -0.095494926 -0.37947983 -0.0069027636 -0.7030233 -0.28548682 0.026206736
-0.22869916 -0.57453275 0.12360176 -0.0207562 0.17421901 0.024788812 -0.65726084 -0.30955347
-0.21984345 -0.4597952 -0.29769832 -0.59180194 -0.210124 -0.17801096 0.07629445 -1.1181763
-0.015270077 0.05221937 0.12004959 0.14484012 0.1499558 0.041409455 0.083451465 0.17495541
0.049985927 0.06025176 -0.23961167 0.056937885 -0.14508496 -0.22328351 0.014930054 0.11596108
-0.46072736 0.08112272 -0.04696788 0.08938895 -0.047223527 0.117595404 0.046851255 0.19265822
-0.0480336 0.051552758 0.030588223 0.11990865 0.043781742 -0.26734427 0.0892868 -0.11997631
-0.08373825 -0.058931563 -0.036980912 0.18210685 0.17795661 -0.09797419 0.1731313 0.04500655
0.030371604 0.1202885 -0.12759519 0.20782644 -0.63444525 0.056640085 -0.031028466 -0.04383002
0.17174861 0.15083393 -0.34385005 0.18552867 0.32595134 0.19772139 -0.02865484 0.029375188
-0.107348226 -0.23298348 0.07259617 -0.40171918 0.028872453 0.04558892 0.06878339 -0.49428242
-0.033523086 -0.033924814 -0.024305176 -0.007171249 0.0013832854 -0.07239523 0.03128338 0.07695094
-0.061999395 0.050556112 0.112022825 -0.04299331 0.014233236 0.116905026 -0.015212483 -0.0014601134
0.18827628 -0.15684222 -0.038430784 -0.04051856 -0.04709061 0.02823624 -0.039492454 -0.034659054
0.010191589 -0.0064210366 -0.005070564 0.007308989 -0.0643895 -0.002749673 0.022555757 -0.004061902
-0.09380109 0.05266504 -0.022086447 0.019344963 -0.021217076 -0.016846396 -0.006331802 -0.007565304
-0.021268232 0.009399775 0.013469238 -0.00041523506 -0.056225028 0.008156945 0.029179944 -0.07709081
0.0061672083 -0.013545365 -0.036702737 0.03106642 -0.001973732 -0.013619797 0.01770928 -0.02660271
-0.023785304 0.033358503 -0.058743313 0.010836685 -0.031427562 -0.014656925 -0.03701668 0.0701998
00000000: 6740 0cbb 5217 99be 1580 a63d 0174 19ba
00000010: 5f6c 38be 1c1e 34be b60d 9bbd 231b 243e
00000020: 59aa dfbe 566a 40be c61a dabd 8489 84be
00000030: 1535 debe 15d8 b73d ae01 a9be 33e4 30be
00000040: 833d 023e f16d 2a3e 196f cebd e53b 76be
00000050: f7f7 ecbe 1703 7dbe 5031 ef3d aade 88bc
00000060: 31f6 35be 1d6d debd b5d0 81be eb3a 2c3e
00000070: 5830 85be cda9 3d3e 2fb9 78be a535 39be
00000080: c879 d0ba 6f78 85be 7832 a6be 9e41 e9be
00000090: c894 b1be 6728 bcbd 27c9 eabd baad e9be
000000a0: 632d 453e 51e4 fabe d892 c3bd 2e4b c2be
000000b0: 9430 e2bb 56f9 33bf 542b 92be 82af d63c
000000c0: 1d30 6abe 9414 13bf eb22 fd3d e808 aabc
000000d0: 7866 323e e811 cb3c 3f42 28bf cb7d 9ebe
000000e0: a41e 61be 476a ebbe ea6b 98be 5580 17bf
000000f0: bf2a 57be 8148 36be 4440 9c3d 6720 8fbf
00000100: 582f 7abc fae3 553d 8fdc f53d f850 143e
00000110: 038e 193e f69c 293d 9ae8 aa3d 8327 333e
00000120: 0bbe 4c3d 8dca 763d c35c 75be b337 693d
00000130: 2791 14be 6fa4 64be 2f9d 743c 017d ed3d
00000140: 75e4 ebbe ab23 a63d 6461 40bd 8e11 b73d
00000150: 756d 41bd dcd5 f03d 1ae7 3f3d 3248 453e
00000160: e1be 44bd fc28 533d 2794 fa3c ab92 f53d
00000170: 7c54 333d 59e1 88be ffdb b63d 24b6 f5bd
00000180: f67e abbd 3962 71bd 4c79 17bd 387a 3a3e
00000190: 423a 363e b1a6 c8bd 5549 313e ca58 383d
000001a0: dfcd f83c d159 f63d 50a8 02be 74d0 543e
000001b0: 016b 22bf 6fff 673d 692f febc 1b87 33bd
000001c0: dede 2f3e 3674 1a3e 1d0d b0be 3afb 3d3e
000001d0: 18e3 a63e 7a77 4a3e 8ebd eabc 3ca4 f03c
000001e0: 63d9 dbbd 3993 6ebe 4dad 943d 23ae cdbe
000001f0: ec85 ec3c 73bb 3a3d 4ede 8c3d 9612 fdbe
00000200: 814f 09bd bff4 0abd a61b c7bc ccfc eabb
00000210: 5b4f b53a f343 94bd 0023 003d 7498 9d3d
00000220: 14f3 7dbd ed13 4f3d 396c e53d c119 30bd
00000230: 8532 693c e76b ef3d c73d 79bc 4761 bfba
00000240: 7fcb 403e 3f9b 20be 9969 1dbd caf6 25bd
00000250: 15e2 40bd b04f e73c d7c2 21bd a7f6 0dbd
00000260: 9ffa 263c 8f67 d2bb f926 a6bb 3e80 ef3b
00000270: a4de 83bd dc33 34bb dac6 b83c b419 85bb
00000280: c91a c0bd 4cb7 573d a3ee b4bc 5479 9e3c
00000290: 6fcf adbc 7401 8abc 017b cfbb 5fe6 f7bb
000002a0: b73a aebc 8401 1a3c 14ae 5c3c e8b3 d9b9
000002b0: 374c 66bd b5a4 053c c70a ef3c c9e1 9dbd
000002c0: 4b16 ca3b 61ed 5dbc 9c55 16bd 017f fe3c
000002d0: ba59 01bb 9225 5fbc 0d13 913c eded d9bc
000002e0: 66d9 c2bc eda2 083d d49c 70bd 5a8c 313c
000002f0: 30ba 00bd 9923 70bc cd9e 17bd eac4 8f3d

cell.gru.bias_hh f4 [192]
-0.20705582 -0.3805507 -0.056447312 -0.15288265 0.051163398 -0.2635983 -0.21110758 -0.011567542
-0.28900805 -0.14985609 0.06957585 -0.25019693 -0.31277663 -0.054330036 -0.33054724 -0.30564082
0.02609465 -0.036512934 -0.0018490046 -0.14241576 -0.45871854 -0.26495957 0.3169029 -0.068024516
-0.16409919 -0.24326734 -0.08399152 0.09890172 -0.36943167 0.18976204 -0.3211664 -0.18699154
0.089552045 -0.3488907 -0.1688201 -0.40101713 -0.28084108 0.023468355 -0.16389182 -0.5603186
0.25139102 -0.48539132 -0.01765793 -0.40565634 0.10650924 -0.6037743 -0.30758202 0.16176622
-0.22979201 -0.7201584 0.004203198 -0.11087969 0.075901836 0.032483034 -0.47709894 -0.34780002
-0.17749518 -0.49037597 -0.31220117 -0.5213266 -0.27028823 -0.2769172 0.007972155 -1.272462
-0.14372109 0.06897756 -0.11927398 -0.082813874 0.31488398 0.076745465 0.09008679 0.30142808
0.102231085 0.19605638 -0.111860976 0.085075155 -0.18233305 -0.1706115 0.20480463 0.09445795
-0.276422 -0.05898332 -0.058947496 0.081534594 0.1351747 0.21166246 -0.13073938 0.023445306
0.06917444 0.020365054 -0.010651696 0.0004105609 0.00973428 -0.24180287 0.08604231 0.038567882
0.10073055 0.058873624 0.007456627 0.1492868 0.080878146 -0.117450416 0.047679394 0.13908629
-0.045686804 0.08446415 -0.13323206 0.15364242 -0.5810856 -0.112589784 0.076133125 0.011409113
0.009090889 0.1747713 -0.36144564 -0.04223189 0.118959956 0.26080605 -0.058221508 0.05730664
-0.06990444 -0.23372786 0.082210384 -0.4160881 0.17252685 0.025752889 -0.071362734 -0.5972751
0.10990992 0.09682896 -0.009334574 0.008821183 0.018359402 0.18891002 -0.08038665 -0.101751685
0.1985587 -0.12318184 -0.22347726 0.122063205 -0.11300749 -0.22576293 0.0517342 0.0156189045
-0.36024344 0.31909 0.07462423 0.084110916 0.13048658 -0.07230637 0.031803876 0.08169794
-0.029299969 0.01901869 0.011060692 -0.017881801 0.18555199 0.025724635 -0.080418214 0.018252999
0.18199447 -0.15036641 0.053835012 -0.09186312 0.0706056 -0.009984361 0.017457526 0.038976375
0.052765194 -0.017390704 -0.027269432 0.0026649425 0.19465424 -0.034820657 -0.08357427 0.15638962
0.0025821151 0.04629843 -0.048203226 -0.06473808 0.009954267 -0.010576723 -0.044452034 0.02339009
0.05929729 -0.18752396 0.16874495 -0.19968168 0.09535871 0.02701652 0.080081485 -0.01892602
00000000: 7106 54be 8bd7 c2be 4c35 67bd 458d 1cbe
00000010: b690 513d 5bf6 86be 962c 58be ca85 3dbc
00000020: ddf8 93be e073 19be c97d 8e3d d019 80be
00000030: 4224 a0be 2c89 5ebd 7d3d a9be f47c 9cbe
00000040: 73c4 d53c 968e 15bd 4d5a f2ba 70d5 11be
00000050: 28dd eabe c8a8 87be 1941 a23e 7050 8bbd
00000060: 9e09 28be 131b 79be bf03 acbd fc8c ca3d
00000070: 2626 bdbe fb50 423e ec6f a4be b67a 3fbe
00000080: 1067 b73d cda1 b2be 2ddf 2cbe 1e52 cdbe
00000090: 67ca 8fbe b540 c03c 42d3 27be 0a71 0fbf
000000a0: 53b6 803e 3685 f8be 5da7 90bc 30b2 cfbe
000000b0: 8421 da3d f490 1abf 647b 9dbe 0ba6 253e
000000c0: 994e 6bbe 4d5c 38bf fbba 893b e414 e3bd
000000d0: 6c72 9b3d ee0c 053d 5046 f4be d812 b2be
000000e0: 4cc1 35be 8f12 fbbe d5d8 9fbe a975 05bf
000000f0: 3863 8abe 17c8 8dbe a49d 023c 09e0 a2bf
00000100: 9f2b 13be 1b44 8d3d eb45 f4bd 529a a9bd
00000110: 7938 a13e ba2c 9d3d 6c7f b83d c854 9a3e
00000120: 885e d13d 01c3 483e 5e17 e5bd e23b ae3d
00000130: 84b5 3abe c8b4 2ebe 4eb8 513e 2b73 c13d
00000140: 2f87 8dbe 7e98 71bd ee72 71bd 9cfb a63d
00000150: 3d6b 0a3e 0bbe 583e 8be0 05be 5f10 c03c
00000160: 54ab 8d3d 9dd4 a63c 7384 2ebc 8d40 d739
00000170: 887c 1f3c 2c9b 77be f336 b03d 5bf9 1d3d
00000180: d24b ce3d 7825 713d b956 f43b a4de 183e
00000190: 71a3 a53d d889 f0bd 784b 433d a36c 0e3e
000001a0: 1622 3bbd 8afb ac3d fc6d 08be 7054 1d3e
000001b0: 07c2 14bf 7995 e6bd afeb 9b3d 4aed 3a3c
000001c0: f4f1 143c 3ff7 323e 670f b9be 59fb 2cbd
000001d0: 47a1 f33d 5f88 853e ad79 6ebd 5eba 6a3d
000001e0: 0f2a 8fbd 5b56 6fbe eb5d a83d 8009 d5be
000001f0: e1aa 303e b9f7 d23c a026 92bd 05e7 18bf
00000200: 7418 e13d 434e c63d 0bf0 18bc b986 103c
00000210: 7566 963c a171 413e c2a1 a4bd 3063 d0bd
00000220: f952 4b3e c346 fcbd 39d7 64be 46fc f93d
00000230: 7970 e7bd 662e 67be 3ee7 533d 6fe6 7f3c
00000240: d471 b8be c45f a33e 97d4 983d 5842 ac3d
00000250: 469e 053e 5d15 94bd c844 023d 4051 a73d
00000260: 7d06 f0bc 15cd 9b3c e837 353c db7c 92bc
00000270: 5701 3e3e 78bc d23c 4eb2 a4bd 5087 953c
00000280: c25c 3a3e a7f9 19be 1a82 5c3d bb22 bcbd
00000290: ab99 903d 7295 23bc 1603 8f3c b1a5 1f3d
000002a0: 5120 583d f376 8ebc 2564 dfbc 51a6 2e3b
000002b0: 7153 473e 1ba0 0ebd fd28 abbd 9a24 203e
000002c0: b438 293b 6ca3 3d3d bf70 45bd 6695 84bd
000002d0: 3917 233c fe49 2dbc 5613 36bd 939c bf3c
000002e0: b7e1 723d 4806 40be 7acb 2c3e 5b79 4cbe
000002f0: 6d4b c33d c051 dd3c c301 a43d be0a 9bbc

fc_out.weight f4 [2, 64]
-0.24630621 -0.2424266 0.26888922 -0.27564925 -0.26309896 -0.2648372 -0.37433472 -0.23475483
0.44745573 0.30274707 0.23488495 0.30781162 -0.15477622 0.20975193 0.33388346 0.2630671
-0.23171107 0.3163318 -0.1715549 0.22198004 0.34357488 -0.32265976 0.17720668 0.27738938
0.29767093 0.2572525 -0.30533528 0.21789545 -0.27452728 0.25000253 0.28961423 0.12943153
-0.26715568 0.24962766 0.28543457 0.3090273 0.2975779 0.14611398 0.31436208 -0.3049343
-0.19121724 0.30510128 0.19882247 0.30125245 0.15126657 0.286585 -0.23913136 -0.22841503
0.37589353 -0.34397483 0.10329105 0.27856863 0.37376252 0.2413039 -0.27144924 -0.26382124
0.18698126 0.22060254 -0.31538504 -0.11846893 -0.3150865 0.3328263 -0.21121827 0.22417939
-0.2641257 -0.3206098 0.26324072 -0.21234772 -0.20978867 -0.26803598 -0.2752491 -0.31428194
0.22784972 0.26905793 0.2985181 0.24253838 -0.32128572 0.26389757 0.23942576 0.28338104
-0.34536645 0.2737084 -0.21459426 0.22652659 0.35508117 -0.26703215 0.21614383 0.21424893
0.24009268 0.20683232 -0.23664048 0.2388271 -0.2989996 0.22507775 0.2596957 0.27107495
-0.17992769 0.27328342 0.24440812 0.31440595 0.28117675 0.13524386 0.21712406 -0.34687406
-0.30779567 0.30111167 0.18951663 0.32403138 0.19885778 0.34030753 -0.24367772 -0.22808029
0.23258176 -0.39230713 0.14456092 0.20985264 0.22722986 0.31593683 -0.29416162 -0.12896778
0.18992244 0.28603673 -0.2527763 -0.11279478 -0.2531636 0.30240586 -0.2140795 0.27833036
00000000: b237 7cbe ae3e 78be d9ab 893e e621 8dbe
00000010: e8b4 86be be98 87be cda8 bfbe 9263 70be
00000020: eb18 e53e aa01 9b3e ae85 703e 7c99 9d3e
00000030: a87d 1ebe 36c9 563e c6f2 aa3e bbb0 863e
00000040: ab45 6dbe 3ef6 a13e 16ac 2fbe bc4e 633e
00000050: 0ce9 af3e a933 a5be ab75 353e fb05 8e3e
00000060: 5368 983e 9ab6 833e e854 9cbe fc1f 5f3e
00000070: d78e 8cbe 5500 803e 5148 943e b389 043e
00000080: a1c8 88be 659e 7f3e 7b24 923e d438 9e3e
00000090: 215c 983e e79e 153e 11f4 a03e 5920 9cbe
000000a0: 74ce 43be 3c36 9c3e 1e98 4b3e c33d 9a3e
000000b0: a0e5 1a3e 45bb 923e dade 74be a1e5 69be
000000c0: 1e75 c03e 781d b0be 428a d33d 8ca0 8e3e
000000d0: cd5d bf3e 5f18 773e 65fb 8abe 9413 87be
000000e0: 0478 3f3e a2e5 613e 267a a1be d79f f2bd
000000f0: 0553 a1be 3568 aa3e 9a49 58be 488f 653e
00000100: 7c3b 87be f826 a4be 7dc7 863e ae71 59be
00000110: d7d2 56be 033c 89be 73ed 8cbe 90e9 a0be
00000120: 7051 693e f6c1 893e 5dd7 983e fb5b 783e
00000130: 907f a4be 951d 873e 072c 753e 5217 913e
00000140: dfd3 b0be 8223 8c3e 99be 5bbe 96f6 673e
00000150: 33cd b53e 70b8 88be cf54 5d3e 1264 5b3e
00000160: dbda 753e dacb 533e e251 72be 178f 743e
00000170: 7a16 99be c87a 663e d6f6 843e 56ca 8a3e
00000180: f73e 38be ceeb 8b3e 1f46 7a3e d1f9 a03e
00000190: 66f6 8f3e 5e7d 0a3e c555 5e3e 7a99 b1be
000001a0: 6597 9dbe 4f2b 9a3e a610 423e 71e7 a53e
000001b0: 60a1 4b3e ca3c ae3e a786 79be e18d 69be
000001c0: ea29 6e3e 7bdc c8be c707 143e 9ce3 563e
000001d0: f2ae 683e 79c2 a13e 5a9c 96be 2110 04be
000001e0: 077b 423e 6873 923e e56b 81be f300 e7bd
000001f0: a99e 81be f1d4 9a3e a837 5bbe 5181 8e3e

fc_out.bias f4 [2]
0.022531206 0.026167274
00000000: 5d93 b83c c05c d63c
