notebooks/DCRNN/Adj_10mins/dcrnn_best.pt (torch, 120504 bytes, 7 tensors)

cell.diff.theta f4 [65, 64]
000000 87 ea 5b 3e 9d 96 7c 3e f9 df 5f be da 60 20 be
       0.21476184 0.2466683 -0.21862783 -0.15661946
000010 f1 3f 3b be 49 fd ac bd f5 21 1c be 80 5e 5f bd
       -0.1828611 -0.08446748 -0.15247329 -0.05453348
000020 53 bd c0 bb 99 0c 56 be 71 97 81 3e 78 68 51 3e
       -0.005881944 -0.20903243 0.25310853 0.20450008
000030 a1 4d 55 3e a9 ba 74 bd c6 05 b6 3d 7a 0b ae bd
       0.20830394 -0.059748325 0.0888782 -0.08498283
000040 e2 52 79 3c 43 90 21 3e 58 50 ed 3d a9 39 6b be
       0.015217515 0.15777688 0.1158759 -0.22971214
000050 fa 99 20 be 5d 1d c2 3c 4b be 68 3e 0a 14 05 bd
       -0.15683737 0.023695642 0.22728841 -0.032489814
000060 1a 56 1a 3e 1f 08 60 3e f1 bc 06 bd 5e c6 78 be
       0.15071908 0.21878098 -0.032895032 -0.24294421
000070 34 3d 21 bc e6 d9 f6 bd 9b bb e8 3d 6f 34 55 3e
       -0.009841252 -0.120532796 0.11363908 0.20820783
000080 84 95 9f 3d fe 1f 49 3e 35 6a 62 3d b7 f6 a5 be
       0.0779219 0.1964111 0.05527707 -0.3241479
000090 35 6d 4d 3d 83 ab 16 bd 14 a2 3a 3e 9a 97 5d be
       0.050152976 -0.03678466 0.1822589 -0.21639863
0000a0 97 75 08 3e 69 46 42 bd 89 51 1d 3e 4f cf 7f 3d
       0.13326107 -0.04743043 0.15363134 0.062453564
0000b0 1c ce 04 3c 64 8c 4c 3e c0 a2 c8 bd 5a 3b 19 be
       0.008105781 0.1997543 -0.09796667 -0.14964047
0000c0 69 4c bc bc 44 b7 f4 3c 73 48 89 3d 87 e9 db 3d
       -0.022985654 0.029872544 0.06703272 0.10737901
0000d0 52 27 7e 3d 77 5b 64 bd af cc 4b be 02 c7 1f be
       0.062049218 -0.05575129 -0.199023 -0.15603259
0000e0 fc 34 66 3e cc 7d 3c be 1a 7a 6c bd e1 6c be bb
       0.2248115 -0.18407363 -0.057733633 -0.005811319
0000f0 f5 35 87 be 31 75 91 be b6 54 54 3d 1e 95 45 bd
       -0.26408353 -0.28409722 0.0518386 -0.048237912
000100 1a b0 f3 bc 0d ac 27 3c ac c7 bb bb 07 46 88 bd
       -0.029747058 0.010233891 -0.00573059 -0.06653982
000110 ef 19 e3 bb 31 82 3a 3c cf 34 1a 3e 97 36 dc 3c
       -0.0069305818 0.011383579 0.15059207 0.0268815
000120 f8 1c bf bd af 4a 85 3d c3 0f b7 b9 7a a3 28 bc
       -0.09331697 0.065083854 -0.00034916223 -0.010292882
000130 9a 77 03 3b d4 c3 0c 3d a6 f8 78 3a 18 7d 83 3d
       0.0020060302 0.034366444 0.0009497501 0.06420344
000140 27 ed 78 3d 45 3e 48 bd ba 49 e1 ba a5 f8 d6 bb
       0.06077304 -0.04888751 -0.001718811 -0.0065604025
000150 0c 9c 6e 3d b6 c1 d2 bb 5f 65 20 bc 45 b8 8c bc
       0.058254287 -0.0064317835 -0.009789794 -0.01717771
000160 ec 88 62 bd ff 7b cf bc c2 0e 90 3d 02 18 a2 3b
       -0.05530636 -0.02532768 0.07034065 0.0049467096
000170 a4 13 2f 3c b5 2a f3 bc 1d 9b 87 bd d4 f7 45 bd
       0.010685835 -0.02968345 -0.066213824 -0.04833205
000180 9e 1c 36 bd 38 23 5f bd b2 70 37 bd f9 44 03 3e
       -0.044460885 -0.054476947 -0.04478521 0.1281928
000190 8c f8 08 3d f5 ca 30 bd a9 2a ec bc 3c b1 b3 3c
       0.033440158 -0.043162305 -0.028828936 0.021935098
0001a0 41 cd 52 3c 3e 9c 00 3e dd f4 8a bd 72 0a 01 3d
       0.012866319 0.12559602 -0.06784985 0.031504102
0001b0 f6 15 3a bd bf d7 12 bd c6 f1 a7 bd 98 de 94 bd
       -0.0454311 -0.035850283 -0.082004115 -0.07269019
0001c0 65 7b e6 3d f5 26 4e bd 39 37 12 bd e7 f0 45 3d
       0.112540044 -0.05033012 -0.035697196 0.048325446
0001d0 d3 ba c4 bd 61 18 84 3d a4 b5 16 3d ea 5b 15 3d
       -0.096059464 0.064499624 0.03679432 0.03646461
0001e0 c5 03 ce bd b6 99 f7 3d b0 52 11 bd 80 d3 15 be
       -0.10059313 0.12089865 -0.035479248 -0.14631462
0001f0 5d f4 54 3d 8a 91 eb 3c 9a 43 f8 bd f4 d9 45 bd
       0.051990855 0.028755922 -0.12122269 -0.04830356
000200 75 03 23 bd 39 1c 77 3c e1 01 07 bd aa e8 d8 bc
       -0.03979822 0.015082412 -0.032960776 -0.02647813
000210 bc 01 76 3d 3a 27 ea bc e3 bd 79 ba 04 0a 03 bd
       0.060060248 -0.028583158 -0.00095268915 -0.031991974
000220 90 04 d4 bd 4a fa af bd 9a 9f 83 3d 79 84 7b bc
       -0.10352433 -0.08592661 0.06426926 -0.015351408
000230 9d 62 37 3c 01 4e 48 bd 7c 90 be 3c 89 52 97 3d
       0.011192945 -0.048902515 0.023262255 0.07388789
000240 02 07 b5 3d 30 06 36 bc 0a 17 96 3d a0 81 7e bd
       0.08839227 -0.011109874 0.07328613 -0.06213534
000250 79 cc 55 3d aa e4 d6 3d 60 91 a1 3d 15 6f 02 3e
       0.052196953 0.10492833 0.07889056 0.12737687
000260 9d c1 a8 bc 4a 55 cb bb 4d d4 08 be b5 dc 79 bd
       -0.020600135 -0.0062052356 -0.13362236 -0.0610015
000270 5a 62 7a bc 5a 28 53 3d 16 3a e8 3d 27 fb 0a bd
       -0.015282238 0.051552154 0.11339204 -0.033930924
000280 f9 80 71 3d 8d bf 7f 3d 2c 16 34 3e 3b 12 16 bd
       0.05896089 0.062438536 0.17586583 -0.03663848
000290 de 92 39 be f5 fa ed bd 15 8a b3 3d 81 d2 2c bd
       -0.18122432 -0.11620132 0.087665714 -0.04219294
0002a0 04 3c 92 bd 13 2f 0b 3d e7 9a aa 3d f9 ff ab 3d
       -0.07140353 0.03398044 0.083303265 0.08398432
0002b0 81 82 e9 bd 9b fc 91 3d 4d 46 85 3d 8b 83 cc bb
       -0.11401845 0.07128259 0.065075494 -0.006241267
0002c0 d0 f9 35 3e 71 14 ec bd 6c 1e 2b bd d2 f6 85 bd
       0.17771077 -0.115273364 -0.04177706 -0.06541218
0002d0 35 7a bc 3d bc cf c9 bd 10 39 f0 bd 01 6f fb bd
       0.09202997 -0.09854075 -0.11729634 -0.12277032
0002e0 74 88 27 bd 4e 5c 35 3d 42 69 c9 3d ad 51 ac bd
       -0.040901616 0.04427748 0.098345295 -0.08414016
0002f0 74 41 80 bc 1e 4c 19 bd 14 3a 73 bd c4 8e 9a bc
       -0.01565621 -0.037426107 -0.05938156 -0.018866904
000300 0a 83 cf bd d0 4d 35 bd 5b 84 a1 3d 85 f3 93 3d
       -0.101324156 -0.04426366 0.07886573 0.07224182
000310 bb 23 09 3e 4f 76 a7 bd dc 07 0b 3e 77 99 09 3e
       0.13392536 -0.081768624 0.13577217 0.13437448
000320 d3 f1 d5 bc 6e a1 b9 bb 84 8e ff 3c ba e8 aa bd
       -0.026116287 -0.005664996 0.031195886 -0.0834517
000330 6a 0b d5 bd 6a cd 02 3e 6b 50 63 bd a0 c8 c3 bd
       -0.10402568 0.12773672 -0.055496614 -0.095597506
000340 1b 06 1e 39 da 59 9d bc 72 62 58 3d a9 c4 29 3d
       0.00015070329 -0.019207884 0.05282826 0.041447315
000350 82 71 44 3d fd df 10 bd c6 4a f4 bc c5 a9 27 bd
       0.047959812 -0.035369862 -0.029820811 -0.04093339
000360 a0 29 e9 bd c3 52 5c bc 48 23 ac 3d d9 12 94 3d
       -0.113848925 -0.013447466 0.08405167 0.072301574
000370 a5 72 63 3c 07 79 fd ba 9b 3d 27 3c d6 dd 79 b8
       0.013882314 -0.0019338437 0.010207559 -5.9572827e-05
000380 ae d8 9e 3b 73 f6 a3 bb af 4a 3b 3d 7b 8a b3 3d
       0.0048476076 -0.0050037443 0.04572552 0.087666474
000390 8f 84 06 be 5d 98 2d 3d 4d f2 70 bd 7e 3a 9d 3d
       -0.13136505 0.042381633 -0.058824826 0.07677172
0003a0 d3 8c cd bd 11 03 f1 3c b8 0d 8b bd 90 61 02 be
       -0.10036626 0.029420407 -0.06789726 -0.1273253
0003b0 f8 51 82 3c c1 ee 18 bc 0d 14 8c 3b ef 02 9a 3d
       0.015908226 -0.009334267 0.004274851 0.07520091
0003c0 96 d7 28 bd 19 ae 4a bd 86 dd 7e 3d eb 46 56 3c
       -0.041221224 -0.04948244 0.06222298 0.013078432
0003d0 c8 03 db bd 97 a4 22 3d 8b bf 1e 3d e7 30 9f 3c
       -0.106940806 0.039707746 0.03875689 0.019432498
0003e0 5c 30 66 bb a9 3f e2 bc d6 e2 93 3d 57 69 d4 bd
       -0.003512404 -0.027618246 0.07221 -0.103716545
0003f0 f0 f3 cd b9 4f f8 e7 3c 1e a1 12 bd 29 b0 a1 bc
       -0.00039282395 0.028316645 -0.035798185 -0.01973732

cell.gru.weight_ih f4 [192, 64]
000000 83 12 34 be 96 27 06 3e 82 d6 0c bc 0a ce 16 3e
       -0.17585187 0.13101038 -0.0085960645 0.14727035
000010 a6 8a 35 3e eb d2 32 3d 6f d6 d2 3d 93 b7 66 3c
       0.17728671 0.04365818 0.10294806 0.014081853
000020 4c 1a 24 3c b9 76 1c be cd 49 a1 3e 9c 0a 0a 3d
       0.010016035 -0.15279664 0.31501618 0.033701524
000030 95 17 8d be f8 03 16 bc 86 14 e0 3d 95 de 9a 3d
       -0.27557054 -0.00915622 0.109414145 0.075619854
000040 8b 4b 26 3d 67 4f b4 bd 01 18 8d 3d 07 37 ae bd
       0.040599387 -0.08804207 0.06889344 -0.085065894
000050 9f e0 16 be f1 b0 2b 3e e5 b2 f5 b8 9c 2e a6 bd
       -0.14734124 0.16766717 -0.00011715832 -0.08114359
000060 e2 09 3a be af 11 ae 3d 00 99 d3 bd 2c e3 2a be
       -0.18167832 0.08499467 -0.10331917 -0.16688222
000070 64 4b 11 be 8f da 85 bb 10 c2 35 3e 77 7a b2 bc
       -0.14188915 -0.004084892 0.1774981 -0.021786911
000080 c4 d7 3f 3d ea 06 7f 3d eb 0e d8 3d 1d 67 88 bc
       0.04683663 0.062262453 0.105497204 -0.01665073
000090 f2 0c a6 3d e5 fb 6c bd 08 3f eb 3c 6b 9f 91 3c
       0.08107938 -0.057857413 0.02871658 0.017776212
0000a0 aa 5d 75 be f2 00 0d be 80 76 6f 3d d5 d0 07 3e
       -0.23961511 -0.13769892 0.05846262 0.13263257
0000b0 d9 dc 69 be 1b e6 40 bd 54 ab a2 bd 6c 38 c3 3c
       -0.22838153 -0.047094446 -0.079428345 0.023830615
0000c0 f6 d1 01 3d 39 dc 99 be e1 04 03 3d d0 fc 74 bd
       0.031694375 -0.3005083 0.031987075 -0.059811413
0000d0 af b5 28 3e a8 1b f1 bd ee a3 62 be 3c cc 5a be
       0.16475557 -0.11772853 -0.22132847 -0.21366972
0000e0 51 1e d6 bd 4d e0 83 bd 85 03 f1 3c 40 2f 64 be
       -0.10455001 -0.06439266 0.029420624 -0.2228365
0000f0 64 c3 93 3c 11 2a 93 3d 11 36 89 3d f3 4a 51 be
       0.018037505 0.07185758 0.066997655 -0.20438747
000100 7d 60 c1 bd 11 26 37 3b 0a ec 29 3e 7b 5b 50 3d
       -0.09442232 0.0027946273 0.16593948 0.050868493
000110 13 61 11 3e 0f ae b2 bd 71 4e af 3d 75 95 88 3d
       0.14197187 -0.08724605 0.085598834 0.06669132
000120 e1 26 db bd 09 57 7f 3e 16 37 16 bd 5f 60 19 be
       -0.10700775 0.24935545 -0.036673628 -0.14978169
000130 b7 dd 91 be 15 dd f0 3c ee 1a f4 bd f2 c4 1e 3d
       -0.28489468 0.029402295 -0.11919199 0.03876204
000140 d1 14 4d bd 15 07 20 be 2d 78 b4 bd af d6 2c 3e
       -0.05006868 -0.15627702 -0.08811984 0.1687877
000150 fc a7 97 bc d6 4f 60 be cf 46 3c be 2b 6f 6a bc
       -0.018512718 -0.21905455 -0.18386386 -0.014308731
000160 0e b9 0d bc a6 41 4d be 59 ce 14 bc e7 db 68 3d
       -0.0086500775 -0.20044574 -0.0090824 0.05685034
000170 70 31 03 be 4f e8 5d 3e 67 3a c9 bd 14 d8 1c be
       -0.12811828 0.2167065 -0.098255925 -0.15316802
000180 1a 8a 07 3d 73 e4 c3 bd 1b 36 41 3d 38 a1 4f 3e
       0.03309069 -0.095650576 0.04717074 0.20276344
000190 05 a8 b6 b9 fa 65 81 bd a6 12 ed bd 7c 34 85 3d
       -0.0003483893 -0.063182786 -0.115758225 0.06504151
0001a0 ec a0 f4 bd 8b c1 2c 3e 36 d0 9d 3c ac ee d2 3c
       -0.11944756 0.16870706 0.019264322 0.025748573
0001b0 05 14 e4 bb b9 16 13 3d 68 f6 9d 3e 80 bb fb 3d
       -0.0069603943 0.035910342 0.30852056 0.12291622
0001c0 e4 17 88 38 9b 61 95 3e 4a 1d a0 3c 86 6b 32 be
       6.489435e-05 0.2917603 0.019545216 -0.1742383
0001d0 a0 9d 3c 3d 3f ce 2b 3e 47 65 f8 3e ac 08 9a 3d
       0.04604876 0.16777895 0.48514768 0.07521185
0001e0 c3 f6 55 be 4f 7d 89 3e a2 d9 28 3e 3b 47 26 be
       -0.20894913 0.26853415 0.1648927 -0.1623811
0001f0 cb 14 01 3e 7a 97 7b 3e 01 de a2 bd 11 31 9f bd
       0.12605588 0.24569502 -0.079525 -0.077730305
000200 9d 9a 22 be 6b bc 95 3b e8 8e 69 3d c2 df 0f 3e
       -0.15879293 0.0045695803 0.05702105 0.140502
000210 81 16 28 3d e2 2a 21 be 5b a6 90 3e 54 c0 9b 3e
       0.041037086 -0.15739015 0.2825192 0.30420172
000220 27 e5 6c 3d 94 31 02 3d 27 74 12 3e ab 7a 79 be
       0.057835724 0.031785563 0.14302121 -0.243632
000230 be 69 21 3b 68 cb 10 bd ae e3 e5 bd a0 1b ea 3b
       0.0024629678 -0.035350233 -0.11225067 0.0071444064
000240 b1 34 46 be b9 9d 96 bd 90 4e 52 be ad b5 f4 3c
       -0.19356038 -0.07354302 -0.20537782 0.029871786
000250 e3 16 bd 3d 58 71 93 be b7 4a ed 3d b3 79 61 bd
       0.09232881 -0.28797412 0.11586516 -0.055047702
000260 d0 49 08 3e cb 25 b4 3a 94 fe f0 bd 35 00 ea 3d
       0.13309407 0.0013744173 -0.11767307 0.11425821
000270 c8 9c 0e 3e 52 62 29 be 05 51 73 bd 6d 0d 55 bd
       0.13926995 -0.16541412 -0.059403438 -0.052014757
000280 8e 54 12 be 3c 08 de bd 6e 1b 4b 3e 67 89 a9 bd
       -0.14290068 -0.10841414 0.19834682 -0.082781605
000290 8b 49 85 3e 8e 33 5a 3d f3 0d f4 bc e5 95 50 bd
       0.2603267 0.053271823 -0.029791808 -0.0509242
0002a0 13 26 0a bd 62 ab 2e bd eb 06 bc be 04 67 1f be
       -0.033727717 -0.042643912 -0.36724028 -0.15566641
0002b0 26 d6 98 bd 84 5e 03 3d 78 3c 2d 3e 99 f4 10 3e
       -0.074627206 0.03207256 0.16917598 0.14155807
0002c0 c6 0e 96 be c4 86 dc bd cc dc 99 bd 22 33 28 be
       -0.29308146 -0.10767892 -0.07512817 -0.16425756
0002d0 83 d3 b0 3e a6 33 b0 bc 64 ea 19 bd 91 bb a1 bb
       0.3453637 -0.021509003 -0.037577048 -0.0049356897
0002e0 5a fc d8 bc d3 1f 2f 3e e0 fc 2e 3e da a7 c0 3c
       -0.026487518 0.17101984 0.17088652 0.023517538
0002f0 43 29 1c be e1 dc 98 bd a5 2e d6 3d 19 60 22 be
       -0.15250115 -0.07464004 0.104581155 -0.15856971
000300 e4 ae c3 bd 50 bf 09 bf 9d b2 1b 3e 9d 6b e2 3d
       -0.09554842 -0.53807545 0.15204854 0.11055682
000310 a4 61 64 3d da df 62 3d 7e d8 87 3c a0 9f fd 3d
       0.05575718 0.055389263 0.016582724 0.12383962
000320 6e 67 6e 3d 53 d3 d4 3e a3 88 01 bf a6 85 c0 3c
       0.058204107 0.41567478 -0.50599116 0.023501229
000330 bb 0c 0f be 5e 96 2d be 29 0f 1c 3e de 7e 21 3e
       -0.139697 -0.16951892 0.15240158 0.15771052
000340 fa 62 73 3e 7e 30 08 3e 43 f9 28 3e 70 d3 f4 3e
       0.23768225 0.13299748 0.16501336 0.47817564
000350 27 b6 0e 3e a2 1e a9 39 f7 9a a8 be 79 af 60 3d
       0.13936673 0.00032257015 -0.3293073 0.054854844
000360 4e e5 7c be 0a b1 86 be 49 18 bb 3c 91 05 61 3e
       -0.24696848 -0.26306945 0.022838729 0.2197478
000370 a4 0f f1 bd 71 e4 50 be 3f 91 f6 bc 35 fb d1 be
       -0.11770561 -0.20399643 -0.030098556 -0.41011968
000380 02 3a 37 be 91 a2 1c be 05 1b ee 3d 81 a9 f0 3e
       -0.17893222 -0.15296389 0.11626247 0.4700432
000390 bd 72 02 be 11 44 25 3c 90 db 92 bd e8 20 e9 3e
       -0.12739082 0.010087029 -0.071707845 0.45532918
0003a0 dd ef 44 3e 8c 31 a7 3d 71 c3 63 be c5 87 40 be
       0.19232126 0.08163747 -0.22242524 -0.18801792
0003b0 ff b6 5d be 2d 66 78 be 1c 6f cf bd 61 69 3b 3e
       -0.21651839 -0.24257727 -0.10128614 0.18301918
0003c0 3d 19 ab 3d ee 6e 68 be 75 d7 dd bd 88 01 ce bc
       0.08354423 -0.22698566 -0.10832111 -0.025147215
0003d0 7f 57 39 bd 53 26 35 bf 28 8b 9d be b2 7c 32 3e
       -0.04524946 -0.70761603 -0.3077023 0.1743038
0003e0 f3 4c 80 be fa b3 4e be a1 21 0e 3a b8 14 85 be
       -0.25058708 -0.20185843 0.0005421881 -0.2599237
0003f0 a5 3b 55 3e a6 5b b0 3e a3 7a ae bd 2f 16 a6 3e
       0.20823534 0.34444922 -0.08519485 0.324388

cell.gru.weight_hh f4 [192, 64]
000000 f7 c1 e3 3e 03 b6 8d 3c eb 4d 55 bd 45 35 0f bf
       0.4448392 0.017298704 -0.05207626 -0.5594066
000010 27 25 f3 3d 66 21 33 be d1 6b 74 bd c4 61 bc 3d
       0.118723206 -0.17493209 -0.059673134 0.09198335
000020 fd 28 41 3e e3 02 25 be 6e 8d 9b bd b1 09 2e bc
       0.18863292 -0.16114382 -0.07595335 -0.010622428
000030 fc ae 21 bf a0 b5 12 3d 4b a3 de be a6 aa 34 3e
       -0.6315763 0.035817742 -0.43483958 0.17643222
000040 d0 43 cc bd dc da 82 3e aa 23 a8 bd d9 96 0f 3f
       -0.09973872 0.255576 -0.082099274 0.5608955
000050 fe 69 4a 3e 17 da 5b 3e 9e aa a1 be a2 d6 55 3e
       0.19766995 0.21469913 -0.31575483 0.20882657
000060 15 98 8a be 9b 5d 90 3e 1b d5 82 3e 45 a4 aa bc
       -0.27069154 0.28196415 0.25553212 -0.020830283
000070 3b 12 81 3c 5e 08 43 bb a3 3a 12 bf 39 00 57 be
       0.015755763 -0.0029759626 -0.5712072 -0.20996179
000080 4d 2f e5 3c af b5 82 3b 56 f5 c6 3d 8d 6b b2 bd
       0.027976656 0.0039889435 0.09714763 -0.0871192
000090 09 39 d2 bd 2a e4 2b 3e a5 15 6f 3c b5 0c 78 be
       -0.10264785 0.16786256 0.014592563 -0.24223597
0000a0 a6 d1 d9 3e 9a ea c8 3d 89 d0 c9 3e 75 8c 03 3e
       0.42542762 0.09810372 0.39416912 0.12846549
0000b0 11 75 29 be ed a2 bc 3e 64 10 ed bd c7 6e 87 3e
       -0.16548564 0.36843053 -0.11575392 0.26451704
0000c0 08 ca 0c bf e6 39 92 bd bf 81 a8 bb d7 d8 4d 3d
       -0.54995775 -0.071399495 -0.00514242 0.050255623
0000d0 6e f8 bf be 06 91 68 3e 6c 3f 97 3d 97 3f 9d bd
       -0.37494224 0.22711572 0.07385144 -0.076781444
0000e0 9e 11 ec 3c b9 5b 27 3e 8b 77 1d be f6 8b a7 3e
       0.028816994 0.16343583 -0.15377633 0.3272397
0000f0 5d 52 70 bd 39 8e ce 3e ba 8b 36 3e 66 c2 6e 3e
       -0.058672298 0.40342882 0.17826739 0.23316345
000100 a5 81 50 3e d7 0c 0c 40 c0 24 05 3e 58 e4 f7 be
       0.20361955 2.1882837 0.130023 -0.484164
000110 9a 99 70 3a 65 ec 15 3e 01 e4 6b 3c 87 01 0b be
       0.0009178162 0.14640959 0.014397622 -0.13574801
000120 d8 2b a2 bc d7 f3 ac be c2 5f 34 bd 79 b0 75 bd
       -0.019796297 -0.33779785 -0.044036634 -0.05998275
000130 99 32 9c bc 48 ee 89 3e 73 1c 97 be 3f ff 13 3e
       -0.019067096 0.26939607 -0.29513893 0.14452837
000140 c5 e7 33 be de 2a dd 3d 5f 1b da bd 82 a8 85 3e
       -0.17568882 0.10799192 -0.10649752 0.26105124
000150 37 b1 1e be d8 b1 8e 3e bb 3a 8f bd f8 76 29 bd
       -0.1549729 0.2787006 -0.06993624 -0.041373223
000160 b8 9f a5 3d d0 19 b8 bc a8 12 3e bd 11 ab 83 be
       0.080871046 -0.022473246 -0.04640451 -0.2571645
000170 14 8c 56 be 53 7c 1b 3e 2a 26 3b be 40 9b 85 3e
       -0.20951873 0.15184145 -0.18276277 0.2609501
000180 f7 f8 bd 3e 22 2a 26 bc 9c 04 b2 be d3 c1 a7 bd
       0.37104008 -0.010141881 -0.34769142 -0.08191266
000190 4d e2 f9 bc b9 f8 73 3e 2a c6 75 3e 06 fb aa bd
       -0.030503416 0.23825349 0.24001375 -0.0834866
0001a0 0a 28 4d 3e cf 96 3f bd 8e f3 db be d1 cd 16 be
       0.20034805 -0.04677468 -0.42959255 -0.1472695
0001b0 85 a6 85 3d 10 bf 06 be 2c f8 88 be eb be a5 bd
       0.06525902 -0.13158822 -0.2675184 -0.08093055
0001c0 ad a7 7e bc 6d e6 3f 3d b2 a5 13 be 93 c8 8c bd
       -0.015542907 0.04685061 -0.14418676 -0.06874194
0001d0 20 4b 38 be bf db 9f 3d 43 e0 06 be b8 d9 90 3e
       -0.17997408 0.07805585 -0.13171487 0.28291106
0001e0 2b 2f 21 be 74 0d 06 3e 0e 07 28 be d7 8c 03 bc
       -0.1574065 0.1309107 -0.16408941 -0.008029184
0001f0 23 30 94 3d d4 2d ec 3d de af f5 bd 60 80 0d be
       0.07235744 0.115321785 -0.11996435 -0.13818502
000200 5a aa 89 3e 14 22 d3 bd ff 26 49 3d 63 3f d9 be
       0.2688778 -0.10309234 0.049109455 -0.42431173
000210 67 58 ee 3e 48 57 77 3e 7f e0 24 3e 53 bc 1b bf
       0.4655182 0.24154389 0.16101263 -0.60834235
000220 44 8c 02 bd 6a c2 82 be 0f 31 22 be 74 03 bf be
       -0.03187205 -0.2553895 -0.15839027 -0.37307322
000230 90 4f 18 3e 65 48 35 3f 38 56 3b be 63 db a3 3d
       0.148741 0.7081359 -0.18294609 0.08000829
000240 94 a5 9b bb aa fc d5 3c 8f 94 8e be da cd e2 3e
       -0.004749963 0.026121456 -0.27847716 0.44297677
000250 ae 15 94 be ba 5b e6 bd 90 44 86 3e 34 45 b1 3e
       -0.2892279 -0.11247964 0.26224184 0.3462311
000260 32 e1 1f 3e 04 f3 59 bd cc 5e 3a 3d f7 a5 8f 3d
       0.15613249 -0.053210273 0.04550056 0.07014077
000270 e2 a8 9d be d6 6d 21 be 4e ff 8d be 47 fd 01 3f
       -0.3079291 -0.15764555 -0.27733845 0.50777096
000280 f7 90 94 3e 58 03 11 3e 79 2e 12 3f b2 2e 9e 3e
       0.2901685 0.14161432 0.5710216 0.30895
000290 1a fa f0 3e 4e f1 7c 3e c6 be 2e be 59 ae 13 bf
       0.47065812 0.24701425 -0.17064962 -0.5768791
0002a0 bb ea 2f 3e 53 3e 9d bd 3a 74 3f bf 75 ee 18 be
       0.17179386 -0.07677903 -0.7478672 -0.14934714
0002b0 df 2a 65 bd 21 44 e3 3e d0 49 07 be 96 7e 04 3e
       -0.05594909 0.44387916 -0.13211751 0.12938914
0002c0 ce 42 db 3d e4 8e 85 3e 91 2a cd be 0a c9 00 3f
       0.10706101 0.2608558 -0.40071538 0.5030676
0002d0 41 7c 80 be e0 4b 33 3c d4 54 11 bf b0 f0 8e 3e
       -0.25094798 0.010943383 -0.5677006 0.27918005
0002e0 45 fa a5 be 06 9c ee 3e 10 fa 0b bf 7c dc c0 3e
       -0.32417503 0.4660341 -0.5467844 0.37668216
0002f0 a8 be 60 bc b7 72 e9 3e 40 6f da 3d 3f 2c c3 be
       -0.013717331 0.45595333 0.106657505 -0.38119695
000300 54 42 28 bc a1 d4 34 3e 00 f5 2d 3e 0a f1 21 3e
       -0.01026972 0.17659236 0.16987991 0.15814605
000310 d6 03 d7 be 65 8d 0a 3c c8 69 e4 3d 81 ee 07 bf
       -0.41995114 0.008456563 0.11152989 -0.53098303
000320 e0 e1 7d be 37 59 7a be e8 84 6a bd be 3f 5e 3d
       -0.24793196 -0.24448095 -0.057255656 0.054260008
000330 2a f2 39 3f 6c 92 12 3d b3 50 63 3e b0 cd 8e 3e
       0.7263514 0.03578417 0.22198753 0.27891302
000340 ee 69 ed 3d f9 5f a3 3d 6c dd d0 bd e5 de 7b 3e
       0.1159247 0.0797729 -0.10198483 0.24596746
000350 6a b0 59 3e 09 8a ec 3d f6 ea 1a 3f f1 2f 84 be
       0.21258703 0.115497656 0.6051477 -0.25817826
000360 ec 97 34 be cd d1 92 3e 68 38 36 be 80 a9 ec 3e
       -0.17636079 0.2867569 -0.17794955 0.46223068
000370 83 db e1 be 15 dc 0f 3e cb 40 36 3e 69 bb 01 bd
       -0.44112787 0.14048798 0.17798154 -0.03167287
000380 2a aa 1d 3e 4a dd 38 3e 74 68 e6 bb e4 d6 55 3e
       0.15396944 0.18053165 -0.0070314948 0.20882756
000390 28 2c 8a 3e 60 62 13 3e 87 9b 98 be 1b 91 6e bd
       0.26986814 0.14392996 -0.29806158 -0.058243852
0003a0 a3 ee 53 bf f7 2f 57 3e 66 cb 39 3f c6 44 7a be
       -0.82786006 0.21014391 0.72575986 -0.24440297
0003b0 d2 1a ed bd 42 a5 3c be 6f 50 d8 be a7 6c c1 bd
       -0.11577381 -0.18422416 -0.42248866 -0.09444552
0003c0 45 2b 35 3d 59 14 5b bc c7 9c 50 bd 58 c0 06 3e
       0.04423072 -0.0133715505 -0.050930765 0.13159311
0003d0 53 04 3b be 9a ae 04 bf 61 c9 fa be 8c 97 40 3e
       -0.18263368 -0.5182892 -0.48981765 0.1880781
0003e0 7b de 1e 3d 11 67 8e 3d 0f 77 aa be 11 9e 49 3d
       0.038786393 0.06953252 -0.3329396 0.04922301
0003f0 b5 71 db 3d 88 55 46 be c3 07 b9 3c 07 81 0a bc
       0.10715047 -0.19368565 0.022586709 -0.008453614

cell.gru.bias_ih f4 [192]
000000 32 c5 6f be 52 94 bd be ac 2d 5f be d9 1b c9 bd
       -0.23415068 -0.37027222 -0.21794766 -0.09819765
000010 14 d1 15 bf 84 1d 17 bf 19 28 4b 3e 19 df 45 be
       -0.5852215 -0.5902941 0.19839515 -0.19323386
000020 15 8e f1 be 50 27 68 be 84 36 eb 3d 9e f3 87 3d
       -0.47178712 -0.22671247 0.114850074 0.06638263
000030 f3 9f 8a be 4d 2e a5 3d 78 ed bf be 18 5e 22 3d
       -0.27075157 0.08065472 -0.37485862 0.039640516
000040 70 5f 9b be 79 46 70 3d a8 81 33 3e 95 17 a4 3e
       -0.3034625 0.058660958 0.17529929 0.32049242
000050 af 14 d3 be 25 20 d6 be 25 51 ad bd 7b d1 ee be
       -0.41226718 -0.418214 -0.08462743 -0.46644196
000060 44 cc 5b be 1e d5 50 be 0b 48 40 3d 49 62 8d 3c
       -0.2146464 -0.20393798 0.046943706 0.01725878
000070 ff 62 b8 bd 06 eb b2 bb 55 af 44 3d 2d 92 2e 3d
       -0.09003257 -0.005460146 0.048018772 0.042619873
000080 bf b5 39 3d e3 48 8e 3e 6a a4 0f be 9a b6 31 bf
       0.045339342 0.27789983 -0.14027563 -0.6941925
000090 db 9d 26 bf c8 fb 4c bd 03 34 e7 bd 9f ee 07 3f
       -0.6508462 -0.050044805 -0.11289217 0.5309848
0000a0 77 de cc bb b5 54 69 3e 8c 53 5b 3c b3 67 ff be
       -0.006252106 0.2278622 0.013386618 -0.49883804
0000b0 a2 cc 97 be ca d1 c7 3e 6f 0c 1f 3d 27 9d 15 bf
       -0.2964831 0.39027244 0.038830217 -0.5844292
0000c0 44 d9 53 be 67 14 c0 be 7a 39 8e bf 26 85 ff be
       -0.20688349 -0.37515566 -1.111129 -0.49906272
0000d0 0a 31 8d 3e df 1a ef bd 02 5b 70 3e 20 8d 58 3c
       0.27576476 -0.11675047 0.23472217 0.013217241
0000e0 5b ce 09 bd 56 60 24 be bb 8b 2a be 30 38 40 3e
       -0.03364406 -0.16052374 -0.16654865 0.18771434
0000f0 f1 49 31 3e b1 58 dd bc e4 06 1b bf a6 a7 1d be
       0.17313363 -0.02701983 -0.6055739 -0.15395984
000100 19 68 3c bd bd 36 84 3e 3c 25 c7 bc 5e 6d c6 be
       -0.045997713 0.25823012 -0.024309747 -0.38755316
000110 13 2b 02 3c b4 76 85 bd 5e 94 ab bd dd 9f 97 3e
       0.00794484 -0.065167814 -0.08377908 0.29614154
000120 aa f9 b5 3d 54 15 3d be cb ec 54 3e a4 8b 08 3d
       0.0888551 -0.18465167 0.20793454 0.033336297
000130 d7 48 1e be cd 41 27 be b1 22 4b be 03 4a ae bd
       -0.15457474 -0.16333695 -0.19837452 -0.0851021
000140 dc e5 1b bd eb ab b6 3e 0f bc 85 3e ac f6 c6 3e
       -0.038061008 0.35678038 0.2612004 0.3886007
000150 da a7 1d be 09 ba 43 be e7 52 9d 3d 0a 23 15 3e
       -0.15396062 -0.19113936 0.07681828 0.14564148
000160 75 77 83 3d 74 ad 1a 3e b9 57 37 bd c8 7c b9 bd
       0.06419269 0.1510523 -0.044761393 -0.09057003
000170 14 bc 75 bd 4f 25 fd 3e aa d7 b2 3d ad bb 36 3e
       -0.05999382 0.49442527 0.08732541 0.1784503
000180 77 83 03 be f2 a7 bb 3d 50 f7 14 be de 8d 26 be
       -0.12843119 0.091628924 -0.14547467 -0.16265056
000190 10 8e f1 3d a4 7a bc 3e 8a 86 10 3e 19 ef 05 3f
       0.117946744 0.36812317 0.14113823 0.5231796
0001a0 e7 04 9f bd ed c5 05 bd ba eb 70 3d 4f 48 fb 3d
       -0.07764607 -0.03265946 0.058818556 0.12269651
0001b0 a9 97 45 3d 29 81 b9 3e 58 bc a0 3e a8 b1 e1 be
       0.048240338 0.36231354 0.31393695 -0.44080853
0001c0 df 25 c7 3e 8f 8f 86 bd 5a a8 ab be 64 70 19 3d
       0.3889608 -0.065703504 -0.3352688 0.0374607
0001d0 ce 34 d8 be ac 1a 51 be 6b 9d b2 3e 86 91 9d 3d
       -0.42227787 -0.20420331 0.34885725 0.07693772
0001e0 c3 4b dd bc c7 5b 43 3d 37 66 13 3e bb 06 13 3e
       -0.027013665 0.047694948 0.1439446 0.14358036
0001f0 45 5a 2a 3e 6c ed c5 be 60 77 81 3e d1 54 ca 3d
       0.16635998 -0.386577 0.25286388 0.09879459
000200 03 28 f5 bd a1 06 4a be a9 1c 05 be 03 17 ab bd
       -0.11970522 -0.19729091 -0.12999214 -0.083539985
000210 80 23 77 3d 26 61 3c 3d 8c 89 4b be 23 94 a9 3d
       0.06033659 0.045991085 -0.19876689 0.08280208
000220 f1 7e 88 bd a2 38 a6 bc ed 3c 1c bd d1 46 12 3e
       -0.06664837 -0.020290677 -0.03814404 0.14284827
000230 05 82 a4 3c 24 81 20 be 91 b1 74 bd 16 6b b7 3d
       0.02008153 -0.15674263 -0.059739653 0.08955972
000240 af 4c 25 3e b5 46 82 bc 0c f9 11 3e 14 ea 98 3d
       0.16142534 -0.015902856 0.1425516 0.07466522
000250 46 67 89 3d 72 9f d0 3d 9c 3c 9d 3b 2c 68 0e be
       0.06709151 0.10186662 0.004798485 -0.13906926
000260 57 c7 f4 3c 27 c6 a3 bd 44 22 39 3e c0 06 80 3d
       0.029880209 -0.07996779 0.18079478 0.062512875
000270 52 d4 8c 3d 5e 52 29 bd ff 28 0c be 19 bc 81 be
       0.068764344 -0.041338317 -0.13687514 -0.2533882
000280 db 00 44 be 76 44 5f bc 91 9e fc 3d 58 0d 69 bd
       -0.19140951 -0.013627162 0.12334932 -0.05689749
000290 32 14 a1 bc 84 4a 06 ba 6b 11 14 be f4 71 35 bd
       -0.01966295 -0.0005122798 -0.1445977 -0.044298127
0002a0 f4 a2 17 3e 0e d6 d3 3d c0 fe bb 3d e2 8e 95 bd
       0.14808255 0.10343562 0.09179449 -0.07302643
0002b0 96 05 79 3d bc 96 5f 3c bf 27 57 bd 2e 13 c2 3b
       0.060796343 0.013646778 -0.05252814 0.0059226966
0002c0 a7 74 f1 bd d1 b5 bb 3d 24 5c 3e 3d 9c 4a 55 3d
       -0.11789828 0.09165538 0.04647459 0.052073106
0002d0 80 24 82 3e 91 6f e8 3d da 3f 46 3e 93 e4 79 bd
       0.25418472 0.113494046 0.19360295 -0.061009
0002e0 a4 43 1e bd 04 dd 2e bb db 00 2c 3c 42 b8 e2 bd
       -0.038638726 -0.0026682029 0.010498251 -0.11070301
0002f0 5f 54 06 3d 65 7f f8 3d e9 48 2d 3d 16 ee 40 3e
       0.032795306 0.121336736 0.04230586 0.18840823

cell.gru.bias_hh f4 [192]
000000 1c d0 17 be d6 f9 db be e9 40 36 be 44 b0 bc bd
       -0.14825481 -0.42964047 -0.17798199 -0.092133075
000010 fc 6d c2 be 71 0a 29 bf cd de 34 3e 86 46 56 be
       -0.37974536 -0.6603156 0.17663117 -0.2092534
000020 42 c2 f9 be eb 7e 81 be 30 fb c3 bc 9a ce fe 3d
       -0.4878102 -0.25292143 -0.023923486 0.1244175
000030 fb 0b 4c be 50 f5 ff 3d 1f 98 88 be 49 5a 24 be
       -0.19926445 0.124979615 -0.2667856 -0.16050066
000040 21 98 99 be 0b e2 09 bd a3 f2 ee 3d bc 88 56 3e
       -0.29998878 -0.033662837 0.11667373 0.20950598
000050 e9 a3 00 bf 75 27 71 be 29 f3 3c bd 3e f6 a5 be
       -0.5025011 -0.23550208 -0.046130333 -0.3241443
000060 76 28 9d be 95 f5 81 ba f2 9f 24 bd dc 87 cf bc
       -0.30694932 -0.0009915108 -0.0401916 -0.025333337
000070 c6 6d a8 3d 5b bc 62 bd 64 eb 1c bb 97 a0 b4 3d
       0.082240626 -0.05535541 -0.0023944015 0.088196926
000080 a8 d7 2c 3d 62 32 cc 3e 9f 4a 8d be 63 17 49 bf
       0.042197853 0.3988219 -0.27595994 -0.7855131
000090 04 fa 1e bf 04 ec cb bd 0d 0f 57 be 26 80 2d 3f
       -0.62100244 -0.09957126 -0.21001835 0.67773664
0000a0 73 a3 e7 3d 4b 83 e0 3d ca 9c 72 3e fe ac 06 bf
       0.11310472 0.10962542 0.23692623 -0.52607715
0000b0 f8 f0 f3 be a1 ef e4 3e 80 70 7f 3d 38 8d 16 bf
       -0.47644782 0.44714072 0.062363148 -0.5880923
0000c0 09 87 59 be be df 85 be c0 a1 98 bf 89 13 0f bf
       -0.21242918 -0.26147264 -1.1924362 -0.55889183
0000d0 7d 05 93 3e 5b 52 fd bc 07 0d 70 3e b6 be 3a 3e
       0.28715125 -0.03092306 0.2344247 0.18236813
0000e0 77 eb e3 bd 2e cf 5a bd a3 1e 71 bd 69 51 82 3e
       -0.11128896 -0.05342024 -0.058867108 0.25452736
0000f0 5c 34 44 3d 03 ae 38 bd 01 32 12 bf e4 43 b4 bd
       0.047901496 -0.045087826 -0.5710755 -0.088020116
000100 63 55 f2 3d b0 ab 29 3e 09 56 26 bd 1a 7d c6 be
       0.118326925 0.165694 -0.040609393 -0.3876732
000110 2c d2 80 bd b4 bd 28 bd 6b 81 62 3d 34 3c 27 3e
       -0.06290087 -0.04119654 0.055299204 0.1633156
000120 34 dc f4 3d 7b 77 a2 be 15 1e 5d 3e fe 8b cb 3d
       0.11956063 -0.3173178 0.21593507 0.09938811
000130 2b 6f 8f be 1a 07 6a 3d 83 b0 b4 be 66 7e 0d 3e
       -0.28014502 0.05713568 -0.35290918 0.13817748
000140 e4 0b 89 bc 26 b6 f1 3e d9 36 18 3e 3f 5a 88 3e
       -0.016729303 0.4720928 0.14864673 0.26631352
000150 81 e5 0f be 8c 1d 15 be 38 ee 5f bd 91 1e 12 3d
       -0.14052393 -0.14562052 -0.054670542 0.03567368
000160 a4 1f 93 3d 5c 72 8e 3e 99 9c 00 bd c3 50 f0 bc
       0.07183769 0.27821624 -0.031399343 -0.029335385
000170 9c b9 29 bc c3 18 cc 3e 99 52 84 3e dd 41 f7 3c
       -0.010359194 0.39862642 0.25844267 0.030182773
000180 c7 19 59 be 78 37 37 bd c5 4e 40 bd 9b fc f8 bd
       -0.2120124 -0.044730633 -0.04695012 -0.12157556
000190 52 12 91 3a 02 de 15 3e d6 9c 4f bd 09 2e 03 3f
       0.0011068082 0.1463547 -0.05068668 0.5124212
0001a0 64 91 6c be 93 de 12 be 03 8d a2 bd 87 56 92 3e
       -0.23102337 -0.14342718 -0.07937052 0.2858164
0001b0 6b ad a9 bd 86 ba e1 3e 8b 75 89 3e 71 65 ca be
       -0.0828503 0.4408762 0.2684749 -0.3953052
0001c0 76 4d b6 3e df da d2 bd 31 1e 68 be a2 bf 40 3e
       0.35605973 -0.102956526 -0.22667767 0.18823102
0001d0 6d 5b 0b bf 0f 22 e2 bd 8a fe 8b 3e e0 96 ae 3c
       -0.5443638 -0.110416524 0.27342635 0.021312177
0001e0 23 bb 39 3e 71 19 4d 3e a8 69 ba 3d 99 e2 09 3e
       0.18137793 0.20029236 0.091021836 0.13465346
0001f0 89 a0 73 3e a6 a1 d3 be 86 3b c4 3e 89 32 b0 3d
       0.23791708 -0.41334265 0.38326663 0.08603389
000200 f5 22 dd 3d 78 90 85 be 41 58 30 3e 90 04 0a 3f
       0.10797683 -0.26086783 0.17221166 0.5391321
000210 87 d5 d2 bd 0f 72 c0 bd 73 06 53 3e 95 7f 92 be
       -0.10294633 -0.09396755 0.20607929 -0.28612962
000220 83 0d cd 3e 2b 02 ad 3d ee df b8 3e b2 0d 7e 3d
       0.4004937 0.08447679 0.36108345 0.06202478
000230 6f b8 85 bd 19 32 fe bd b8 1d ad 3e 44 5e 56 bb
       -0.065293185 -0.12411899 0.33811736 -0.0032709995
000240 a3 3b 8f 3c 81 68 5d 3d ec a6 05 bd 7f 43 99 bd
       0.017484492 0.05405474 -0.032629892 -0.07483577
000250 a6 28 be be 81 58 f3 bd d0 86 3b bd 7f e4 06 bf
       -0.37140387 -0.11882115 -0.045782864 -0.5269241
000260 89 fd 95 bd 67 73 11 3e fc 75 04 bf 0e 77 79 be
       -0.073237486 0.14204179 -0.5174253 -0.24361822
000270 47 12 d7 bd 86 f4 23 bc 81 43 7b 3e 92 cd 5f bd
       -0.10501533 -0.010007029 0.2453747 -0.054639407
000280 e0 64 08 3d 37 cd e8 be 4b 59 09 be 77 c2 aa 3e
       0.033299327 -0.45469067 -0.13412969 0.3335149
000290 95 46 52 3d 20 52 64 bd ce 9b c9 3d 15 46 96 3d
       0.051336844 -0.055742383 0.098441705 0.07337586
0002a0 92 57 91 be bd 83 fe 3d 05 77 d2 3e ec 5c bd 3d
       -0.28387123 0.12427471 0.4110643 0.09246239
0002b0 8b 25 35 be e9 54 23 be 74 2a a6 3c e2 48 b7 3d
       -0.17690103 -0.1595036 0.020283915 0.08949448
0002c0 e5 50 38 bd 23 78 91 be de b0 d0 3c 3b 03 86 be
       -0.044999022 -0.2841197 0.025474962 -0.2617434
0002d0 bf bd bc 3e b4 0c 81 bd df 2e 92 be 27 9f 97 be
       0.36863515 -0.06301251 -0.28551385 -0.2961361
0002e0 c2 49 08 be 82 8d 3d be 00 ab 9a 3e 8e 59 17 bd
       -0.13309386 -0.18511012 0.30208588 -0.03695064
0002f0 7f 2c fd 3d 95 5b 3a be 37 aa ec bd 6a 02 db bd
       0.123620026 -0.18198998 -0.115559034 -0.1069382

fc_out.weight f4 [2, 64]
000000 23 54 5b 3e bd 6c c8 bc 4d 38 5b 3e 29 92 ee 3b
       0.21418814 -0.024465913 0.21408196 0.0072806072
000010 15 e0 da bd 3f 6c d5 3e bf 6a 5f 3d d8 25 4f be
       -0.106872715 0.41684148 0.05454516 -0.2022928
000020 dd f6 62 3e c6 a2 91 bd 94 fd 74 3d 14 9e 54 be
       0.22164483 -0.07111125 0.059812143 -0.20763427
000030 80 77 99 bd 4d e5 bd 3c 8b c4 39 bd b7 13 14 3e
       -0.07493496 0.023180628 -0.045353454 0.14460646
000040 eb 9e 32 3e 1a dd cd be ae 55 0f be c4 98 d2 be
       0.17443435 -0.4020775 -0.13997528 -0.41132176
000050 f8 6c e5 3e 4c 52 d0 3d 7b 52 b5 3d 19 bd fd bd
       0.448097 0.10171947 0.088536225 -0.12389583
000060 4f 0c 91 3e 0a e3 7e 3e 19 53 aa be fb 4b 10 be
       0.28329703 0.24891296 -0.33266523 -0.14091484
000070 35 f6 04 be 8c fb 8c 3e ba 81 8f 3e 00 b8 e2 3d
       -0.12984546 0.27535665 0.2802866 0.110702515
000080 92 9a ab 3d 17 1e 59 be 64 b7 e2 3d 1e 51 bf be
       0.08379091 -0.21202885 0.11070135 -0.37366575
000090 c8 81 8e 3e 98 ac 5c 3e 09 7c 8f 3e fb 60 0e 3f
       0.2783339 0.21550214 0.2802432 0.5561673
0000a0 8e e2 0e bd e4 14 1c 3d e0 ad 3d 3a 4a 65 69 be
       -0.034884028 0.03810586 0.0007235687 -0.22792545
0000b0 1a b7 89 be 8b df ab be 32 f7 78 be 23 af f0 3d
       -0.26897508 -0.33568987 -0.24313048 0.11752155
0000c0 c8 80 c8 3e b6 4a 0d 3e 25 7b 6c be f7 a9 95 3e
       0.39160752 0.13798031 -0.23093851 0.29231235
0000d0 f1 bf c3 3c 49 d7 cc 3d cc 3f 22 be c1 d3 91 be
       0.023895236 0.10002 -0.15844649 -0.28481868
0000e0 af 20 03 be e6 ee e3 3d 8e fa 26 be b0 c5 d4 3d
       -0.12805437 0.11129551 -0.16306517 0.103892684
0000f0 dd 4f 13 3e b6 da 74 bb 9c 1b ef be 8f 3b 97 bd
       0.14385934 -0.0037361807 -0.46700752 -0.07384407
000100 1b ef 23 3e 4e 93 95 bc 3f 7d 57 3e 3d a3 dd 3c
       0.1600918 -0.018258717 0.21043871 0.027055377
000110 c9 33 b1 bd 30 e3 b0 3e 3a 8b 48 3d 34 c9 20 be
       -0.08652455 0.3454833 0.0489609 -0.15701753
000120 ce 18 23 3e e6 ba c0 bd 83 ae 46 3d 6f 18 26 be
       0.15927431 -0.09410648 0.04850627 -0.16220258
000130 93 9d d5 bd fa 36 09 3d 50 ad 40 bd 96 b0 26 3e
       -0.104304455 0.033499695 -0.047040284 0.162783
000140 e6 cd 43 3e 83 b5 c3 be b8 33 0b be 9f ec b4 be
       0.19121513 -0.3822442 -0.13593948 -0.35336778
000150 2c 13 dd 3e 05 06 d0 3d 95 5c 81 3d 9b 94 08 be
       0.4317869 0.10157398 0.06316487 -0.13337938
000160 97 b6 92 3e c9 46 79 3e da be a8 be e9 5f 22 be
       0.2865493 0.24343409 -0.32958108 -0.158569
000170 5d 1e 39 be 78 35 b2 3e a4 8b 5b 3e 84 5b f9 3d
       -0.18077989 0.34806418 0.21439987 0.12175658
000180 06 b4 ca 3d db 13 5d be 07 3e 0a 3e 13 3b bd be
       0.09897618 -0.21589606 0.13500224 -0.36959133
000190 05 4d 83 3e f4 59 36 3e 85 fd 9c 3e 7c 48 1a 3f
       0.256447 0.17807752 0.3066217 0.6026685
0001a0 a1 ba fd bb 5a 64 4b 3d 8b 4e 8e 3c f1 b7 3d be
       -0.007743195 0.04965625 0.017371437 -0.185272
0001b0 57 42 83 be da 3e b0 be 4b 0a 72 be d2 5f c3 3d
       -0.2563655 -0.34422952 -0.23636739 0.09539761
0001c0 1a 78 c9 3e eb cb c5 3d ea 07 90 be 25 88 86 3e
       0.39349443 0.09658035 -0.28131038 0.26275745
0001d0 51 22 ca 3c e7 a5 d2 3d 1b 6d 0e be f8 a9 87 be
       0.024674566 0.102855496 -0.13908808 -0.26496863
0001e0 22 ed c9 bd 82 d3 15 3e 2f 61 2e be 5b a7 f4 3d
       -0.098596826 0.14631465 -0.1702926 0.11945983
0001f0 7f 23 2f 3e 3f dd 33 bc f7 14 c6 be 17 aa 9e bd
       0.17103384 -0.010978042 -0.3868787 -0.07747286

fc_out.bias f4 [2]
000000 e7 c5 06 3d d7 6c 08 3d
       0.032903578 0.033306923
