notebooks/archive/DCRNN/Adj_Dropout_20mins/dcrnn_best.pt (torch, 121016 bytes, 7 tensors)

cell.diff.theta f4 [65, 64]
00000000: 60de e7bd 6b1b 83be 766b 423e 1684 90bd
00000010: 6c78 1bbe 9554 b6bd 66ab 163e f910 34bd
00000020: 42fc 773d bbec 7dbe 6939 f73d 75aa cc3b
00000030: 6527 4abd 09d3 ad3d 7844 2ebd 0711 883e
00000040: d405 493e 9d9e 213e 0726 3d3e d6dc 803e
00000050: 1e32 4bbe a26c 2d3e b5e2 113e 67c9 08be
00000060: 149c 133c 6112 72be 0bf5 efbd e7f4 c2bd
00000070: 0254 71bd 8577 e8bd 4e2c 72be b8c4 813e
00000080: 8202 29be 5240 afbd 484e 23bc f8b5 22be
00000090: 8a14 45be a568 3dbb 1386 423e be8c 3e3e
000000a0: 6d07 dabd 0c74 4c3e 0f6d 27bd f908 413e
000000b0: e91e 753e dd49 c9bc c747 69bd 05e4 653e
000000c0: cdea 4ebe f5a2 3e3e 6b63 9dbd 28a2 3f3e
000000d0: cff2 263e be44 233e 4301 74bd 4cde 6fbe
000000e0: b51b 733d c400 84be bd0f 61be d20b 793e
000000f0: 591a 55be e3d5 ccbc f971 3fbe 2d93 803c
00000100: fe88 34bd b0bc 7ebd c448 6d3a 1043 833d
00000110: 5191 533d c2d0 2a3d 9999 08bd 0815 21bd
00000120: 6087 07be d68a bfbc 471d 673d 287c c6bd
00000130: 29fc a53d 2418 cbbd 4365 3d3d fecb 04bd
00000140: 0469 6d3d cb7c 18be 2d0e 323b 1a22 6dbb
00000150: d750 6739 b3c1 dcbd b0e9 3dbe a38c 83bc
00000160: 1152 2e3d c43c de3c 24ba 99bd 59b6 fcbc
00000170: 6f05 cbbb 3dbc 913c cbe4 283d b09d 443c
00000180: aa4b 2c3c 8aab f53d e5b0 4d3d 341b dbbc
00000190: e444 653d 39ca 73bd f5fe 76bc 3b3d 323c
000001a0: 0fd5 c8bc 695c 0cbd c47c a03c a45e 253c
000001b0: 7623 8bbd 09df 67bd c2cb 9b3d d677 2abd
000001c0: 5f56 ab3d 32ef a0bd b63f a1bd 31ce a8bc
000001d0: dd3a b3bc f2cb 8ebd 5133 cebc 29db 533c
000001e0: beb4 54bd b9f0 1a3d cb0f e13a 586e bfbb
000001f0: eb12 e63c 04cf 403d 8188 de3c 9e61 50bc
00000200: f7b1 cf3c 5f1e b8bd dfcb 963d 2dba bfbd
00000210: 8a18 b03d 485c 2fbd 9070 a03d 6d6b b0bb
00000220: 63fa 133d 93e7 63bd 0820 2c3c a553 6c3d
00000230: 951e 1bbd 4c55 01be 2640 cc3d 25bc e43d
00000240: 36e5 7639 10d8 49be 6a45 e73d 0404 cf3d
00000250: 64c7 06be e946 b83d e007 9cbd 1771 b6bd
00000260: 72df 4e3d 2c87 99bc 390f aebc 7901 2abd
00000270: 2b42 8f3d ad62 1ebe c716 40bd d43a 133e
00000280: 7161 86bd 186a c83d d144 6a39 a744 db3d
00000290: d7e4 e13b 7ba1 203d 3679 9dbc 5b8c 013d
000002a0: af45 e13d 8b98 053e e7cd 023e 5753 743d
000002b0: c3c0 3a3e ce58 373c ed6b 4e3c ea5a cc3d
000002c0: f8be 0b3e 4201 5abd 9bcd e0bd b5c5 4b3b
000002d0: c6e3 ef3a ae55 0cbe 50ec 2dbe 64ba 143c
000002e0: 72e1 84bd c1eb 2bbd 54d1 a8bd 67ab 193e
000002f0: b607 e5bb 7fc9 30be ada1 3dbd 5f58 02bd
00000300: 2474 df3d 5ec0 97bd bd61 b73d 88b3 5b3d
00000310: f591 ab3d c8b2 aabd 88b9 943d d1ee 90bd
00000320: 6149 063d eedb 22bd 20be 6dbc 4709 ff3d
00000330: 88fd 983d 3e46 b03d cefc 81bd 4359 1b3d
00000340: 52d0 1dbd 9de8 91bd bb9c 543d d132 bd3d
00000350: 886f 9fbc 797d 0e3e 9a43 25be 7d70 95bb
00000360: 315c 08bd 3bc8 20bd 0ba8 21bd a876 cbbd
00000370: 616c b03d 8cda 293d 12d7 8bbd dd6f db3d
00000380: aa02 73bd bbf8 843d fc5c 12bc e234 1ebd
00000390: e97b 6abc 083b afbc 7c26 ea3b c00c 28bc
000003a0: 5fc4 85bd 5cc8 24bc e804 363d 10aa 523d
000003b0: 4fc2 263c f77a bfbd 7bcb a7bd 3c9d da3c
000003c0: 63b2 0e3d 0041 403d 6d0a cabd 89b8 133d
000003d0: 73e6 29bc 36c7 a93d 375e 2ebd 84fc 6a3c
000003e0: 1ee0 77bc 3a52 b9bd 6cd0 ae3b 7f04 eb3c
000003f0: 4165 05bd 7270 1cbd bd9e 89bd d7bc 6a3c
-0.113217115 -0.25606856 0.18986306 -0.070564434 -0.15182656 -0.089028515 0.14713821 -0.0439615
0.060543306 -0.24797337 0.12071497 0.006245906 -0.049353976 0.084875174 -0.042545766 0.2657549
0.1963113 0.15783162 0.18471538 0.25168484 -0.19843337 0.16935971 0.14246638 -0.13358079
0.00900938 -0.23639823 -0.1171666 -0.09519368 -0.058918007 -0.113509215 -0.23649713 0.25345397
-0.16504863 -0.0855719 -0.009967394 -0.15889728 -0.19246116 -0.0028901484 0.18996458 0.18608376
-0.106459476 0.19966143 -0.04087549 0.18851079 0.23937573 -0.024571354 -0.056953218 0.22450264
-0.20206757 0.1861685 -0.07684978 0.18714201 0.16303562 0.15944192 -0.059571516 -0.23424643
0.059352595 -0.25781834 -0.2197866 0.24320915 -0.20810832 -0.025004333 -0.18695821 0.015695179
-0.04407596 -0.062191665 0.00090516754 0.064092755 0.051652256 0.041702993 -0.033349607 -0.039326698
-0.13235235 -0.023381632 0.056424405 -0.0969165 0.08104736 -0.09916714 0.04623915 -0.032421105
0.05796148 -0.14891355 0.0027169094 -0.0036183656 0.00022059992 -0.10779133 -0.18546176 -0.016058272
0.042558733 0.027128585 -0.07506207 -0.030848669 -0.006195716 0.017789954 0.04123382 0.012000486
0.010516087 0.11995609 0.050217528 -0.02674637 0.055973902 -0.059519026 -0.015075435 0.010878856
-0.024515657 -0.034267817 0.019590743 0.010093365 -0.06793873 -0.056609187 0.07607223 -0.04161819
0.08366083 -0.07858123 -0.0787348 -0.020606132 -0.021878654 -0.06972493 -0.025170954 0.01293067
-0.05193018 0.037827227 0.0017170844 -0.0058420114 0.028085193 0.047072425 0.0271647 -0.012718586
0.025353415 -0.08990168 0.07363104 -0.09361682 0.085984305 -0.042812616 0.078339696 -0.0053839
0.03612746 -0.05564077 0.010505684 0.057696957 -0.037870962 -0.12630194 0.09973173 0.11168698
0.00023545776 -0.19711328 0.112925366 0.10108188 -0.13161999 0.089979 -0.076186895 -0.08908289
0.050506063 -0.018741213 -0.021247493 -0.04150531 0.069950424 -0.1546733 -0.046896722 0.1437791
-0.06561554 0.09785861 0.00022341615 0.10706454 0.006893735 0.0392165 -0.019222837 0.031627994
0.10999619 0.13046472 0.12773858 0.05964979 0.18237595 0.011190606 0.012598974 0.09978278
0.13647068 -0.053223856 -0.10976716 0.0031093184 0.0018302135 -0.13704559 -0.16984677 0.009077642
-0.06488313 -0.04197288 -0.08243051 0.15006791 -0.0069894446 -0.17264365 -0.046296764 -0.03182256
0.10910824 -0.07409738 0.08954189 0.05363801 0.083774485 -0.08334881 0.0726195 -0.070768006
0.032784823 -0.039760523 -0.014510661 0.124529414 0.07470232 0.08607148 -0.06347047 0.037926923
-0.038528748 -0.071244456 0.051907282 0.09238208 -0.019462362 0.13915052 -0.16139069 -0.004560529
-0.033291046 -0.039253455 -0.0394669 -0.09934741 0.08614422 0.04146819 -0.06828131 0.107146956
-0.059328713 0.06492754 -0.008933302 -0.03862465 -0.014311769 -0.021390453 0.007145701 -0.010256946
-0.065315954 -0.010057535 0.044438273 0.051431715 0.010178163 -0.093496256 -0.08193108 0.026686303
0.03483809 0.04693699 -0.0986527 0.03606466 -0.010369885 0.082899496 -0.04257032 0.014342431
-0.015129117 -0.090488866 0.0053349044 0.028688667 -0.032567266 -0.038193174 -0.0671973 0.0143272495

cell.gru.weight_ih f4 [192, 64]
00000000: 9daa 023d 750c 293e a909 8ebe 0311 90bd
00000010: 4a72 91bd c5bd b33c b208 fabe 611a 593d
00000020: 8891 f9bd 7d3e 803d 3a63 95bc ba8b 0bbe
00000030: 89ff d1bd 737f d7bd 5196 61bc 7c5f 5f3d
00000040: 5971 90be cdb9 30bd 735a 553c f5b9 9c3c
00000050: f24b 2cbd 87da dd3d b010 843c 02c1 5dbe
00000060: 8231 133d e78c 51bd d3a0 953d 45b1 b13e
00000070: 81ea d73d 4006 1c3e aa28 88bd d2b7 0a3d
00000080: 84fb a93d 3aed 343d d1a0 b8bd 4091 2d3e
00000090: c72f 8bbd 40af 6c3e cd43 33bd 10c7 8abe
000000a0: c3e1 913e 8ee3 093e ba60 843e d515 e43d
000000b0: 8508 743d fb26 eebb 8a2f cb3d d853 d3be
000000c0: 57d5 bfbc 8f28 b6bd acf5 80bd 5fb8 b6be
000000d0: b801 c3be 8821 233e 6afb 83bd 750c 883e
000000e0: 521b 9f3c 7e02 573d 9807 3cbd c913 a03c
000000f0: c978 18bd 2cad 373d 8d18 943d 1db6 9d3d
00000100: 7726 e93d c1e2 12be 56e6 28be 7066 36be
00000110: d0dc 14bd 390b 95bc 80bf ab3d 370e 09be
00000120: 9241 5dbe ca7c 563c 7f37 6bbd ea3c 80bc
00000130: c5ce 82bd adf3 f5bc f1d7 02be 67dc 143d
00000140: 2eb1 1cbe ed77 febd 6092 0f3e 4a81 17be
00000150: 2a9a bf3d 2691 463d aea3 85bd b58c 53be
00000160: ce39 ed3d 64ae 773d 1898 00bd b140 a4bd
00000170: 2e53 e2bb 8167 48bd 3a5b 7e3c 3ca3 513c
00000180: 58d2 083e 056b 753d fcf4 453d e787 4f3d
00000190: 35ff 483b 84f1 adbd b72d 60be 6450 3bbd
000001a0: cb5b 953e 0653 e9ba fdda 593d 8e72 cb3d
000001b0: caa7 28be 3608 85bd eaea 343c 126a 81bc
000001c0: c2ee 583e 3238 febd a358 f1bd 3515 1cbe
000001d0: 597f e4bd 09ba 85be a019 563a 38a6 b73c
000001e0: 3a9f 013e aeda 8d3d 5138 39bd fae7 39be
000001f0: e886 083d 9ab1 543d f655 df3c 568b ebbc
00000200: e787 1c3b 55f4 a3bd 4c89 0bbd 2863 3fbe
00000210: 0ac8 123e 5ee8 c9bd ee24 cc3d e77c 07bc
00000220: 984f b53d a38d 813d ef3b adbd b9a4 573e
00000230: fdc0 adbb ef5e 9fbc 5f68 203e eceb 30bd
00000240: c83d b9bd bba2 edbc 68a6 803d 2f2e 5bbd
00000250: f883 463c 5eee e03d 2720 28bd f6d3 77bd
00000260: e796 1bbe b363 77bd c14b 613e 2f78 afbd
00000270: 39c8 333e 34ba bcbd fe2e 5b3b 0d13 803c
00000280: 61a3 68bd b987 4b3c 063e 29be be6e 1d3d
00000290: d5fe 01be f76d 173b 8668 863a 5e0a afbc
000002a0: 8387 013d 6dfa 043d cb7b 0abd 3f2f a53d
000002b0: 8bd9 043d 1130 6f3e 6bc6 afbd 5da5 1e3c
000002c0: fe42 b1bd 7faf f3bb e157 31bd 000b 2dbd
000002d0: 52d5 8cbc cf4e cdbd ffec 84be fe4c d33c
000002e0: 3299 f0bd a03f a8bc 0384 2b3d c080 f1bd
000002f0: 63cf ddbc a401 fcbd 8ff1 18be 9290 233e
00000300: 5aaa 5cbe 8a52 35bd 799a 4d3d 7e05 a0be
00000310: 4916 443e 210c 0e3d e6b0 db3d 54b9 f83d
00000320: b068 1a3d 6a9d 1abe 6b86 e13d d4fe 823e
00000330: 12c6 2c3e 8431 e4bc 7e0a 613e aa09 b2bc
00000340: 24e7 b13d 66cc 7239 b488 743d 523e 333c
00000350: 66e8 4c3d 0e99 4cbd c62d e2bd fb0e 73be
00000360: fe7d ecbd 0446 4c3d d70b 83bd 73e8 cc3d
00000370: 0075 8fbd eaab a3be 2b07 87bd 2508 0bbb
00000380: e3fd 4abe f9d2 90bb a4bf 33be 2a5c 0a3d
00000390: c7f6 663d b674 90be 63f7 043e fe9a a63d
000003a0: 718c 003d 049f f0bc 0d94 b4bd 49fa b33d
000003b0: ee81 98bd fc78 6b3e 0162 a43d 5b0c a2bb
000003c0: f469 723e 4dfc 77bc b5d9 153e 0875 583d
000003d0: bcdd 933d ea6e 8cbe b3d8 ec3c 0256 f4bd
000003e0: 7b62 a1bd bb2d be3c cf64 9fbe fc55 993c
000003f0: 7871 043d 965e ccbe 7c0f cbbc 60ea f73c
0.03190099 0.16508658 -0.27741745 -0.07034495 -0.07101877 0.021941075 -0.4883476 0.053003673
-0.12185961 0.06261919 -0.018235791 -0.1362752 -0.102538176 -0.10522356 -0.013768748 0.05453442
-0.28211477 -0.043145943 0.013022053 0.01913164 -0.042064615 0.108326964 0.016121238 -0.21655658
0.035935886 -0.051159766 0.073060654 0.34705558 0.10542775 0.15236759 -0.06648381 0.03386671
0.08299926 0.04417155 -0.09015048 0.1694994 -0.06796222 0.23113728 -0.04376583 -0.27104998
0.28492555 0.13465711 0.25855047 0.11136977 0.059578437 -0.0072678304 0.09921177 -0.41274905
-0.023417158 -0.08894455 -0.06296858 -0.3568754 -0.3808725 0.1593076 -0.06444438 0.26572004
0.019422207 0.05249261 -0.04590568 0.019540684 -0.037224565 0.044842884 0.07231245 0.07700751
0.1138429 -0.14344312 -0.16494116 -0.17812514 -0.036343396 -0.018193828 0.08386135 -0.13384329
-0.21607044 0.0130912755 -0.057425972 -0.015654046 -0.063870944 -0.03002342 -0.12777688 0.036343005
-0.15301964 -0.12425218 0.14020681 -0.14795414 0.09355576 0.048478268 -0.0652536 -0.20659144
0.11583291 0.060469046 -0.031395048 -0.080201514 -0.0069068884 -0.048926834 0.01552468 0.012795266
0.1336149 0.059916515 0.04832934 0.050666716 0.0030669693 -0.08493331 -0.21892439 -0.045730963
0.29171595 -0.0017801232 0.05318736 0.09933959 -0.16470256 -0.06495707 0.011042336 -0.015797649
0.21184829 -0.12413062 -0.11784484 -0.15242465 -0.11157102 -0.26118496 0.00081672706 0.022418126
0.12658396 0.069264755 -0.045219723 -0.18154898 0.03333178 0.051927187 0.027262669 -0.028752964
0.0023884715 -0.08005587 -0.034066483 -0.18690169 0.14334121 -0.09858774 0.09967981 -0.008269525
0.08853072 0.06325843 -0.08458697 0.2105893 -0.005302547 -0.019454448 0.15664814 -0.043193743
-0.09044987 -0.02900826 0.062817395 -0.05351084 0.012116425 0.10982965 -0.041046288 -0.060504876
-0.15194283 -0.060397815 0.22001554 -0.08567845 0.17556848 -0.09215203 0.0033444758 0.015634084
-0.056796435 0.0124224955 -0.16527566 0.03843569 -0.12694867 0.0023106316 0.0010254539 -0.021367248
0.031623375 0.032465387 -0.033809464 0.08065652 0.032434028 0.2335818 -0.08582767 0.00968298
-0.08655356 -0.0074366922 -0.0432967 -0.04224682 -0.017191563 -0.10024797 -0.25962064 0.025793549
-0.1174797 -0.020538151 0.041873943 -0.11792135 -0.027076429 -0.123050004 -0.14935897 0.15973118
-0.21549359 -0.04426817 0.050196145 -0.3125419 0.19149126 0.034679536 0.107271 0.121447235
0.037697494 -0.15099111 0.11011966 0.25585043 0.16872433 -0.027855642 0.21976659 -0.021733124
0.08686665 0.00023155063 0.059700683 0.010940151 0.05002632 -0.04995065 -0.11043887 -0.23736183
-0.115474686 0.04987146 -0.06398743 0.10005274 -0.07004738 -0.31967098 -0.06593164 -0.0021214571
-0.19823413 -0.004419681 -0.17553574 0.0337793 0.05638769 -0.28214043 0.12984996 0.08135031
0.031383935 -0.0293727 -0.08817301 0.087879725 -0.07446657 0.2299537 0.08026505 -0.0049453205
0.2367323 -0.015135837 0.1463383 0.052845985 0.07220027 -0.2742837 0.028911924 -0.11930467
-0.07880112 0.023215165 -0.31131598 0.018717758 0.032334775 -0.39915913 -0.024787657 0.030263126

cell.gru.weight_hh f4 [192, 64]
00000000: d288 cabe 3e21 dc3e b92f a5be 9f87 d0be
00000010: 410f 6ebd a011 b53c f212 fe3e 0726 413e
00000020: 5536 163f c322 763e 81a6 eb3e 09d6 c53d
00000030: c2de 1abf f776 e9be 6a05 0cbf fa95 8dbd
00000040: aea6 7dbe a217 0d3f e9f3 a4be 8472 353e
00000050: bf9b f83e 59f3 90be b9bb 623e 721c 26bf
00000060: 69e3 2e3f ed96 edbe d617 8b3e 5c8e 593e
00000070: 34f9 883e d92e ed3d 19d7 823e 447e 1e3e
00000080: 2186 993e 50de 1e3f 1508 843e c92a 52bf
00000090: 9b3c 79bf 202e babe 972e 2c3e d6a5 b43d
000000a0: 7555 883e 2a23 34bc 5aa8 c63e f4a1 a9bb
000000b0: b608 743e 8071 f73c 871d ae3e 76e2 3abf
000000c0: 7da7 e0bd ff14 f5be 797f de3d f788 d9be
000000d0: f29f e53d 3c5f 19be 9618 f5be 9546 213d
000000e0: 6453 aa3d 0293 04bd 8d6d 28be 6362 ba3e
000000f0: ec2a dd3e 47d5 8c3e 31f2 57be 5af3 41be
00000100: 46d8 713c 6912 3d3f 2c71 cfbd 1ddd dabe
00000110: cfaa cd3d fd8b 403e 2932 423e 655d 98be
00000120: d43d a2be db13 f5bd 2d8d 493e 2cbc 013d
00000130: edc6 523e a9aa fbbd ffd3 4cbd 0509 11be
00000140: 9365 bd3c dcba 16be c43f 943c 3624 9abe
00000150: 8908 733e 3e1f 1d3d 9639 463d c19a 0cbe
00000160: 2ac3 b1bc 7038 06bf 29ed 103e 47cb ccbd
00000170: a828 50be 8cab 323f 96d2 e63d ce2e 65be
00000180: 7c0f d43d 6c78 89bc 3e83 3bbd 6800 11be
00000190: 18a1 f5bd b9e4 dcbe 7166 3b3f 22ff cebd
000001a0: f2f7 b93d ed24 763d 16fd 793e b5b6 1fbd
000001b0: 81d6 4f3e 21e0 dfbd 0ade 413e e70f b73d
000001c0: 8412 5d3d 0661 e1be d1d9 073e a8a3 91bd
000001d0: 583f 14bd 30fb 273d 9f44 bcbd 89b4 c23d
000001e0: 658b 28be a3e2 893c 934e 9bbd 6122 233d
000001f0: dbb5 253e 4b06 423d 96bd 8ebe 7ed6 24bd
00000200: e3ab bbbe 53b1 e3be a23d d8bc 7428 103f
00000210: c823 c33d 790e a83d be96 38bf 827e b33d
00000220: db23 53be c904 4cbe 74f4 2bbe 30cb 27be
00000230: d222 d23e b00f a13e b7ce 063f 57c1 483e
00000240: bbe9 90be 47c7 dfbe 4da7 cf3e 75b0 a6be
00000250: 82e0 ef3d 1642 09bf 3931 43be a58b 043f
00000260: 1761 88be 2a02 21bc 4c25 193f 586a 09bf
00000270: 78ce ebbe a8e1 c9be f757 52be 9283 7abe
00000280: 8a2c 7ebd c270 563e d299 083d 1f8f d3be
00000290: 1b59 fdbe 21a3 4bbe ffc0 b4bd 06c7 e4bb
000002a0: 3ae0 013f dc86 ddbd 7a1d 68bd f4d1 733e
000002b0: 21d6 76bd 5373 46be bf53 37be 56b1 5dbd
000002c0: 3411 853e fbbc 673f 4f3b ed3e 7227 543f
000002d0: 833d 64be 9de7 cc3b 947d 1b3e 61ff babd
000002e0: 8f4b 2dbc 379b 45bd 2dc2 133e 3755 89bd
000002f0: fb53 73bd caea f7be 27c5 63be 1867 3f3e
00000300: 9ecf b3ba 89b1 0b3d e92a 24be 7ae3 da3d
00000310: 2fbc 0fbd 937f 0cbf ef57 80be 6a7d d13d
00000320: 997b dfbd 96e9 b03c 5aaf 873e bde7 393e
00000330: 71ab c7bd 692d 28bd df66 113d 8f3c d53e
00000340: 6ca9 103d 7c46 813e 870e 08be 3008 e1bd
00000350: 7c64 713d 6aa1 cd3e 6538 c33d 88ad 8a3d
00000360: ade5 df3d 50c7 15be 792d dd3e 50b4 15be
00000370: 20de 99be 7ece f1bd 68d5 06bf 3de5 c2be
00000380: 9b5f d03d 0840 193f e2a1 ca3d a7c1 cbbe
00000390: f288 2abe 5d58 543e da00 d93d c0a7 b5bd
000003a0: 2525 493e 1fa9 1ebe 6e0b 633e bd27 c7bd
000003b0: f0dd 06be 9e25 783e 788a 793d 4106 cb3e
000003c0: d7d0 c0bd 481c 0dbe 5514 f93e 0235 1d3e
000003d0: 6e3a db3d 2cf2 e03c b974 bebd 9113 713e
000003e0: 856e 15be 0445 623d 2dd0 7dbe c31c d83e
000003f0: 3fae 523d abb8 82be 69d2 adbe 3a65 59be
-0.3955751 0.42994112 -0.32262972 -0.4072847 -0.058120016 0.02210313 0.4962383 0.18862163
0.58676654 0.24036698 0.4602547 0.096599646 -0.6049615 -0.45598575 -0.5469576 -0.069133714
-0.24770615 0.55114186 -0.3221734 0.17719465 0.48556325 -0.2831066 0.22141923 -0.64887154
0.6831575 -0.4640421 0.27166623 0.21245712 0.26752627 0.11581201 0.2555473 0.15477854
0.29985145 0.6205797 0.25787416 -0.82096535 -0.973581 -0.36363316 0.16814648 0.08820693
0.266277 -0.010994712 0.38800317 -0.005176777 0.23831448 0.030205488 0.34006903 -0.730018
-0.10969446 -0.4786758 0.10864157 -0.42487308 0.11212148 -0.14977735 -0.4787032 0.039373953
0.08316687 -0.03236676 -0.1644804 0.36403188 0.4319681 0.27506468 -0.21088482 -0.18940488
0.014761036 0.73856217 -0.10129008 -0.4274682 0.10042345 0.18803401 0.18964447 -0.29758754
-0.31687796 -0.11966678 0.1968276 0.031673595 0.20583697 -0.1228841 -0.050006863 -0.14163597
0.023119723 -0.14719719 0.018096812 -0.30105752 0.23733725 0.038359873 0.048394762 -0.13730909
-0.021699507 -0.52429867 0.1415297 -0.099997096 -0.20328009 0.6979301 0.11270635 -0.22381136
0.10354516 -0.016781054 -0.04577946 -0.14160311 -0.11993617 -0.43143252 0.7320319 -0.101072565
0.09080495 0.06009381 0.24412951 -0.038992602 0.2029667 -0.10931421 0.18932357 0.0893858
0.053972736 -0.44019336 0.13266684 -0.07111293 -0.03619322 0.041011035 -0.09192776 0.095070906
-0.16459425 0.016831702 -0.07583346 0.03982771 0.16182654 0.047369283 -0.27879018 -0.04024362
-0.36654577 -0.44471225 -0.026396576 0.56311727 0.09528309 0.082058854 -0.72105014 0.08764364
-0.20619147 -0.199237 -0.1679247 -0.16386104 0.4104219 0.3145728 0.5265917 0.19605003
-0.28303322 -0.43706724 0.40557328 -0.325565 0.11712743 -0.53616464 -0.19061746 0.5177558
-0.26636574 -0.009827176 0.59822536 -0.5367789 -0.4605596 -0.39429975 -0.20541368 -0.24464253
-0.062054195 0.20941451 0.03334982 -0.4132013 -0.49482045 -0.19886447 -0.088258736 -0.0069817333
0.5073277 -0.10816738 -0.056668736 0.2381056 -0.060262803 -0.1937993 -0.1790304 -0.0541242
0.25989687 0.90522736 0.4633431 0.8287269 -0.2228909 0.0062531964 0.15184623 -0.09130741
-0.010577097 -0.048243728 0.14429541 -0.067057066 -0.059406262 -0.48421317 -0.22243176 0.18691671
-0.0013718491 0.034104858 -0.16031994 0.10687919 -0.035091575 -0.5488216 -0.25067088 0.10228999
-0.10912246 0.021595757 0.2650097 0.18154807 -0.09749497 -0.04105893 0.035498496 0.41647765
0.035317823 0.25249088 -0.13286792 -0.1098789 0.05893372 0.40162212 0.09532241 0.0677138
0.10932479 -0.14626813 0.43198755 -0.14619565 -0.3005228 -0.118069634 -0.5266938 -0.3806552
0.10174485 0.5986333 0.09894158 -0.39796183 -0.16653803 0.20736833 0.105958655 -0.088698864
0.19643076 -0.15494202 0.22172329 -0.09724376 -0.131706 0.242331 0.06092307 0.3965321
-0.09414833 -0.1378032 0.48648325 0.15352252 0.10704504 0.027459227 -0.09299607 0.2354262
-0.14592941 0.0552416 -0.24786444 0.42209443 0.051435705 -0.25531515 -0.33949593 -0.21230021

cell.gru.bias_ih f4 [192]
00000000: 608e c6bd c2aa 1b3e 8b67 803e 09c6 2abf
00000010: 9340 18bf 4f65 d63e bd68 9ebe 5091 b23c
00000020: 2f87 3bbf a1d9 023e 0419 ea3a 7566 7abe
00000030: e094 e63d 0957 bd3d 995e 7bbe 6983 143f
00000040: 2151 703e c952 693d 01db 04bf 2fed 4b3e
00000050: 267e 3dbe 4c37 62bd 48ed 243e 433d edbe
00000060: d3ce 20be 1590 5cbe 3f09 0ebb 7b64 fc3d
00000070: a32b 8d3e 66d2 5e3e ab08 36be 0cc1 6fbe
00000080: e09e 003e 2eae 8dbd 0fcb 183e c0f7 e2be
00000090: baab 54be bc6b 99bd e0f8 9c3e 6bcf 643c
000000a0: d1cc 5c3e f913 993e 9a3b cdbd f72f eabb
000000b0: 4454 2e3e 6fe0 efbd 8c0a 313e f5b9 043f
000000c0: 0563 86be ca50 85be 1fda 81be d298 063e
000000d0: fc76 303e cd11 0a3e 8542 c0bd baa8 f9bd
000000e0: ef53 7ebd 610a 08bf c5e0 653e d3f9 f2bd
000000f0: 3090 d3be fca0 acbe 6ffc d3be 4fba 08be
00000100: a881 72bd af44 973e 4c32 ba3d 9445 d23a
00000110: 4297 06bc e831 1bbf 5d34 a2bd ffae 663d
00000120: b1c4 27bb c9b0 313e a3f8 f8bd f0ce b13d
00000130: 8d11 0bbd 40e0 4e3e cbef 2c3e 6257 143f
00000140: fecf 23be 4137 c93e 229f 47bd 8f85 643e
00000150: 6181 d63e 0f4f 643c 9a87 57bd ff0a 543e
00000160: 3153 583e 4c4b 28bd 9b75 86be 06a2 ba3e
00000170: 72c4 923e 4162 163d 10a8 a23d 58ed 40be
00000180: 858d c23e 1990 a6be da61 493e c0f5 debe
00000190: f093 37be 277e efbd 86c5 3a3e 3c5a 123e
000001a0: 1eb2 17bd d8c5 b83e 6cf4 213e 0b34 133e
000001b0: 0371 c63d c5fc b1bd a4b1 7d3e 3768 523e
000001c0: fa3d 4ebe 3a2a b9bd 3e59 25bd 511c 463e
000001d0: 5187 eabd 9c90 4e3e 3d44 ff3c 35ee b8bc
000001e0: 488d 823d 29bb abbe 8e99 e4bc 4cae 493e
000001f0: 093a 533d cbe6 673d 42e5 3c3d 9b65 7a3e
00000200: 44cb c03d 08f9 02be 0782 e43d c197 76bd
00000210: 0c80 54bd eddb 2c3e 6b84 edbd 5cac a2bd
00000220: 220d 2dbe 61ab 0c3d 53df 17bd e8d3 b53d
00000230: 2a79 0c3e 7751 6e3d 4010 fb3d 716d db3d
00000240: 3224 873e 4fdc 60be 6773 d43d 7590 bebd
00000250: dfa5 c63c 60d1 893d f2fe 85bd 58b3 1d3d
00000260: 50c2 fd3b 3d0a a43d 28c9 c03d e731 89bd
00000270: 2e5d 16be a189 79bd 47d1 16be ae8b 0cbc
00000280: 8357 a2bd 15e9 4bbe 634a d23c c1ae dd3b
00000290: d391 753c 1303 af3b 2bf6 ccbd f6f4 053e
000002a0: a40a 5a3c fda7 98bd d5f7 05bd c843 503b
000002b0: cd0c 723d 23ef b3bd 6a8a a0bd cda1 56bd
000002c0: 4843 063c 8c75 3c3e 8b43 54be ad77 163e
000002d0: d4e9 8bbc 2967 193e dd9c 163e ed67 643c
000002e0: a85d f4bd f026 b6bd 7362 ba3d 25dc 333e
000002f0: 0c17 163d a27a bb3d 7e0a a9bd eff7 673d
-0.096951246 0.15201858 0.25078997 -0.6670843 -0.5947353 0.41874167 -0.30939284 0.021797806
-0.7325315 0.12778331 0.0017860238 -0.24453147 0.112588644 0.09245116 -0.24547805 0.58013016
0.23468448 0.056963716 -0.51896673 0.19914697 -0.18505153 -0.055228516 0.1610614 -0.463358
-0.15703897 -0.21539338 -0.0021672992 0.12323853 0.27572355 0.21759948 -0.17776744 -0.23413485
0.12560606 -0.06917988 0.1492121 -0.44329643 -0.20768633 -0.07491252 0.30658627 0.013965468
0.21562506 0.2989805 -0.10021134 -0.007146831 0.17024332 -0.11712729 0.1728918 0.5184625
-0.2624742 -0.260382 -0.25361726 0.13144234 0.17232889 0.13483353 -0.093876876 -0.12190385
-0.062091764 -0.53140837 0.22449024 -0.118640564 -0.41320944 -0.3371657 -0.4140353 -0.13352321
-0.05920568 0.2954459 0.090916246 0.0016042464 -0.008214774 -0.60623026 -0.07920144 0.056319233
-0.0025599415 0.17352594 -0.12156799 0.08682048 -0.033952285 0.20202732 0.16888349 0.57945836
-0.15997311 0.39299968 -0.048735745 0.22316574 0.41895583 0.013934865 -0.052619554 0.2070732
0.21125485 -0.041087434 -0.262616 0.3645174 0.286655 0.036714796 0.07942212 -0.1884054
0.37998596 -0.32531813 0.19666234 -0.43546867 -0.17927527 -0.116939835 0.18239412 0.14292234
-0.0370351 0.36088443 0.15815896 0.14375322 0.09689524 -0.0869079 0.24774796 0.20547567
-0.2014083 -0.09041257 -0.04036831 0.1934674 -0.11451591 0.20172352 0.031160468 -0.022574523
0.063746035 -0.3354123 -0.027905252 0.19695395 0.05156902 0.056616586 0.046117075 0.24452822
0.0941377 -0.1279031 0.11157613 -0.060203318 -0.051879928 0.1688077 -0.11597522 -0.07943031
-0.16899541 0.034343127 -0.037078213 0.088783085 0.13718095 0.05818316 0.12258959 0.10714234
0.26394802 -0.21959041 0.10373574 -0.09304897 0.024249015 0.06729388 -0.065427676 0.038501114
0.007744111 0.08009765 0.094133675 -0.06698971 -0.14683983 -0.06092227 -0.1472827 -0.008578224
-0.07926848 -0.19913132 0.025670236 0.006765217 0.0149883805 0.0053409426 -0.1000789 0.13081726
0.013308201 -0.07453916 -0.032707054 0.0031778682 0.05909424 -0.08785846 -0.078389004 -0.0524004
0.008194752 0.18404216 -0.2072889 0.1469409 -0.017079271 0.14980759 0.14708276 0.013940793
-0.11931926 -0.088941455 0.09100809 0.17564447 0.036643073 0.0915425 -0.08253954 0.056632932

cell.gru.bias_hh f4 [192]
00000000: f1bb 5cbe f737 ea3d 2508 943e 51d5 15bf
00000010: 6dd5 16bf 0a2b 023f 6cb0 cebe 91c7 04bd
00000020: a319 2dbf d316 713d 1a35 2abe 1f8b 88be
00000030: 7b06 1d3e 3494 063e af65 03be af0b f43e
00000040: 7806 463e 80fc cf3d b1c5 bebe 7c2a a13d
00000050: dd6d 61be 7e1d 84bd 13c4 8d3d d24e 0ebf
00000060: 6c63 e3bc 0113 49be 03f7 5f3d b90e 8b3d
00000070: dd0f da3e 6ece a43e e0f5 4ebd 097a 51be
00000080: 4e15 8ebd afb9 70be 0857 28bd 3b0b c8be
00000090: 9e67 77be 9fd0 4cbe 7e0f b23d 55df 69bd
000000a0: 4913 1c3e 9d3b 963e c060 d4bd b12d 033e
000000b0: 389a 9e3e 7111 55be 8eca 2f3d ad36 d73e
000000c0: 8af6 d2be e44d afbe 45f7 a9be dd19 973d
000000d0: 331e 693d 02b1 773e e750 3cbe 6854 23be
000000e0: ba91 a13d 2d80 0abf c861 4b3d 34e4 5cbe
000000f0: 70ce a1be a7de a8be 2875 a3be 333a 8cbe
00000100: 1fc5 8bbe 58ee 9b3e 8d54 053e 3c9f d9bd
00000110: 3e13 853d b7de c5be 3f87 ac3d 033b ce3d
00000120: 575a bb3d ef2c 993e 30b7 d43d ff4f 973e
00000130: 68e1 5b3d 0631 913e 8f7d 903e d7cc 053f
00000140: a46b fcbc 324b b53e b52c b6bd 914c af3d
00000150: 3b88 b93e f153 293e e70a 163e 1351 893e
00000160: 0b8b a53e 9c61 e8bd 672e eabd 37ea fc3e
00000170: 1f19 b03e f3f2 fcbd 60a6 8bbc b070 d0bc
00000180: 0579 d63e 06b4 45be 31c2 2a3e 6738 64be
00000190: ee0e 77bd d2c8 bdbd 6ef7 e3bc aa96 473d
000001a0: 0e8f 45be 0b3b ba3e d26f 873d ef46 ab3e
000001b0: 1a11 333e 883c a1bd 98d7 723d b78b 883e
000001c0: d3a4 38be d841 843c cbf1 87bd 9374 6c3e
000001d0: 523e 56be f5f5 d73e c609 7d3d 41c8 b2bc
000001e0: 4e53 ac3d caa8 80be bc00 e6bc a885 d43b
000001f0: 35cb f63c 3cb3 3fbd c933 8e3c 4744 623e
00000200: 701f 973e f396 883d c253 6cbd a842 743d
00000210: 5bb9 97bc e312 d13e 8e88 5d3e 095b c6bd
00000220: 8a7d 343f 459d 00be 9f85 463d c2ff c0be
00000230: cf2b 81be 9323 483d ad96 63be b355 27be
00000240: 4b54 893e a483 58bd 4e10 06bf f9cc 233e
00000250: 130e 76be 30ef 9abe add4 073d d582 14bd
00000260: 5ab4 f93d 2681 c53e f328 11be d332 2f3d
00000270: 8c96 ec3d eb80 a2bd b0bf 5e3e 1da9 a73b
00000280: 35c2 7a3c b42c 01bf 8fff 3cbe 7ab5 a53e
00000290: 5c28 6e3d 7d37 a13d d64b 3dbe 71ae bbbe
000002a0: 2b9e ecbd e287 983d d289 9b3d 331f 9c3d
000002b0: 032b dfbd 7f88 d83d 97b8 6bbd 5313 dbbc
000002c0: 24b9 bcbd 328a 04be 53a8 e43e e9e4 32be
000002d0: 91dd 76bd d021 44bd 01e8 1f3e 1dee e8bd
000002e0: 53f5 063e 3eac 3c3e 7e32 d63d da94 2b3d
000002f0: 1ce8 72bd 5f12 043d acfb 983d ce8c 69bd
-0.21556069 0.11436456 0.28912464 -0.5852862 -0.5891941 0.5084692 -0.40368974 -0.032416884
-0.67617244 0.058859657 -0.16621819 -0.2666864 0.15334503 0.13142473 -0.12831758 0.47665164
0.19338405 0.101555824 -0.37260202 0.078694314 -0.22014566 -0.06450938 0.06922164 -0.5558902
-0.027757369 -0.19636156 0.054678928 0.067899175 0.42590228 0.32188743 -0.050527453 -0.20456709
-0.06937657 -0.23508333 -0.041098624 -0.39071068 -0.2416062 -0.20001458 0.08694361 -0.05709775
0.15241732 0.29342356 -0.10370016 0.12810399 0.30977035 -0.20807435 0.04291778 0.42033902
-0.4120372 -0.34239113 -0.33196464 0.0737798 0.056913566 0.24188617 -0.18390237 -0.15950167
0.07889123 -0.5410183 0.0496538 -0.21571428 -0.31602812 -0.3298237 -0.3192532 -0.27388152
-0.2729883 0.3045528 0.13020535 -0.10626075 0.06497811 -0.3864648 0.08424234 0.10069849
0.0914809 0.29917094 0.10386503 0.2955322 0.05368176 0.28357714 0.28220794 0.52265686
-0.030813046 0.35408932 -0.08895246 0.08559526 0.36236748 0.16535927 0.14652596 0.26819667
0.32332644 -0.113467425 -0.11434632 0.49397442 0.34394166 -0.123510264 -0.017047107 -0.025444359
0.41889206 -0.19306955 0.1667564 -0.22287141 -0.060316972 -0.09266819 -0.027827945 0.04872767
-0.19292852 0.3637317 0.06613125 0.33452556 0.17486992 -0.078728735 0.059287637 0.26669094
-0.18031625 0.016144678 -0.06637915 0.23091345 -0.20922211 0.42179838 0.0617769 -0.021824004
0.084143266 -0.25128776 -0.028076522 0.0064856596 0.030126194 -0.04680179 0.017358677 0.22096358
0.29516172 0.06669416 -0.057697065 0.05963388 -0.018521002 0.40834722 0.21634123 -0.09685332
0.7050406 -0.12559994 0.048467275 -0.37695128 -0.25228736 0.04886205 -0.22225447 -0.16341285
0.26822123 -0.052859917 -0.5236863 0.1599616 -0.24028806 -0.3026061 0.033161808 -0.036257584
0.121926025 0.38575095 -0.14175777 0.04277308 0.11552152 -0.079347454 0.2175281 0.0051165954
0.015305092 -0.50458837 -0.18456863 0.32365018 0.05814396 0.07871912 -0.1848596 -0.36656526
-0.11553606 0.074477926 0.075946465 0.07623138 -0.10896876 0.105729096 -0.057549085 -0.026742613
-0.09215 -0.12943342 0.4465967 -0.17470135 -0.060269896 -0.04788381 0.15615846 -0.113735415
0.13179521 0.1842508 0.10458849 0.041890003 -0.059303388 0.032244083 0.074698776 -0.057019047

fc_out.weight f4 [4, 64]
00000000: 390b d33d f550 94bd 2576 2dbe d699 d9be
00000010: 7349 b5be 594c 903c 1df3 883e 7294 cfbd
00000020: 07fe 06be 2a68 d6bd 7c2b cb3d f4ed 5dbe
00000030: 180a 8dbe 2d82 46be e57e d6be 30d8 2fbf
00000040: d962 703e d8b9 9fbd 6aac 923e 250b ea3d
00000050: 890a 9d3e ad17 47be 75aa 7bbd e8c3 bcbe
00000060: 7e5f 113d c045 01bd e425 8d3d 0d2c f23e
00000070: c436 ba3e b0e8 8e3d 3ded 883e 13a6 b0bd
00000080: 48bf 8f3e 2e98 b8bc d6d4 06be 0d4f d3bd
00000090: 0f88 7bbe 7a4d c3bd fa50 6dbc ea27 75be
000000a0: 3df0 d3bd 41e3 fc3e b2fb 383e 38a8 48be
000000b0: 67f6 2fbe 11c0 fb3d 88a5 003e 71da da3d
000000c0: 7c5b 02be 1c36 bcbd c00b c1bd 839c 7cbe
000000d0: c542 ac3d c1ec 98be 6cbd b7bd 40f5 dd3d
000000e0: de27 f8bd 0cc0 6fbe b91d d6bd 9a18 24bd
000000f0: e912 813e 21d5 303e aebc 8ebd 73aa 40be
00000100: 2837 df3d 90c0 79bd 3908 11be 794a b7be
00000110: 5036 96be d5af a53c 910e 7f3e f933 03be
00000120: 1779 48be a4a2 c7bd dd9b ec3d 6d03 54be
00000130: 171d 5ebe 2858 2fbe c48b babe 1375 15bf
00000140: 805f 5f3e 31ca 7abd daab 993e 4169 cf3d
00000150: d499 b73e 76fa 38be 6329 c0bd a905 a6be
00000160: 2c0e c03b ec32 9fbc 2588 473d 32c7 e43e
00000170: c5e5 a23e 605b 883d bfec 803e 6422 06be
00000180: cedd 8e3e 5636 fcbc 6757 1dbe 5ae8 e4bd
00000190: 39ce 7cbe b6c7 acbd 5825 96bc 3811 54be
000001a0: b352 b1bd b644 f53e 0804 0a3e 6314 55be
000001b0: 4a9a 49be 107a f13d 9a56 f73d 27dc 103e
000001c0: 5abd eabd f2de d5bd 6c30 adbd 07aa 4cbe
000001d0: f3e7 c63d 596d 82be 5449 a9bd 8e5d f83d
000001e0: 1cb5 bdbd e391 6abe 8a07 cebd e239 cfbc
000001f0: e63c 7d3e e271 103e a504 c2bd 3bc5 44be
00000200: a942 e53d 5ee1 63bd b6df f3bd 3ec6 98be
00000210: 9f54 79be cc27 b73c 1b8a 6d3e 6f82 21be
00000220: ff98 6fbe 9c3d babd 1f9c 033e 6cfe 41be
00000230: f2fd 2abe 0575 17be 7eac 9bbe 168f f1be
00000240: 2740 4e3e f150 4dbd b9ec 9e3e 60c1 c53d
00000250: 04f8 c93e 7f98 36be 84ac 00be ff95 91be
00000260: 1b0c d1bc f2e3 87bc 73fe 2b3d b77d d33e
00000270: 528a 8f3e 16c7 813d 8dae 773e 7b7f 27be
00000280: 4752 933e 59f1 1abd f85d 32be 5fc7 e8bd
00000290: e3e2 7dbe 8689 a8bd 474b dbbc 7921 38be
000002a0: 2820 87bd 6edc e63e 0387 b73d 7cf9 5dbe
000002b0: f9c9 59be 8749 e73d eb24 f53d 6a20 313e
000002c0: c785 d9bd 57ac ecbd 96d9 9fbd 68c2 1fbe
000002d0: 536f dc3d 5bf1 5abe 7c6a b7bd 5303 0b3e
000002e0: daa2 8cbd aec0 5bbe 0bdd cbbd 689d 5ebc
000002f0: 6f07 773e 51aa ef3d 0f32 ecbd 92d9 3abe
00000300: fb54 e23d 37b9 40bd 7613 d3bd de46 81be
00000310: 23ab 4bbe b044 ce3c 7c34 633e 257b 40be
00000320: 9d28 82be c5c0 a8bd 6a83 0f3e a0af 2bbe
00000330: b87f 01be 2765 00be 7473 7bbe 6f8c bcbe
00000340: fded 3c3e eebc 02bd 4b4b a13e bbfc ca3d
00000350: 0f4e d73e c883 34be 27cc 1ebe 171f 7fbe
00000360: 061b 51bd 4e71 49bc 9507 083d c940 c43e
00000370: 8b51 7e3e acdf 7a3d b66f 713e ce9a 43be
00000380: 60ae 9a3e 018d 36bd e3c9 41be 3ea6 edbd
00000390: 02d2 7bbe 4783 aebd b4d8 0dbd e98f 19be
000003a0: 87ec 57bd 47c7 d73e 8e2b 453d 3a77 65be
000003b0: 22c2 64be c965 e13d 024f f63d 0571 503e
000003c0: f81a d0bd 10c6 02be 7844 a9bd 6d8b f2bd
000003d0: 9fc3 ef3d 3234 34be 0e6a d0bd be00 1c3e
000003e0: 96b9 2fbd f8e6 48be 25d1 d1bd 0ac0 1dbb
000003f0: 695f 6f3e 911d d13d dcdb 09be c581 2ebe
0.10304875 -0.07242004 -0.169396 -0.4250018 -0.354076 0.01761453 0.2674798 -0.101357356
-0.13182841 -0.104690865 0.09920403 -0.21672803 -0.27546763 -0.19385596 -0.41893688 -0.6868925
0.23475207 -0.07799119 0.28647166 0.11427907 0.306721 -0.19442625 -0.061441857 -0.36868215
0.03549146 -0.03156066 0.06891993 0.47299233 0.36369908 0.06977975 0.26743498 -0.08625426
0.28075624 -0.022533502 -0.13167128 -0.10317812 -0.24563621 -0.09536262 -0.014484638 -0.23941007
-0.10348556 0.4939213 0.18064764 -0.1959542 -0.17183839 0.12292493 0.12563145 0.10686196
-0.12730211 -0.09190008 -0.09426069 -0.2466908 0.08411173 -0.2986813 -0.08971676 0.10837793
-0.12116979 -0.23413104 -0.10454888 -0.040062524 0.2520974 0.17268802 -0.069695815 -0.18815021
0.10899192 -0.060974658 -0.14163293 -0.35799006 -0.29338312 0.020225445 0.249079 -0.12812795
-0.19577442 -0.09747818 0.11553166 -0.20704432 -0.21690784 -0.17123473 -0.36434758 -0.58381766
0.21813774 -0.06122798 0.30013925 0.101274975 0.3585955 -0.18064293 -0.09382894 -0.32426193
0.0058610644 -0.019433461 0.048713822 0.44683224 0.31815925 0.066580534 0.25180623 -0.13099056
0.279036 -0.030787628 -0.15365373 -0.1117713 -0.24688043 -0.08436529 -0.018328354 -0.20709693
-0.08658352 0.47903985 0.134781 -0.20808558 -0.19687763 0.1179086 0.12077065 0.14146481
-0.11461897 -0.10442914 -0.08456501 -0.19986735 0.097122096 -0.2547405 -0.08265939 0.12127219
-0.092630595 -0.22907214 -0.10060032 -0.025296155 0.24730262 0.14105943 -0.09473542 -0.19215862
0.11194355 -0.05563485 -0.11907904 -0.29838747 -0.24348687 0.022357844 0.23197214 -0.15772413
-0.23398207 -0.09093782 0.12852524 -0.1894471 -0.16698435 -0.14790733 -0.3040504 -0.47179478
0.2014166 -0.05012602 0.3103998 0.09656024 0.39447033 -0.1783161 -0.1256581 -0.2843475
-0.025518468 -0.016588185 0.04199071 0.4130685 0.28035218 0.06336801 0.2418768 -0.16357224
0.2877371 -0.037827823 -0.17418659 -0.11366152 -0.24793582 -0.082293555 -0.026769293 -0.17981519
-0.0659793 0.4509005 0.08961298 -0.21677202 -0.21268453 0.11293321 0.11969932 0.17297521
-0.10621219 -0.11556309 -0.07805173 -0.15601504 0.10763421 -0.21381132 -0.08955857 0.13575487
-0.06866999 -0.2146022 -0.0995427 -0.013587333 0.2412393 0.11702407 -0.115329854 -0.18247059
0.11051365 -0.047051635 -0.10306446 -0.2524938 -0.19889502 0.025179237 0.2218799 -0.18796976
-0.2542161 -0.08239893 0.14014974 -0.16766214 -0.12646377 -0.12538587 -0.2455576 -0.36825892
0.1845016 -0.03191846 0.31502756 0.09911486 0.4205174 -0.17628396 -0.15507565 -0.24914204
-0.051051162 -0.01229508 0.033210356 0.38330677 0.24835794 0.061248466 0.2357777 -0.19102022
0.30211163 -0.044568066 -0.1892467 -0.11603974 -0.2459183 -0.08521133 -0.034630492 -0.14996304
-0.052715804 0.42144224 0.04813724 -0.22408763 -0.22339681 0.11005742 0.12026788 0.20355614
-0.10161394 -0.12770867 -0.082650125 -0.118429996 0.11707234 -0.17598036 -0.10176478 0.15234658
-0.042901598 -0.19619358 -0.10244969 -0.0024070763 0.2337624 0.102107175 -0.13462776 -0.1704169

fc_out.bias f4 [4]
00000000: 8ed9 c23c a1b9 ce3c 1952 dc3c 29f3 e83c
0.023785379 0.025235 0.026894616 0.02843626
