data/PEMS-BAY/dcrnn_325nodes_best.pth (torch, 543605 bytes, 7 tensors)

adj f4 [325, 325]
00000000: 0000 803f 0000 0000 0000 0000 0000 0000
00000010: 0000 0000 0000 0000 0000 0000 0000 0000
00000020: 0000 0000 0000 0000 0000 0000 0000 0000
00000030: 0000 0000 0000 0000 0000 0000 0000 0000
00000040: 0000 0000 0000 0000 0000 0000 0000 0000
00000050: 0000 0000 0000 0000 0000 0000 0000 0000
00000060: 0000 0000 0000 0000 0000 0000 0000 0000
00000070: 0000 0000 0000 0000 0000 0000 0000 0000
00000080: 0000 0000 0000 0000 0000 0000 0000 0000
00000090: 0000 0000 0000 0000 0000 0000 0000 0000
000000a0: 0000 0000 0000 0000 0000 0000 0000 0000
000000b0: 0000 0000 0000 0000 0000 0000 0000 0000
000000c0: 0000 0000 0000 0000 0000 0000 0000 0000
000000d0: 0000 0000 0000 0000 0000 0000 0000 0000
000000e0: 0000 0000 0000 0000 0000 0000 0000 0000
000000f0: 0000 0000 0000 0000 0000 0000 0000 0000
00000100: 0000 0000 0000 0000 0000 0000 0000 0000
00000110: 0000 0000 0000 0000 0000 0000 0000 0000
00000120: 0000 0000 0000 0000 0000 0000 0000 0000
00000130: 0000 0000 0000 0000 0000 0000 0000 0000
00000140: 0000 0000 0000 0000 0000 0000 0000 0000
00000150: 0000 0000 0000 0000 0000 0000 0000 0000
00000160: 0000 0000 0000 0000 0000 0000 0000 0000
00000170: 0000 0000 0000 0000 0000 0000 0000 0000
00000180: 0000 0000 0000 0000 0000 0000 0000 0000
00000190: 0000 0000 0000 0000 0000 0000 0000 0000
000001a0: 0000 0000 0000 0000 0000 0000 0000 0000
000001b0: 0000 0000 0000 0000 0000 0000 0000 0000
000001c0: 0000 0000 0000 0000 0000 0000 0000 0000
000001d0: 0000 0000 0000 0000 0000 0000 0000 0000
000001e0: 0000 0000 0000 0000 0000 0000 0000 0000
000001f0: 0000 0000 0000 0000 0000 0000 0000 0000
00000200: 0000 0000 0000 0000 0000 0000 0000 0000
00000210: 0000 0000 0000 0000 0000 0000 0000 0000
00000220: 0000 0000 0000 0000 0000 0000 0000 0000
00000230: 0000 0000 0000 0000 0000 0000 0000 0000
00000240: 0000 0000 0000 0000 0000 0000 0000 0000
00000250: 0000 0000 0000 0000 0000 0000 0000 0000
00000260: 0000 0000 0000 0000 0000 0000 0000 0000
00000270: 0000 0000 0000 0000 0000 0000 0000 0000
00000280: 0000 0000 0000 0000 0000 0000 0000 0000
00000290: 0000 0000 0000 0000 0000 0000 0000 0000
000002a0: 0000 0000 0000 0000 0000 0000 0000 0000
000002b0: 0000 0000 0000 0000 0000 0000 0000 0000
000002c0: 0000 0000 0000 0000 0000 0000 0000 0000
000002d0: 0000 0000 0000 0000 0000 0000 0000 0000
000002e0: 0000 0000 0000 0000 0000 0000 0000 0000
000002f0: 0000 0000 0000 0000 0000 0000 0000 0000
00000300: 0000 0000 0000 0000 0000 0000 0000 0000
00000310: 0000 0000 0000 0000 0000 0000 0000 0000
00000320: 0000 0000 0000 0000 0000 0000 0000 0000
00000330: 0000 0000 0000 0000 0000 0000 0000 0000
00000340: 0000 0000 0000 0000 0000 0000 0000 0000
00000350: 0000 0000 0000 0000 0000 0000 0000 0000
00000360: 0000 0000 0000 0000 0000 0000 0000 0000
00000370: 0000 0000 0000 0000 0000 0000 0000 0000
00000380: 0000 0000 0000 0000 0000 0000 0000 0000
00000390: 0000 0000 0000 0000 0000 0000 0000 0000
000003a0: 0000 0000 0000 0000 0000 0000 0000 0000
000003b0: 0000 0000 0000 0000 0000 0000 0000 0000
000003c0: 0000 0000 0000 0000 0000 0000 0000 0000
000003d0: 0000 0000 0000 0000 0000 0000 0000 0000
000003e0: 0000 0000 0000 0000 0000 0000 0000 0000
000003f0: 0000 0000 0000 0000 0000 0000 0000 0000
1.0 0.0 0.0 0.0 0.0 0.0 0.0 0.0
0.0 0.0 0.0 0.0 0.0 0.0 0.0 0.0
0.0 0.0 0.0 0.0 0.0 0.0 0.0 0.0
0.0 0.0 0.0 0.0 0.0 0.0 0.0 0.0
0.0 0.0 0.0 0.0 0.0 0.0 0.0 0.0
0.0 0.0 0.0 0.0 0.0 0.0 0.0 0.0
0.0 0.0 0.0 0.0 0.0 0.0 0.0 0.0
0.0 0.0 0.0 0.0 0.0 0.0 0.0 0.0
0.0 0.0 0.0 0.0 0.0 0.0 0.0 0.0
0.0 0.0 0.0 0.0 0.0 0.0 0.0 0.0
0.0 0.0 0.0 0.0 0.0 0.0 0.0 0.0
0.0 0.0 0.0 0.0 0.0 0.0 0.0 0.0
0.0 0.0 0.0 0.0 0.0 0.0 0.0 0.0
0.0 0.0 0.0 0.0 0.0 0.0 0.0 0.0
0.0 0.0 0.0 0.0 0.0 0.0 0.0 0.0
0.0 0.0 0.0 0.0 0.0 0.0 0.0 0.0
0.0 0.0 0.0 0.0 0.0 0.0 0.0 0.0
0.0 0.0 0.0 0.0 0.0 0.0 0.0 0.0
0.0 0.0 0.0 0.0 0.0 0.0 0.0 0.0
0.0 0.0 0.0 0.0 0.0 0.0 0.0 0.0
0.0 0.0 0.0 0.0 0.0 0.0 0.0 0.0
0.0 0.0 0.0 0.0 0.0 0.0 0.0 0.0
0.0 0.0 0.0 0.0 0.0 0.0 0.0 0.0
0.0 0.0 0.0 0.0 0.0 0.0 0.0 0.0
0.0 0.0 0.0 0.0 0.0 0.0 0.0 0.0
0.0 0.0 0.0 0.0 0.0 0.0 0.0 0.0
0.0 0.0 0.0 0.0 0.0 0.0 0.0 0.0
0.0 0.0 0.0 0.0 0.0 0.0 0.0 0.0
0.0 0.0 0.0 0.0 0.0 0.0 0.0 0.0
0.0 0.0 0.0 0.0 0.0 0.0 0.0 0.0
0.0 0.0 0.0 0.0 0.0 0.0 0.0 0.0
0.0 0.0 0.0 0.0 0.0 0.0 0.0 0.0

cell.diff.theta f4 [67, 64]
00000000: 0d3d 873e 39e2 47bd 9eb0 763d 296d 8fbe
00000010: 2429 45be 8fbc a6be 9e5c c0bd 7e8e 1e3e
00000020: 1c48 393d 3868 153e 7185 663e 3a96 9abd
00000030: cede 9d3d 0185 fcbc 4d55 5abe 6883 6fbe
00000040: ca21 313e cd19 01bd 4855 f03d e0f7 4fbe
00000050: 5bb0 53bd ed2b 9f3d c57c 3bbe a903 993b
00000060: 121b 6cbd c776 40be 8994 a9bc 7e00 093e
00000070: d770 03be c94d 7abe 7fa6 13be c930 253e
00000080: 8cdc 833e 026d b6bd 75a7 63be f0e1 243d
00000090: 96f5 643e 1137 51bd a977 0fbe 9fc2 7c3e
000000a0: 55f0 b13d 712d 893e 9d0c 6ebe b70c a53e
000000b0: 6cc4 02be 885a 36be b0aa e3bb bce4 11be
000000c0: fbab 3b3e eb95 703e b824 8cbe 4427 903e
000000d0: f768 6ebd 9c8e 763e 7f63 c33d ae8d 5a3e
000000e0: 7833 823e 9e6a ae3d 6b6e 4e3e d7ee 05bd
000000f0: 7e0d f6bc eda5 5d3e 2525 20bd c53f bcbd
00000100: 5701 32bd 17dd aabd 009a 88bd d5b0 0a3d
00000110: 5aef d33d 86d4 043d 6c95 c93d 20f1 573c
00000120: ed66 d2bd e46f f13d e3da c43c 31e8 6dbd
00000130: bda5 af3c eab2 46bd ecc9 ca3d 6bb9 663d
00000140: 53bd 813d a2f9 ec3c c42e 9e3c e9dd bbbd
00000150: 96f7 5cbc 4953 fbbc a96c 083d f7d9 c3bd
00000160: 02d2 1dbc 653e 8cbc d30a 073e e214 d73d
00000170: 6116 a2bd 087b 8cbc 2ff3 89bd a624 5b3d
00000180: 46c2 ab3c 7053 913d 9431 3bbd 31cf c83c
00000190: a69a 75bd 76c5 d6bc 05c4 7a3d bf65 fc3a
000001a0: ec0b a53d 62c2 5f3c 0c7c d6bd f9af 0b3d
000001b0: b4ac fcbc 54d4 353d e518 c23b 47e7 14be
000001c0: 26d8 dabd 05b1 9e3d 3d21 2fbd 170c af3c
000001d0: afff 7f3d 8f24 9bbd 6824 3abd df35 f23b
000001e0: 1155 8d3c 36a4 623d 7717 5c3d 85b3 cdbd
000001f0: db07 f53d 4154 69bd 3eba f9bc f8cf e93c
00000200: a2ff b23c ceb6 1bbd a22c 003e fc78 1ebd
00000210: aa25 a03d 72c1 ea3c f167 fb3d 1a6a 483c
00000220: 6bdb adbb b7cb b3bd 5f20 a2bd bd33 993d
00000230: d05b efbd 8d67 083e a06c c53c 671a bebd
00000240: 3acc a53d a328 483b c4ef 9a3d 3ca8 fa3d
00000250: 8487 08be 7f8d 413d 7ba1 0a3d f5f5 ce3d
00000260: 0fde 54bd 83d4 713d 311c ebbd e299 c6bd
00000270: 10d5 fd3c ab2a e63c bb19 e13d e0e4 c03c
00000280: f565 cc3d 604f 1abe 76d9 843d 3d80 0fbd
00000290: 4af5 933c fc8e 9ebd 23f2 c9bd 8479 bc3c
000002a0: b478 2d3d 601c 8e3d 8968 3a3d 941f aebd
000002b0: bfaf 0a3d 572a bbbc a27c 773d ecc3 043e
000002c0: 449b e3bd 7414 de3d 736c edbd f589 873d
000002d0: 8fcc 923d 35c0 2d3d ce31 86bd e709 6ebd
000002e0: e204 dabd b32a 7f3d ace4 cdbc 67a7 e1bd
000002f0: 732f c23d 2ada e3bc 886b 963d 0861 a43d
00000300: 28be c7bd ae28 31be 4540 f63d 1f2b 4ebe
00000310: 1d31 24bd c0f3 1abe efb6 033e 206c 40bd
00000320: f371 4e3d 163e 403e 4964 053e b0ef 913d
00000330: 2b57 e33c 67a1 d6bd 743f 16bd 8b0a 1abe
00000340: 7ec7 08bb 97a2 9abc 49a3 cb3d 2643 bebd
00000350: 0303 87bb 6c80 3dbc 4f9c 26be d99b 2f3e
00000360: 23d0 b3bd ff2d be3d f74f a33d dc25 033e
00000370: 13b4 c6bd c6f7 a43d b9eb 32bd 17bd a63d
00000380: 4830 d83c cc75 ecbd c143 533d 0aa6 363e
00000390: 69ee 91bd 68c2 083e 105f b43d 9340 663e
000003a0: cb15 143e 4023 a3bc ee33 cebd 7b24 733c
000003b0: a776 263e 4d41 133d 0466 2b3e 7bae 7abe
000003c0: c2c2 093e a4da 3b3e 72da e2bd 2715 623e
000003d0: 97a6 9c3c 02fe 243c 5c52 35be 5fb0 033d
000003e0: 8cad 77bd a562 453e 3d18 2fbe bc9e 8d3d
000003f0: a8b2 c73d 5c86 d0bc a87f 73be d449 8dbd
0.26413766 -0.048799727 0.06022703 -0.2801297 -0.19253975 -0.32565734 -0.09392665 0.15484044
0.045234784 0.14590538 0.22511841 -0.07548185 0.07708512 -0.03082514 -0.21321602 -0.23389971
0.17298046 -0.031518746 0.11735016 -0.203094 -0.051681858 0.0777205 -0.18309315 0.004669626
-0.057643004 -0.1879531 -0.02070071 0.13379094 -0.12836014 -0.24443735 -0.14418982 0.16131891
0.257542 -0.0890751 -0.22231849 0.040254533 0.22359309 -0.051077906 -0.1401049 0.24683617
0.08688418 0.26792482 -0.23246999 0.32236263 -0.12770241 -0.17807972 -0.006947838 -0.14247411
0.18327324 0.23494689 -0.27371764 0.28154957 -0.05820557 0.24077839 0.09540462 0.21343109
0.25429893 0.08516429 0.20159309 -0.03269848 -0.03003573 0.21645327 -0.039097924 -0.091918506
-0.04345831 -0.08342951 -0.06669998 0.033860046 0.10348387 0.03242924 0.09842953 0.013180047
-0.10273538 0.117889196 0.024030155 -0.058082763 0.021441335 -0.04851047 0.09901795 0.056329172
0.06334939 0.028927628 0.019309409 -0.091731854 -0.013486763 -0.030679362 0.03330675 -0.09563058
-0.009632589 -0.017119596 0.13187723 0.1050203 -0.07914425 -0.01714851 -0.06735837 0.053501748
0.02096666 0.070959926 -0.04570158 0.024512859 -0.059961937 -0.026217204 0.061222095 0.0019256397
0.080589145 0.013657184 -0.10472879 0.034103367 -0.03084407 0.044391945 0.005923378 -0.1454135
-0.10685758 0.077486075 -0.042756308 0.02136807 0.0624997 -0.075753324 -0.045444876 0.007391676
0.017252477 0.055332385 0.053733315 -0.10044006 0.11964389 -0.056965116 -0.030484315 0.02854155
0.02185041 -0.038016133 0.12517026 -0.0386896 0.07819684 0.028656695 0.122756846 0.012232328
-0.0053056977 -0.0877909 -0.079163305 0.074805714 -0.11687434 0.13320751 0.024099648 -0.092823796
0.08095594 0.00305418 0.07565263 0.122391194 -0.13332945 0.04725408 0.033845406 0.10105506
-0.051969584 0.059040558 -0.114799865 -0.096973196 0.030985385 0.028096518 0.10991236 0.023546636
0.09980384 -0.15069342 0.0648679 -0.035034407 0.018061299 -0.07742116 -0.09860637 0.023007162
0.04235144 0.06939006 0.04550985 -0.08502117 0.03385901 -0.022847338 0.060421593 0.12965363
-0.11113599 0.10843745 -0.11592951 0.0661811 0.07167923 0.04241963 -0.06552468 -0.058114912
-0.106454626 0.06229658 -0.025133453 -0.110182576 0.094817065 -0.02781399 0.07344729 0.0802632
-0.09753066 -0.17300674 0.12023977 -0.20133637 -0.0400859 -0.15132046 0.12862752 -0.046978116
0.05040164 0.18773684 0.13026537 0.07125795 0.027751526 -0.10480004 -0.036681607 -0.15043084
-0.002087086 -0.018876357 0.099432535 -0.09290151 -0.004120232 -0.011566263 -0.16270564 0.17149295
-0.08779933 0.09286117 0.079742365 0.12807411 -0.09702315 0.080550715 -0.043681834 0.08141535
0.02639021 -0.115459055 0.051578287 0.17836776 -0.07125551 0.1335541 0.08807194 0.2248557
0.14461438 -0.01991427 -0.100684986 0.014840241 0.162562 0.035950948 0.16738135 -0.24480622
0.134532 0.18345124 -0.110768214 0.22078381 0.019122405 0.010070326 -0.17707199 0.032150622
-0.06046824 0.19275911 -0.1709909 0.06915042 0.09750873 -0.025454693 -0.23779166 -0.06898847

cell.gru.weight_ih f4 [192, 64]
00000000: b4ed 99bd b4c6 92bd ef8d 72be 2d90 80bd
00000010: 0fbe d43b 8b2f 813d f0c9 ebbd b30f 2e3e
00000020: 6085 01bd 01ee c3bd e990 30be f330 5abd
00000030: 5ebf f4bc 8588 88bc 9fb1 71bd 2b7e 1e3e
00000040: 8cc8 23bc 43c8 2cbe abd6 69bc 4dfc cabd
00000050: 31d8 833d df27 01be 46f9 563d 47e7 8ebd
00000060: 798c 8d3b 3f82 8abd 5cc7 c4bd 6533 bc3c
00000070: 0e80 a5bc 1e5d 413d 1e62 403d b85b cfbd
00000080: ae5a 0b3d f67e cfbd 5dd1 873d ac4a c1bc
00000090: 7c7e 97bd 535c ce3c 9eaa 4bbd e643 31bd
000000a0: d314 00bd 087d e43d f4af cdbc fd0e 0abd
000000b0: 69bf 0abe fe5c b23d 0754 483d 62b1 033c
000000c0: 9970 2dbe f39c 223e bf4b 983c 9b6b e0bd
000000d0: c889 3a3e b799 14be 0242 7f3d 4b26 913d
000000e0: ddc2 1d3d 125a 2fbe 261d 9dbd bec8 763c
000000f0: 65d7 b2bc 8cc1 75bd db53 113e e513 c5bc
00000100: 413b 31be 9598 a6bd 05d2 353c db15 9fbd
00000110: 4b64 143d 7d76 003e e7a8 14bd dae6 6d3d
00000120: 0288 3f3e f0fd 1b3d 351f afbd 7bd6 8fbd
00000130: 6651 cebd b1f2 9e3d 4e73 8ebd 5bac 5a3e
00000140: 0fe5 acbd 8675 223d 0b0f 6e3d 7f41 543d
00000150: 904d 80bb 5c72 9bbd 41da 96bd c10b d63d
00000160: 0684 a6bd 5c27 383e bb7b 0dbe 23e5 1e3d
00000170: 567b c3bc 8cee 933d eaf3 a93d 804b 2abe
00000180: 9bea 0cbe 7690 ffbc 897c 383e d991 f2bd
00000190: 5265 8cbd 5d40 2d3d 3c2f 213e 1888 94bd
000001a0: 64ef ea3d b25e 08be 92ae 92ba 1c98 1f3d
000001b0: 8a00 afbd cb17 f6bc a117 ae3c b41f ed3d
000001c0: 14eb cd3c 2499 623c 4e92 433e 797d 09bd
000001d0: b436 c53c 7fe9 253d 0ce3 833b 1ebf 753d
000001e0: c368 5cbd 8a98 01be ee2a 983c 22af 893d
000001f0: b36c afbd a8b2 c6bc 7d39 a5bc 2ac1 1e3c
00000200: 015d 2dbe 8a84 d53c ca8e d73c 1ac4 bb3d
00000210: fe29 32bd a502 473e f991 cb3d ba17 863d
00000220: a997 9f3d 11b0 60bd 295e 8abb b5af a23b
00000230: 78b0 e73d ead4 6b3d 9338 473c e0a4 0a3d
00000240: 3a70 e03c fcad 42bd 97ab 843d df3e 02bd
00000250: afa1 dc3d 4e51 15bc 43f7 2f3c 6769 1b3e
00000260: d02f f8bd 4df6 dbbc c306 673d 2b3a a13d
00000270: 52d2 833d bc43 e33c fcaa 683d cad1 a0bd
00000280: ee96 aa3c aa2d 723d da2c 8e3b 1b52 88bc
00000290: ec80 3fbd 4dec 923d 30e3 723d 5a83 9bbd
000002a0: e272 89bc 82cf 45be 6145 933d aa92 69be
000002b0: 8b5b f33c f55a fa3b 7885 80bd 996d f23d
000002c0: af0c e1bc 7451 403d 660e 57bd ad1f 5fbe
000002d0: 0bbd 3b3d 75cf 14bd d1ab 92bd 2e57 abbd
000002e0: 1768 8dbd df24 c23d 1a48 2bbe c443 a5bd
000002f0: 1604 7cbd d715 9bbd 9370 703c d1d5 0c3e
00000300: 8577 95bd 3eb1 debc 73b5 d73d 207f 793d
00000310: 9c1e 623e 41bc 343e d51c 903d 291e cbbd
00000320: 122c 84bb 74b3 f2bc 326a 0cbe 5b6f 263e
00000330: 9e9f 003e 2ca3 d2bc c6b0 12be 57cd 413e
00000340: fbfd dabd c847 06bc a9ce b5bd 921c 82bc
00000350: 62e7 373d 4276 4fbd cb1f 8d3d 27f9 c23d
00000360: bba9 61bd af3c 173e fdf0 143e 74b7 93bd
00000370: ae46 47bd 8f61 8e3d b5a2 28bc 9efd 9dbc
00000380: f50a 1ebd 5f0d 35be 0dc8 873b e50d b43d
00000390: e1d2 a5bd ac46 0b3e c4f3 a43d e6e5 d8bd
000003a0: 9f86 45bd 495b 14be 224b 803d 90b3 403d
000003b0: 6ace 7cbd 8912 82bc dc4e c13d f56b 813d
000003c0: 8694 91bd 6b2e c93d b3c6 9a3c 3a6b eabd
000003d0: 83b3 cbbb 24ba 25bd aaf1 50bd 0882 19be
000003e0: a3c6 b1bb 0a11 cbbd 3f2e 603c 8bc3 ca3d
000003f0: baed a83b 9657 b7bd 5e84 283c 02a9 6a3c
-0.075160414 -0.07166806 -0.23686956 -0.06277499 0.0064923833 0.06307896 -0.11513126 0.16998176
-0.031621337 -0.0956688 -0.17242779 -0.053269338 -0.029876407 -0.01666666 -0.059007283 0.15477817
-0.009996545 -0.16873269 -0.014272372 -0.09911404 0.064377196 -0.12612866 0.05248382 -0.069777064
0.004319724 -0.06763124 -0.09608337 0.022973726 -0.020202663 0.047207944 0.04696857 -0.10124916
0.034022026 -0.10131638 0.0663173 -0.023595177 -0.07397172 0.025190508 -0.04972326 -0.043277644
-0.03126986 0.1115666 -0.025108315 -0.0337057 -0.1354958 0.08709143 0.04890826 0.008037897
-0.16937484 0.15880184 0.018590806 -0.10958024 0.18216622 -0.14511763 0.06231881 0.07087382
0.038515914 -0.17124203 -0.07671575 0.015062509 -0.021831224 -0.059999034 0.14192145 -0.024057338
-0.1730776 -0.081345715 0.011097436 -0.077678405 0.03622846 0.125452 -0.03629389 0.058081485
0.18704227 0.03808397 -0.08550874 -0.07023331 -0.10074119 0.077611335 -0.069555864 0.21354811
-0.08442127 0.03966286 0.058119815 0.051820274 -0.003915496 -0.07590172 -0.073658474 0.10451461
-0.0813065 0.17983764 -0.1381673 0.03879274 -0.023862522 0.072232336 0.08298476 -0.16630363
-0.1376137 -0.031196814 0.18016256 -0.118442245 -0.06855263 0.04229771 0.15740675 -0.0725252
0.114714414 -0.13317373 -0.0011190942 0.038963422 -0.08545025 -0.030040642 0.021251502 0.115783125
0.025136508 0.013830457 0.1909878 -0.033566926 0.024073936 0.040505882 0.004024869 0.059996717
-0.053810846 -0.12655845 0.018575158 0.06722857 -0.085656546 -0.024255112 -0.020169014 0.009689609
-0.1693001 0.026064176 0.026313204 0.09168263 -0.043497078 0.19434603 0.099399514 0.06547494
0.07792599 -0.05485541 -0.0042226505 0.0049647936 0.113129556 0.057576098 0.012159484 0.033848643
0.027397264 -0.047529206 0.06478041 -0.03179824 0.10773026 -0.009113623 0.010740104 0.15176927
-0.121184945 -0.026850844 0.056402933 0.07872423 0.064366 0.02774226 0.05680369 -0.07852514
0.020823922 0.05912558 0.004338843 -0.016640713 -0.04675381 0.07173977 0.059298694 -0.07593413
-0.016778413 -0.19317439 0.07190967 -0.22809854 0.029706737 0.0076402375 -0.06275457 0.1183731
-0.027471868 0.04695268 -0.052503966 -0.21789427 0.045834582 -0.03633066 -0.07161678 -0.083662376
-0.06904619 0.09479689 -0.16726723 -0.08069566 -0.061527334 -0.07572525 0.014675277 0.1375344
-0.07298187 -0.027184125 0.105326556 0.06091225 0.22081989 0.17649938 0.07036749 -0.09917862
-0.004033574 -0.029626586 -0.13712385 0.16253416 0.12560889 -0.025712572 -0.14325246 0.18925987
-0.10692974 -0.008195825 -0.08877308 -0.015882764 0.0448984 -0.05064989 0.0689083 0.09520178
-0.05509351 0.14769243 0.14545055 -0.07212725 -0.04865139 0.069522016 -0.010292699 -0.019285973
-0.03858467 -0.17680882 0.004143721 0.08791713 -0.080968626 0.13601178 0.08054307 -0.10590725
-0.048224088 -0.14487948 0.062643304 0.047046244 -0.06172029 -0.015877979 0.09438869 0.06319419
-0.07108407 0.09823307 0.018893575 -0.11446233 -0.006216468 -0.04046072 -0.05101172 -0.14991009
-0.0054252907 -0.09915359 0.013682901 0.09900578 0.0051552923 -0.089522526 0.010285465 0.014322521

cell.gru.weight_hh f4 [192, 64]
00000000: 5f20 3d3d 2e06 893c a4d3 2b3d 58c1 01bd
00000010: 8772 1e3e 9cd5 233d f4b2 9d3d 4da1 da3d
00000020: 5f6b 1cbe 3f7d 2f3d f406 953c 442c dd3d
00000030: 506b 57bd 0059 613d 1b17 aa3d 89ce 36be
00000040: 39dd 7c3d 742e a6bd 0aef 153d 5294 d1bd
00000050: 41e3 37bd ac0b d7bc ffbe e53d ec17 f53c
00000060: e785 5ebd 4b69 a9bd b9ca 07be da02 8cbd
00000070: 3232 aa3c 3713 413c 9bc1 efbd d9aa 3c3e
00000080: d496 bb3d dda5 473c 2b53 c23c 1461 8f3d
00000090: 7080 e03b 27c9 26be 3835 993d 671d 6bba
000000a0: 7537 29bc e777 a1bd 45c7 06bd 32ed f8bc
000000b0: 1498 ef3d cd1b c43d ecda 5fbd 09f8 863d
000000c0: 2a86 573c 9dd2 f63c 3d8c 113e b5d9 a13d
000000d0: fc6a 72bd d636 2dbd 9ecd 17bd 9a78 96bd
000000e0: c84f 9bbd 8642 d1bd 3c80 da3b a1c6 f2bc
000000f0: f72c e13c cf6c 633c 34f2 84bd 0a8b 79bd
00000100: f5d1 52bc 3f1d 1cbe 40ff c1bc d79e 9dbd
00000110: c099 173d 74ca 413e ed16 323e 0baf 123c
00000120: 54a6 2d3d 73ee 10bd ccb9 2dbd 8dd3 e13d
00000130: 0247 6f3b 5d62 093e 4435 21bc ed20 b03d
00000140: ad8c 9bbd 4b66 9b3d 0b43 2abe 9e53 30be
00000150: b5a4 333d 2f36 12be 0528 cbbd 405d d5bc
00000160: dcb7 b1bd cf15 bb3d f04b f03d b355 6e3d
00000170: e466 fa3d 069d de3d 4f51 d0bd c967 1f3e
00000180: e241 86bd 6e32 bd3b f2bf 87bd 2e37 15be
00000190: 943d 2f3d 7e21 aebd c952 94bc 1d7f 0cbd
000001a0: 9c85 043e 754c 03bd 7601 1f3e a7f0 d93d
000001b0: 2fb9 14bd f142 1e3b 625d d13c 3c78 123e
000001c0: 6393 f7bc 7fdd eabd a136 083e 08bf b33c
000001d0: 3812 c7bd 01e8 acbd c465 01bd 5a16 d63d
000001e0: 49df 073e 7651 ef3d 5f20 d93d 6bc8 f63d
000001f0: fcef 99bc 0f6f 4abd b12d b23d 16a1 07bc
00000200: c5b8 15bd be6c 6dbd 2014 b5bc 7099 983d
00000210: ba95 5cbd 3797 df3d c2b4 993c bf21 203e
00000220: ae5e 9a3d a0a3 8a3b 7f77 efbb b8b2 7d3e
00000230: 3a10 3b3e f458 e7bc 5095 b6bd 7ca8 1d3e
00000240: 359a 2bbe 7d12 043d f184 3abd 877f 85be
00000250: 0002 9bbd db45 28be b965 b1bd a163 093d
00000260: 9abf 0b3e 69b5 86bc c300 05bd 170a 07be
00000270: 0184 f03c a9a1 cf3c 70fb cc3d 7581 883d
00000280: e14c 6a3d ca0c 3dbe 6fe1 afbc e65d 15be
00000290: ef32 503d f5a5 493c d420 35bd f862 333e
000002a0: ee40 043e 0501 133e a621 6b3d 190a da3d
000002b0: 32ba ca3b 4f6f 1b3d 1224 a13d b5de 6abd
000002c0: 5785 0a3e f1c9 ccbc 6051 1d3e 45c0 d03d
000002d0: e156 a1bd 1ddb 78bc 3e24 18be 0d66 ecbd
000002e0: 7fbb a53d 88c4 d5bc 8845 3b3e 21a4 00be
000002f0: 69be 76bd b09f 893d e1cd c43d e24f 64bd
00000300: f387 233d c385 a6bd 2fce 38bd bebe 02bc
00000310: 9065 d23d 9016 393d bf36 623e 7286 a4bd
00000320: fd79 323e 2651 fcbd 0199 083e 8622 5a3e
00000330: 722e 173e 7f14 f93d 5a1f 463d f4bc e1bd
00000340: 79fb 3a3d ddd5 71bd b1a3 c93c a85b 45be
00000350: 3feb 4abe 643b 833d ce15 e03c 9220 253c
00000360: 1ab4 32be bfcb 67bd 0221 a3bd 2b43 8a3d
00000370: 10fe 84bd e8c8 3b3b 60fd 46be 741f 8a3d
00000380: 7669 59bd d6f6 cabd 0f38 cd3d 29e1 8abe
00000390: 119d 433e 68c7 23be 1a20 80bc 3584 f83d
000003a0: 743b f43d 1004 ddbd 49d3 163e b9e7 e1bc
000003b0: 2826 173d 55e0 323c 65c2 003d 9faf c63d
000003c0: 78ee ef3d 64b6 95bd e5de b7bb 339f acbb
000003d0: 526a 0a3e d0cb 1bbe 794e c4bc 0db5 743d
000003e0: 5a17 3cbd 66f6 c83d 3293 113d 451d 613d
000003f0: 944b ef3d 0c20 4b3d 7a1a f83c 7546 283d
0.04617345 0.01672658 0.041949883 -0.031678528 0.15473376 0.039998636 0.07700148 0.10675297
-0.15275334 0.042844053 0.018191792 0.107994586 -0.052592576 0.055016518 0.08305188 -0.17852224
0.061734412 -0.08114329 0.03660492 -0.10233368 -0.04489446 -0.026250683 0.1121807 0.029918633
-0.054326918 -0.08272036 -0.13260926 -0.068364814 0.020775888 0.011784366 -0.11706849 0.18424548
0.091596276 0.012185541 0.023721298 0.07000938 0.0068512484 -0.16287671 0.07480854 -0.000896892
-0.010328163 -0.07884198 -0.032904882 -0.030386541 0.116989285 0.09575615 -0.05465214 0.06590278
0.013154546 0.030129725 0.14213653 0.079028524 -0.05918406 -0.042288624 -0.037061326 -0.07347222
-0.075835764 -0.102177665 0.0066681188 -0.02963573 0.027487261 0.013880922 -0.06491509 -0.060923614
-0.0128674405 -0.15245531 -0.023681283 -0.07696312 0.03701186 0.18924886 0.17391558 0.008952866
0.04239495 -0.035383653 -0.042413518 0.11026678 0.003651083 0.13416429 -0.00983936 0.0860003
-0.07595191 0.0758787 -0.16627137 -0.17219397 0.04385825 -0.14278482 -0.099197425 -0.026045442
-0.086776465 0.09135019 0.11733234 0.058187198 0.12226656 0.108697936 -0.101717584 0.15566935
-0.06555535 0.005773834 -0.066284075 -0.1457183 0.042783335 -0.08502482 -0.018105881 -0.034300912
0.12941593 -0.032055337 0.15527901 0.10641604 -0.036309417 0.0024148787 0.025557224 0.14303678
-0.030221647 -0.11468028 0.1330209 0.021941677 -0.09720272 -0.08442689 -0.031591192 0.10453482
0.1326877 0.11685459 0.106018774 0.120499454 -0.018791191 -0.04942232 0.08700121 -0.008278152
-0.036553163 -0.057965033 -0.022104323 0.07451141 -0.053853728 0.10917514 0.01876295 0.15637873
0.0753759 0.0042309314 -0.007307946 0.24775207 0.18267909 -0.028240658 -0.08915198 0.15396303
-0.16758044 0.032244194 -0.04553694 -0.26073858 -0.07568741 -0.16432898 -0.0866198 0.03354228
0.13647309 -0.016443925 -0.03247143 -0.13187443 0.02935982 0.02534564 0.100088954 0.06665317
0.057202224 -0.1846191 -0.0214698 -0.145866 0.050829824 0.012307634 -0.04422076 0.17518222
0.12915394 0.14355858 0.057405137 0.10646457 0.006186747 0.03794795 0.07868208 -0.057341296
0.13527428 -0.024998637 0.15363073 0.101929225 -0.07877899 -0.015188959 -0.14857575 -0.11542902
0.08092403 -0.02609469 0.18288243 -0.1256261 -0.060240183 0.06719911 0.09609581 -0.055740245
0.039924573 -0.08130982 -0.045118507 -0.007980047 0.10273278 0.045187533 0.22091196 -0.08033456
0.17429347 -0.12320165 0.13339616 0.21302232 0.14763811 0.121621124 0.048369743 -0.11022368
0.04564998 -0.059041847 0.024614187 -0.19273245 -0.19816302 0.06407812 0.027354147 0.010078566
-0.17451516 -0.05659079 -0.0796528 0.067510925 -0.06493771 0.0028653685 -0.19432592 0.067442805
-0.05307909 -0.099103615 0.10020458 -0.2712491 0.19102885 -0.15994036 -0.015640307 0.121345915
0.11925402 -0.107917905 0.14729036 -0.027576314 0.036901623 0.010917743 0.03143539 0.09701466
0.11715406 -0.07310179 -0.005611288 -0.0052680015 0.1351712 -0.15214467 -0.0239632 0.059742976
-0.045920707 0.09812622 0.035540767 0.054959554 0.11684337 0.04959111 0.030286063 0.041082818

cell.gru.bias_ih f4 [192]
00000000: dfc7 4f3d e37b 38bd c726 953c e4d5 c5bc
00000010: 2c06 aabd d833 66bd 5733 97bd b8f9 823d
00000020: a750 06be b2d3 d73d 4a6e 69bd f5f6 7fbd
00000030: 7d4c de3c 895b 793c d801 79bd ae28 e1bc
00000040: 0d86 bcbd 247e c5bd 9d11 94bc 52dd f2bd
00000050: 12c0 183d ba3e 03be c9b1 41bd 43f7 4ebd
00000060: e6c9 873d 7cfd 8fbd e4e2 cdbd 377a 21be
00000070: c0ce a73d da25 e23b 49b7 6f3c cb7c 373c
00000080: 6cc6 a2bc 99b9 6a3d 9c9a c0bd e5b1 40be
00000090: 05ed a93d bc7d b23d 90b1 acbd a1c7 91bd
000000a0: d3d2 cf3d 5952 1a3d bc70 e23d 1c76 abbd
000000b0: d96f 11be 87c5 52bd 614e 3a3c 68f6 6d3d
000000c0: a267 2f3c 5aa7 13be 6de6 c4bd 16ad fb3d
000000d0: 3c2e e0bc 0adf b03d 069c 34bd a87e 6abd
000000e0: 2e8d 38be 4992 c53d a357 5a3d 0b8a ac3d
000000f0: 60f7 c13d b241 72bd 2889 8fbd d550 48bd
00000100: 7f7e 653e 232c 663e 2522 a33e 2a73 283e
00000110: 8322 5a3e bed4 d13d f29d 0f3d abd1 0b3c
00000120: d35e 16bb 17e1 c63d b660 923d 0d84 103e
00000130: 4395 8c3e b377 0d3e 89f8 e63d 7812 40bc
00000140: 9c77 833e d184 433e f397 763d 5531 553e
00000150: 9e1a f9bc b064 013e 6783 8f3e a457 37bc
00000160: 5b3e 463e 0a1f 883d a0b4 a13d a91c 1d3e
00000170: 3100 3e3e 4e49 f43d e552 163e f470 223e
00000180: d94b fe3d abfa 833e 8260 173e b223 ff3c
00000190: 5653 ba3d dfc0 413d b6a5 dd3d 230d be3d
000001a0: 8946 403d 50b0 fe3d 9666 653e 61bc 0d3e
000001b0: df46 f63d cb13 223e 9761 cd3d 44f6 6d3e
000001c0: 611f 103d c122 4c3e a2eb c13d caf4 2abd
000001d0: b1c0 603e 5605 9c3e 66f4 4d3e bd71 873e
000001e0: da31 fa3d c647 723e c0b1 4d3e 82da 223e
000001f0: 9f88 883e 71be 4e3e f36a ae3d 2970 243e
00000200: ab50 893d de59 d13c 1125 5f3d e2f7 bfbd
00000210: b986 63b9 b447 8e3d cb12 e83d e98b 6b3d
00000220: 2234 96bd eaee 15bd 366e 1a3c f7d2 a13c
00000230: bff3 0e3e 21da 563c 368a 9ebd a689 9cbd
00000240: b793 adbd 1b91 13bd 1b45 d2bc 9bd3 a73d
00000250: 819e ae3d b914 853d 5f6d cc3d 0213 d1bd
00000260: 9c25 06be 97ae e2bc e751 1d3d e73d a7b9
00000270: c590 443d 8e9f f3bc c6d9 483d 4838 603d
00000280: 6f0e 3b3c 25b1 0dbd 6018 ac3c 19c6 d5bd
00000290: cd96 f1bd 4776 70bd ac0d 2ebb a5ba 8f3d
000002a0: e1fd bbbc 41b5 983d c758 143d 9516 5f3d
000002b0: 2190 063d f758 1c3d 8443 b7bd ffc3 9fbc
000002c0: f9c1 8fbd c2cc 1fbd c58c 85bb 32bc 63bc
000002d0: 14cd d3bd 93c5 45bd da49 393b d401 643d
000002e0: 7d3d 483d c0de c73c 1303 ba3d 8c80 4a3d
000002f0: 1348 b73d a71d 2ebd 64df babd cd6b 9e3d
0.05072772 -0.045040023 0.018206967 -0.024149843 -0.083019584 -0.056201786 -0.07382839 0.06395286
-0.13116704 0.105384246 -0.056989945 -0.062491376 0.027136082 0.015219578 -0.060792774 -0.027485218
-0.09205256 -0.096432 -0.018074805 -0.1185862 0.037292548 -0.12816897 -0.04728869 -0.050528776
0.06630306 -0.0703077 -0.100530416 -0.15769278 0.08193731 0.006901485 0.014631101 0.011199187
-0.019870006 0.057305906 -0.094044894 -0.18817861 0.08297161 0.08715388 -0.08432305 -0.07118154
0.101476334 0.03767619 0.110566586 -0.08372137 -0.14202823 -0.051457908 0.011371226 0.05809632
0.01070586 -0.14419308 -0.09614263 0.12288873 -0.027365796 0.08636291 -0.044094108 -0.057249695
-0.18022606 0.09647042 0.053306233 0.08424767 0.09471011 -0.059144683 -0.07008582 -0.048905212
0.22411536 0.22477774 0.31861988 0.16450182 0.21302228 0.102456555 0.035062738 0.008533875
-0.0022944703 0.09710901 0.071473524 0.14112873 0.27457628 0.13815193 0.11277873 -0.011723153
0.25677192 0.19093634 0.060203504 0.208196 -0.0304082 0.12636065 0.2802994 -0.011190329
0.19359724 0.06646545 0.078957796 0.15342964 0.1855476 0.11928044 0.14680059 0.158634
0.124168105 0.25777182 0.14782909 0.03114495 0.09097926 0.047303077 0.108226225 0.092798494
0.046942268 0.12435973 0.22402415 0.13841392 0.12025236 0.15827863 0.100283794 0.23238474
0.035186175 0.19935133 0.094687715 -0.041737355 0.21948506 0.3047282 0.20112762 0.26453963
0.1221654 0.23660192 0.20087337 0.15903667 0.26666734 0.20189835 0.08516493 0.1605841
0.06704839 0.025555547 0.05447871 -0.09373452 -0.00021698595 0.0694727 0.113317095 0.057506476
-0.07334162 -0.0366048 0.00942569 0.019753916 0.1396017 0.013113529 -0.077412054 -0.07643442
-0.0847544 -0.036027055 -0.025667718 0.081946574 0.08526326 0.06498093 0.099817984 -0.102087036
-0.13100284 -0.027671142 0.038408186 -0.00031898843 0.047989625 -0.029739168 0.04903581 0.054741174
0.011417015 -0.034592766 0.021007717 -0.10438175 -0.11796341 -0.058706548 -0.0026558442 0.070180215
-0.022948207 0.074564464 0.036217477 0.054464895 0.032852296 0.03817078 -0.089484245 -0.019502638
-0.07019419 -0.03901363 -0.004075619 -0.01389985 -0.1034185 -0.048284125 0.0028272779 0.055665806
0.048886765 0.024398208 0.090826176 0.049438998 0.08949294 -0.042508747 -0.0912464 0.07735405

cell.gru.bias_hh f4 [192]
00000000: 218c c63d 68c4 23be b4c8 66bd 76cf 89bd
00000010: f484 46bd 2308 853d 80ec b8bd eb5e 82bd
00000020: eb34 e23d bf80 d63d 1ca5 fcbd 1778 153e
00000030: 9eaa 12bc c261 b9bb 7c37 85bd 9d95 ddbc
00000040: 2e8b e03c dd08 933d b311 283e 7fb1 c8bd
00000050: b020 8a3d 8584 10be 3b8b 053d a084 273d
00000060: 4cdd 58bc c2a8 a5bb 2c3c 793d 54d7 22be
00000070: 946e c6bd 924a 183e 0162 9ebd ed42 1ebe
00000080: 453f 8ebd e40c 7bbb 0435 a5bd dd84 5fbe
00000090: ad09 d93d 5ebe 8f3d 73b6 0abc 929c edbd
000000a0: 7387 593d fd49 17bd 396f 673d 0842 ccbd
000000b0: df6d d93d b175 94bd 5d34 633d 8bd9 503d
000000c0: 3a4c afbd 2a7b 1fbd 2fb1 a0bd d20c c5bd
000000d0: f44e 033b 8234 46b9 bdc8 a43d b410 77bd
000000e0: 5ea3 353d cf89 34bc 0372 afbd 4c7e 98bd
000000f0: 12cb 8e3d 34cf 2cbb 4150 49bd 84e5 47bb
00000100: f410 2d3e 2036 923e 3230 9d3e 83c2 563d
00000110: 5cc1 523e d4d2 8a3e dd15 ec3c 266f f93d
00000120: 3b32 593d d7c6 2f3e 355e e63d 1060 633e
00000130: 8d2b ad3d 38c4 853e cb96 333e 5049 703b
00000140: 4690 023e 4ecd 7a3e 8006 8b3d 4d08 dc3d
00000150: 6eda 3e3d 2d10 123e 2577 443e c32b b83d
00000160: 3191 c63d d0b6 533e 6e5a 4c3e 6c3d c93d
00000170: df01 fe3d 7ce1 063e c5b9 983e 6ca5 8f3e
00000180: 9ecc 243e 9b90 be3e 0d2d 1f3d ebf7 c83d
00000190: 0d49 9b3d 96d3 2e3e 0a70 8c3d 60ea 1338
000001a0: f900 e13d 5247 313e 24ef e53d 6264 523e
000001b0: ac7c 6aba 7593 1b3e 2957 123e 15c8 1e3d
000001c0: 6415 4f3e c4e4 bc3d 7069 963e a26e 1d3e
000001d0: 7a96 563e 47ba 963e 8e53 a03e ee06 133e
000001e0: 4cee 5d3e 0714 853d 9d0f 1c3e 233e 323d
000001f0: 87c5 663d c710 fd3d 2078 163e 49da fa3d
00000200: 23cc 803d 7182 a6bd f0c2 03be 21bb 8e3d
00000210: ffdb 05bc d07e ebbd de8e 88bd e26a ddbb
00000220: 4c91 afbc df0e 643d 44a1 2f3d dd8e 993d
00000230: 3f51 e13d 641d 0abc 64ff b1bd 0e24 6a3d
00000240: 8987 f83c 8db5 64bd ef7e cb3c 046f b3bc
00000250: 227d 9e3c 4c63 83bc f65d 603d 8169 4bbd
00000260: 4946 c03d f9d6 ae3d e40b 5cbd 3025 b1bd
00000270: add1 0d3e 3343 1a3d 9f9f a7bb 2a07 45bc
00000280: fe31 973c e322 b73d 7499 a1bd 0ab5 673c
00000290: 8091 d7bc 188a c33d 43a1 f83d 325e 803d
000002a0: 4faf 53bd 4653 18be 5d43 0bbe 82b0 0bbd
000002b0: c039 a9bd b756 283d c33f 263e 51b6 9d3c
000002c0: 82f9 43bd f9d6 1f3a c456 ab3c 84b5 57bc
000002d0: 5190 aa3d f172 6c3d 8e98 1abc 76f7 c73d
000002e0: 8481 9bbd 4969 bd3d 7826 07be 2493 fabd
000002f0: 7d3c 71bd e2d0 b83c c37e 8c3d 9ffb 01be
0.09694696 -0.15992892 -0.05634375 -0.06729023 -0.048466638 0.064956926 -0.09029484 -0.063657604
0.110452496 0.10473775 -0.123361796 0.14596592 -0.008951811 -0.0056574056 -0.065047234 -0.02704888
0.027410116 0.07179425 0.16413002 -0.0979948 0.06744516 -0.14113052 0.032603484 0.040897965
-0.013236355 -0.005055518 0.0608484 -0.15902454 -0.0968906 0.14872196 -0.077335365 -0.15455218
-0.069456615 -0.0038307244 -0.080667526 -0.21828027 0.10597549 0.070187315 -0.008466351 -0.11602129
0.05310769 -0.036935795 0.056502555 -0.09973532 0.106166594 -0.0724901 0.05546986 0.050988715
-0.08559461 -0.038935818 -0.07846295 -0.09621586 0.0020036073 -0.00018902312 0.080461 -0.060318664
0.044345252 -0.011019184 -0.08566668 -0.07445964 0.06972326 -0.002636862 -0.0491488 -0.0030501792
0.16900998 0.2855692 0.30700833 0.052431595 0.20581573 0.27113974 0.028819019 0.12179403
0.05302642 0.17165695 0.11248437 0.22204614 0.08455572 0.26126266 0.17537992 0.0036664791
0.12750348 0.2449238 0.06788349 0.10743771 0.04659503 0.14263983 0.19186075 0.08992722
0.09695662 0.20675206 0.19956371 0.098261684 0.12402701 0.13171953 0.2982923 0.28055894
0.1609368 0.372197 0.038861323 0.098129116 0.07582293 0.17072901 0.06857307 3.526581e-05
0.10986514 0.17312363 0.11227253 0.20546106 -0.0008944969 0.15192969 0.14291061 0.03876503
0.20223004 0.09223321 0.29377317 0.15374234 0.2095584 0.29438993 0.31313747 0.14358112
0.21672934 0.064979605 0.15240331 0.04351629 0.05634072 0.12356716 0.14694262 0.12248666
0.06288936 -0.081303485 -0.12867332 0.06969286 -0.008170127 -0.11498797 -0.06667875 -0.006757126
-0.021431588 0.055678245 0.042878404 0.07497952 0.110018246 -0.008429859 -0.0869129 0.05716329
0.030338066 -0.055837203 0.0248408 -0.021903522 0.019346777 -0.01603856 0.054777108 -0.049661163
0.09388406 0.085370965 -0.053722277 -0.08649671 0.13849516 0.037661742 -0.005115464 -0.012025634
0.018456455 0.08942201 -0.07890597 0.014142284 -0.026314497 0.09547824 0.12140133 0.06267966
-0.05168086 -0.14875516 -0.13599916 -0.034103878 -0.08262968 0.041098323 0.1623526 0.019251974
-0.04784537 0.0006097402 0.020915397 -0.013165835 0.083283074 0.057726804 -0.009435786 0.09763996
-0.075930625 0.09248597 -0.13198268 -0.12235096 -0.058895577 0.02256054 0.068601154 -0.12693642

fc.weight f4 [1, 64]
00000000: 29f7 d7bd 8eba 233e 93aa 333e 1982 0ebe
00000010: 3683 d83d a627 29be 45a5 b93d b328 813d
00000020: cdcb 96bd bcc8 acbd a44d e1bd 6a0d 6bbd
00000030: db50 073e 0bbf 8e3d 2f75 2dbe 6f79 60bd
00000040: e693 94bd 18ef 083e 40a9 f03d 1506 1ebc
00000050: e002 81bd ea84 043e 9950 f7bd f9d6 2cbd
00000060: 19ee 433d cdf4 5a3d d38e f43d a06f 103e
00000070: c993 a4bd 4f06 063e 02b8 a93d 0305 47be
00000080: 2a9e c3bd a6b5 d9bd 9956 c93d bcac 153e
00000090: cbf0 45bd 96b7 b2bd 9431 183e 111c 6b3d
000000a0: 3c2f 4b3d e67d 733d 1eac 0abd 1bed a13d
000000b0: a0b5 96bd bd1e 0fbe 079b e93d 7f03 f3bd
000000c0: b93a ea3d 7db3 11be 5883 25bd a5a5 523d
000000d0: 4486 e4bd b2eb 02be 1cea 09be 77db fdbd
000000e0: 0fe9 31be 868f 083e 778e 793d f2ee f8bd
000000f0: c83f dcbd 1715 1b3e 1bf9 5e3d 3574 b23d
-0.10545189 0.15989134 0.17545538 -0.13916816 0.105719015 -0.16519031 0.09064726 0.06306591
-0.07363091 -0.084367245 -0.11001137 -0.05738584 0.13214438 0.06970032 -0.16939233 -0.054803308
-0.07254772 0.13372457 0.11751032 -0.009645005 -0.062993765 0.12941328 -0.1207592 -0.0421972
0.04783449 0.053456116 0.11941304 0.14105082 -0.08036 0.13088344 0.0828705 -0.19435506
-0.09551652 -0.1063035 0.0983097 0.14616674 -0.04832534 -0.087264225 0.14862663 0.057399813
0.049605593 0.059446238 -0.03385555 0.079065524 -0.07358861 -0.1397657 0.11406522 -0.11865901
0.11436982 -0.14228626 -0.040408462 0.051427502 -0.11158422 -0.12785223 -0.13468212 -0.12395375
-0.17374061 0.13336 0.06092688 -0.1215495 -0.10754353 0.15144764 0.054436784 0.08713571
