notebooks/DCRNN/No_Adj_30mins/dcrnn_best.pt (torch, 544247 bytes, 8 tensors)

adj f4 [325, 325]
000000 65 d8 79 3f 30 4b 82 bc 21 61 61 bd 36 42 92 bc
       0.97595817 -0.015904993 -0.05502427 -0.017853837
000010 95 52 97 bc 3f 21 34 3d 48 d9 f2 3c ab b4 46 bc
       -0.018471995 0.04397702 0.029644623 -0.012128036
000020 6b 34 27 bc d9 ce 7a b9 56 07 ff bb 74 73 49 3c
       -0.0102053685 -0.00023918915 -0.007782857 0.012295593
000030 14 fb b1 bc 02 e3 c9 ba c8 76 aa 3d 1a 24 c1 3b
       -0.021726169 -0.0015402737 0.08323437 0.005894196
000040 c7 6e a0 bc 4e 88 16 3d 3d 40 a2 3b 62 0a 95 3c
       -0.019584073 0.036751084 0.0049515055 0.018193427
000050 22 e7 eb bc 1d 48 1b 3d 79 64 13 3c 78 95 39 bc
       -0.028796736 0.03791057 0.0089961225 -0.01132714
000060 d1 80 19 bc 8a 51 6b bc 9b 88 b6 bc d4 b9 47 3c
       -0.009369091 -0.014362702 -0.022281935 0.012190301
000070 41 10 c6 3c 0f 59 a8 3c 24 39 19 bb 12 e4 ae bd
       0.024177672 0.020550279 -0.0023380006 -0.08539595
000080 97 c1 28 bb 3c 6d 36 3d e4 05 3f 3c d5 0e 7c bb
       -0.0025750154 0.044537768 0.011659119 -0.003846099
000090 ac 42 c6 3d 78 7f 4b bd 1a 4e 5d 3c dc 8a 11 3c
       0.096806854 -0.04968211 0.01350739 0.008883204
0000a0 63 db 03 bd b3 7d 19 bd 56 ee bd 3c 34 d6 99 3c
       -0.032191645 -0.03747339 0.023184936 0.018778898
0000b0 4a 6d 99 3c 25 d0 ad 3c 1f 7f 1f bd bf f9 e1 3a
       0.01872887 0.021217415 -0.03893959 0.0017240568
0000c0 da d7 0e bd 91 6e ce bc f7 6e 30 bc 59 27 03 3c
       -0.03487382 -0.025199207 -0.010768644 0.008004987
0000d0 8c 8f 1e 3c 02 84 9a 3b 6c 0b b8 bc 1c 25 7e bd
       0.009677779 0.0047154436 -0.022466384 -0.06204711
0000e0 8a b6 41 3b 9f 52 c4 3d fd cc 55 bd 71 ae 47 bc
       0.0029558265 0.09586071 -0.052197445 -0.012187586
0000f0 9a 9e 1b bb 69 68 74 3c 3f 12 12 bd 31 97 25 3d
       -0.0023745657 0.014917471 -0.035661932 0.04042739
000100 9b c0 99 3d a9 1a 19 3b a3 72 2b 3d f3 ed c1 bb
       0.0750744 0.0023361838 0.041857373 -0.0059182583
000110 54 19 f8 bb fe 80 2b 3d 13 84 f1 3a 0b ec 7c 3d
       -0.0075713787 0.041871063 0.0018426202 0.061748546
000120 c0 23 6b bc 51 89 a8 bb f0 00 30 3c 92 12 64 3d
       -0.014351785 -0.0051433225 0.010742411 0.055681773
000130 c7 25 2c bb 70 8e 03 bd e3 42 a0 3d 67 ba 6a 3c
       -0.0026267634 -0.03211826 0.07825258 0.014326668
000140 21 53 7d 3d 1b f5 df 3c f9 da dc bc 80 a6 e7 3b
       0.061846856 0.027338555 -0.026959883 0.007069409
000150 1e 81 e5 3c f1 7f fb bc cd 8a a1 bc 6a ba ec 3c
       0.02801567 -0.030700656 -0.019719506 0.028897483
000160 b0 02 b1 3b d1 27 d8 3c 25 e6 cf 3c 92 47 0a 39
       0.0054019317 0.026386173 0.025378296 0.00013187368
000170 63 15 83 3c ab af 52 3d 78 db bc bb c7 93 c6 3c
       0.016001409 0.05143706 -0.0057634674 0.024240388
000180 1d 27 a3 bc ad 93 19 3c 0a 8b 65 3c 39 0b 3b 3d
       -0.019916112 0.009373588 0.0140102 0.045665
000190 ea 1b e8 3c 5e 3c df 3c c8 b3 87 3c 4f 38 36 3d
       0.028333623 0.027250465 0.016565219 0.044487294
0001a0 a1 cb 3f bd 05 42 e0 3d 9e 41 b0 bb 0a ff 3f bd
       -0.046825055 0.10950092 -0.005378916 -0.046874084
0001b0 2b 32 90 3c d6 93 18 3c 39 d8 0d bd 5b e4 97 3c
       0.017602047 0.009312591 -0.034630034 0.018541506
0001c0 08 be 40 3b 57 06 b8 3c 68 07 bf bc 26 37 06 ba
       0.0029410142 0.02246396 -0.023318961 -0.0005119912
0001d0 61 cd 11 bd e6 91 bc bb 37 53 cb 3d e2 68 cf 3c
       -0.035596255 -0.005754697 0.09927981 0.025318567
0001e0 5f 39 e6 bc bc c8 3f bd 96 58 d6 3a 76 15 26 3d
       -0.028103529 -0.046822295 0.0016353305 0.04054781
0001f0 c1 ff 66 3d 14 2f af 3c be c2 0c 3c eb f7 33 3d
       0.05639625 0.021384753 0.008591352 0.043937605
000200 07 d5 d8 bb 64 c8 44 3b 74 54 72 bc 96 3d 56 3d
       -0.0066171917 0.0030026669 -0.014790643 0.052304827
000210 16 cc 1b 3d 2f 6a 8e bc 80 5c bb bc b6 22 a9 3c
       0.03803643 -0.017384617 -0.022871256 0.020646434
000220 36 7b fc bc b4 8b 41 3d b4 a8 01 bc fc cf 6a bb
       -0.03082047 0.047252372 -0.007913757 -0.0035829535
000230 53 98 b4 bc 96 6d 36 bb bb 30 23 3d 6c 7a ee bb
       -0.02204529 -0.0027836314 0.039841395 -0.0072777774
000240 44 37 bb bc a2 e6 64 ba 75 27 44 3b df 9e 93 bc
       -0.022853501 -0.0008731877 0.0029930745 -0.018020092
000250 12 0e a6 3c 3c be 93 bc 70 26 3c ba f3 d1 eb bc
       0.020270381 -0.018035047 -0.00071773585 -0.028786635
000260 54 47 c0 bb 2e 09 a4 3c 10 30 90 bc 23 73 03 3c
       -0.005867878 0.020023908 -0.017601043 0.008023056
000270 94 93 df bc 09 8f 17 bd 7b a7 b0 bc d7 43 03 3d
       -0.02729205 -0.037001643 -0.021564236 0.03204712
000280 2f b4 d4 bc 3e 89 84 3d ae 33 06 bc d1 bc 25 bd
       -0.025964824 0.06471489 -0.008191032 -0.040463272
000290 28 c5 25 bc bc 88 33 3c aa 57 1e bc ec 8d cc bc
       -0.0101178065 0.010957893 -0.009664455 -0.024970017
0002a0 82 cf b2 3c 64 8c bc bb 18 9f 53 3b 06 32 7f 3d
       0.021827463 -0.0057540406 0.0032290872 0.062303565
0002b0 98 23 19 bc df ca 6d bc 04 bb cf 3c b2 be 4e 3a
       -0.009346865 -0.0145137 0.02535773 0.0007886692
0002c0 47 89 c7 3c 87 3d 16 3c 6b 22 30 3d dc 16 cc 3c
       0.024357451 0.009169943 0.043001574 0.024913244
0002d0 46 55 83 3c 05 a1 25 bc b4 14 86 3a 57 40 1f 3d
       0.016031872 -0.010109191 0.0010229559 0.03887972
0002e0 27 4e 87 3c 19 b8 24 3c 37 37 94 3c e1 1e 7d bc
       0.016516758 0.010053658 0.018092735 -0.015449257
0002f0 a0 a7 4f bc 70 38 3a 3c 48 b4 21 3d 4c 59 77 bc
       -0.012674242 0.011365995 0.03947857 -0.015096974
000300 ff dd 87 3b 75 64 07 bd a2 58 77 bd 6f 33 21 bc
       0.004146337 -0.033054788 -0.06038726 -0.009838923
000310 7b 44 77 3d ce f3 f0 bc 51 85 9b ba 59 84 f2 3c
       0.060368042 -0.02941313 -0.0011865293 0.029604124
000320 63 af 59 3c 99 d7 e8 bc 0d 4b 2c 3d 58 2a b0 3c
       0.013286444 -0.028423117 0.04206376 0.021504566
000330 fa 24 17 bd 9c 4f 12 bc ed 47 13 bd e1 18 27 3d
       -0.036900498 -0.008930113 -0.035957266 0.04079521
000340 5e ea f5 bc 38 30 c8 bc 40 55 d1 bc b7 49 47 3d
       -0.030018982 -0.024437055 -0.025553346 0.048654284
000350 d1 8f 92 bc c1 f2 fd 3b 72 5c 8f 3d c5 1b 07 3c
       -0.017890843 0.007749886 0.070000544 0.008246367
000360 0d ae 6a 3d c9 d5 41 3b df 1b 46 bd f5 39 b9 3b
       0.057294894 0.0029576889 -0.048366424 0.005652661
000370 b8 2b 80 bc df 0e f5 bc a5 83 3a bd a9 a6 cc bb
       -0.015645847 -0.029914318 -0.045535702 -0.0062454534
000380 64 1c 33 bd 72 12 7b bb 80 2e e6 bb 3c 44 e0 b8
       -0.043728247 -0.0038310555 -0.007024586 -0.00010693862
000390 ce b8 13 3c 5f cc e1 bc 25 b7 89 3b cb a4 88 3c
       0.009016229 -0.027563272 0.0042027407 0.016680142
0003a0 03 b5 92 bc 2d d1 d8 bc bc cc 19 bb 20 f0 6d bb
       -0.017908579 -0.02646693 -0.0023467978 -0.0036306456
0003b0 a1 d9 cc bb 26 38 fa bc 43 08 cd ba 50 54 99 3b
       -0.0062515293 -0.030544352 -0.0015642721 0.0046792403
0003c0 99 6f 1f bd c1 e8 9d 3c 04 0c dc bb aa 3b 4f 39
       -0.038924787 0.019276025 -0.0067152996 0.00019763285
0003d0 6e 86 20 bd 31 bd c4 bc 91 b7 40 3c cb b5 a8 bc
       -0.039190702 -0.024015995 0.011762516 -0.020594498
0003e0 05 69 9b 3c 49 9a aa 3c 52 8e 45 3d b6 0e 10 bc
       0.018970976 0.020825522 0.04823143 -0.00879257
0003f0 af 80 ca bc f7 e7 2a 3c 4c 53 79 ba 7f 90 01 bb
       -0.024719564 0.010431281 -0.00095110084 -0.0019769964

cell.diff.theta f4 [65, 64]
000000 a3 8b 40 be fd 55 cb 3d 80 fe 0a 3e 4f 54 a9 bd
       -0.18803267 0.0992851 0.13573647 -0.08268034
000010 dd 35 4a 3e 3b 2d 27 be 21 e3 7f bd 2b a4 66 bd
       0.1974711 -0.16325848 -0.062472466 -0.056308907
000020 38 b0 24 bd ff fb 6e 3e a4 0b 54 3e 9d e3 68 be
       -0.040207118 0.23338316 0.20707566 -0.22743078
000030 97 60 4a 3d b0 68 2a 3e 18 00 77 be a2 28 54 3e
       0.04940852 0.16641498 -0.2412113 0.20718625
000040 ad f1 d2 3d 96 43 86 bd 2f 1b b2 3d 83 71 ff 3d
       0.10300002 -0.0655586 0.08696591 0.124728225
000050 f2 71 2d bd 2b 2e 9e 3e c4 02 58 be 2b a7 42 3e
       -0.042344995 0.30894598 -0.21094805 0.19009082
000060 82 da 85 bd a6 55 1c 3c b7 06 03 be db e3 70 3e
       -0.06535818 0.009541905 -0.1279553 0.2352442
000070 86 8d 39 3d bd 4c 65 3e ce b9 8d 3d 28 04 5e 3e
       0.045300983 0.22392555 0.06920205 0.21681273
000080 fd aa 4c bd c5 b1 b1 3d 66 26 f2 3d a5 8a 18 3e
       -0.049967755 0.08676485 0.1182373 0.14896639
000090 86 30 99 be 19 94 a3 bd 1b 99 13 3e 34 1b 04 3e
       -0.29919833 -0.07987232 0.14413874 0.12901002
0000a0 61 d5 77 be e2 51 c0 bc fc 2a 3b 3e 8e c9 88 3d
       -0.24202491 -0.023476545 0.18278116 0.066790685
0000b0 d0 a5 6d 3e 46 f8 82 3e ae 37 62 be df f0 65 be
       0.23207784 0.25580043 -0.22091553 -0.22455166
0000c0 ef 47 75 3e 99 e9 53 be 83 44 52 3e f9 54 6a 3e
       0.23953222 -0.20694579 0.20533948 0.22883977
0000d0 e2 e0 3f be 39 1a 3e 3d 29 36 84 be a6 30 93 bd
       -0.1873813 0.046411727 -0.2582257 -0.07187013
0000e0 12 95 d9 bd 23 29 a4 be 52 14 a6 3d ef b3 37 be
       -0.10624136 -0.32062635 0.081093445 -0.17939733
0000f0 c0 dc 10 be 94 3c 85 3e 46 c4 46 3a 2b d4 1b be
       -0.1414671 0.2602278 0.00075823476 -0.15217654
000100 c7 da ae bd 51 fd 9d bc 3e 07 db bd a2 aa 55 3e
       -0.08537822 -0.01928583 -0.10694741 0.20865873
000110 0c 1c 7f bb 76 c8 f4 3d 9a ec 7b be 18 e4 af 3c
       -0.003892663 0.119522974 -0.24601975 0.021471068
000120 35 85 61 3e ec 18 4e be f4 eb 33 be 53 d6 74 bd
       0.2202347 -0.20126694 -0.17570478 -0.059774708
000130 94 1a d8 bd 0a a0 c0 bd 0f 9a 41 3e c5 ea e1 bc
       -0.105519444 -0.09405525 0.18906425 -0.027577767
000140 a2 e4 e2 3d 7e a5 ef bd 78 08 02 3e 07 a2 23 be
       0.110787645 -0.11701487 0.12698543 -0.15979777
000150 2e f7 1b 3e e1 27 5a 3c 5d 67 ea 3c 53 f7 19 be
       0.1523101 0.013315172 0.02861374 -0.15035753
000160 72 84 ee bd 55 c5 0f bc c6 e3 45 be 5b 40 fd bd
       -0.11646356 -0.008775075 -0.1932517 -0.123657905
000170 41 6b 0d be 40 9a 08 be 69 43 56 be 9d 8d c2 3c
       -0.13810445 -0.13340092 -0.20924152 0.023749167
000180 bd 18 9c bc 70 b5 83 3d 5f 45 24 be 6a 64 92 3b
       -0.019054765 0.06431091 -0.16042088 0.0044675367
000190 2c 71 89 bd ab f3 f6 ba 6a aa 1b 3e 05 7c 99 3d
       -0.06711039 -0.0018840929 0.15201727 0.07494358
0001a0 18 d5 04 3e 90 94 b5 3d db 00 f1 bc e6 e8 cc 3d
       0.12971914 0.08866227 -0.029419353 0.10005359
0001b0 aa c8 9f 3d 5d 7d fc 3d 08 16 56 3e fb 88 29 be
       0.078019455 0.12328599 0.20906842 -0.1655616
0001c0 01 de fc bd 3e 22 ac 3d 95 bb 6c 3d 77 65 a8 3d
       -0.123470314 0.08404969 0.05779608 0.08222478
0001d0 1a 3e 36 3d 00 b3 a4 bd 05 20 ff bd 69 22 27 bc
       0.04449282 -0.08041954 -0.12457279 -0.010201075
0001e0 5c c8 23 3d f2 3a 1e be 7c 58 72 3d 1e 56 bf 3d
       0.039986 -0.15452173 0.059166417 0.093425974
0001f0 1a ce f4 3d d8 35 bb 3d 16 f4 70 3b 64 6a 03 be
       0.11953373 0.09141129 0.003676658 -0.12833554
000200 53 d0 25 be 08 24 f5 3c 7f e9 61 3b b4 1e 8a 3e
       -0.1619275 0.029924408 0.003447145 0.2697655
000210 86 d8 63 3c ff 30 d8 bd 30 dd af 3c 0c 67 26 3e
       0.013906604 -0.1055622 0.021467775 0.16250247
000220 0b 3e 76 3e 1b a2 cb 3d fa c6 b3 3d 0e a3 28 bd
       0.24047105 0.099430285 0.08778186 -0.041171126
000230 47 d0 87 bd 74 89 2a 3e 11 d9 cd 3d e7 7c 29 be
       -0.066315226 0.16653997 0.10051168 -0.16551553
000240 21 e8 ab bd e9 4e 8d 3b 0e e1 fe 3d 6a 34 a1 3d
       -0.083938845 0.0043123853 0.124452695 0.07871325
000250 c9 e4 31 3c 69 1b 8c 3c 65 36 2f 3e 0f fd 2a bd
       0.010857769 0.017102914 0.17110594 -0.04174524
000260 f9 cd 09 be ac e0 0e be d6 97 1e be f6 91 9d 3d
       -0.13457479 -0.13952893 -0.15487608 0.076938555
000270 e1 14 5f 3d 2d 20 23 3e 75 89 46 3b be 54 aa bd
       0.05446327 0.15930243 0.0030294333 -0.083169445
000280 42 a4 41 3e cc 06 b9 3c 38 5e 44 be 82 b0 a1 bd
       0.18910316 0.022586249 -0.19176567 -0.07894994
000290 8f 35 d6 3d 99 c4 13 be fa f1 9b bc 74 84 86 3c
       0.10459434 -0.14430465 -0.019036282 0.01642058
0002a0 a6 8c ab bc 84 17 10 bd c1 62 c6 3d ac 20 c4 3c
       -0.02094109 -0.035178676 0.096868046 0.02394136
0002b0 e4 fa 37 bd 29 4d 3a be 16 3d e2 bd 08 45 4b 3e
       -0.044917002 -0.18193497 -0.110468075 0.19850552
0002c0 61 c2 0c be fc 84 4c 3d 36 49 ca bd c0 8d 33 3d
       -0.13746025 0.04993151 -0.09877245 0.043836355
0002d0 3c 56 2a be 2f ae 4d bd d4 83 e6 3d 03 40 a3 3d
       -0.16634458 -0.050214943 0.11255613 0.07971194
0002e0 25 07 53 3d 61 ab 8a 3c f6 2b 27 3d 78 5a 02 be
       0.051520485 0.016927423 0.04081341 -0.12729824
0002f0 4d 6e f8 bd f2 80 86 3a 08 b2 fa bd 15 bb de bc
       -0.12130413 0.0010261817 -0.12240988 -0.027188817
000300 f0 b4 c6 bd a0 5d d6 bc d5 96 40 3d ed f1 2a bc
       -0.0970248 -0.02616769 0.047018845 -0.010433656
000310 40 b9 43 3e f9 7a 72 be 72 27 07 3e a5 c9 db bd
       0.19113636 -0.23679723 0.13198641 -0.1073182
000320 8e 98 89 3d 5e af b0 bd f6 78 a3 bd 79 b3 ef 3d
       0.067185506 -0.08627199 -0.07982056 0.117041536
000330 73 a1 be 3b 6a 2f b4 bd 70 e4 c7 3c cb 23 ec 3d
       0.005817586 -0.08798106 0.02440092 0.115302645
000340 48 ee bf 3d 79 22 31 bd a2 6f 37 3e 4e 10 05 3d
       0.093716204 -0.043245766 0.17913678 0.032486252
000350 63 a4 05 be 04 9a 09 bc 06 fe 8d bd 5c ab 09 bd
       -0.1305099 -0.008398537 -0.06933217 -0.033610687
000360 9b 54 aa 3c e0 1f 93 bc a3 ad e1 3d df 18 63 bd
       0.020792296 -0.017959535 0.11019447 -0.05544364
000370 86 18 82 3b 33 cc 58 3e 97 79 4b be 11 31 34 bc
       0.0039702086 0.21171646 -0.19870602 -0.0109980265
000380 c4 db e6 3d 2b 0e 23 3e b3 5c 40 3e f6 41 53 bd
       0.11272386 0.15923373 0.18785362 -0.051576577
000390 0d 76 ba bc 58 d1 1f 3e 04 00 03 be 84 4c fc bd
       -0.02276137 0.15607202 -0.12792975 -0.12319282
0003a0 0a ca 35 bd 90 cc 27 3e 88 7d 27 3e c1 d9 2b bd
       -0.044382133 0.16386628 0.1635648 -0.041955713
0003b0 2a 7a dc 3d 55 e2 ef 3d d4 ed 68 3d d1 3e f7 3c
       0.107654884 0.11713091 0.056867436 0.03018132
0003c0 94 09 0a 3e b2 e8 01 3e 24 75 91 bc 9e 38 92 3c
       0.13480216 0.12686422 -0.017756052 0.017849263
0003d0 74 d1 28 be b2 b1 f6 3d e6 2d 5a 3d 68 57 e9 3d
       -0.1648615 0.120456114 0.05326643 0.113936245
0003e0 e0 81 ab bd 2a b7 36 be a5 94 08 3e e3 39 98 3d
       -0.08374381 -0.17843309 0.13337953 0.07432916
0003f0 ad 91 93 3d b5 6c e9 bd 2e 03 d0 3d bf 6f 2c bc
       0.0720552 -0.11397687 0.101568565 -0.010524689

cell.gru.weight_ih f4 [192, 64]
000000 55 04 03 be d4 dc da bd dc cf 92 bd 30 1a f3 3b
       -0.12794621 -0.10686651 -0.07168552 0.0074188933
000010 a0 61 a1 3d 20 9b d8 3d b1 4d 28 be 78 52 89 3d
       0.078799486 0.10576463 -0.16435887 0.06705183
000020 54 8f 47 3e c4 c2 4a bc a4 2d 88 3c 68 e2 40 bb
       0.19488269 -0.012375537 0.016623326 -0.0029431824
000030 89 26 d0 bb 0c 13 94 3b 60 29 c8 3d 03 3a 86 3d
       -0.00635225 0.004518872 0.09773517 0.065540336
000040 c2 a2 05 bc 04 02 ce bd ba 8b 1b 3d ca 85 38 be
       -0.00815648 -0.10058978 0.03797505 -0.18019786
000050 ac 71 2e 3e 5d 15 00 bd be 45 42 3d 6c 81 5d bc
       0.1703555 -0.031270374 0.047429793 -0.013519626
000060 1c bf 26 be fe 8f 2b 3c 12 bf 76 3d 40 60 54 bd
       -0.1628384 0.010471342 0.060240813 -0.051849604
000070 cc 90 c5 bb 68 35 a6 bc 58 b3 8b bd 24 ff 50 3d
       -0.006029224 -0.020289138 -0.068213165 0.05102457
000080 5b d7 67 3c bc 91 f0 3d ab 32 9e bd 13 34 0e bd
       0.014150466 0.117465466 -0.07724508 -0.03471763
000090 d9 c7 03 3e 13 01 27 be f0 8c bf bd 4b 68 8d bd
       0.12869205 -0.16309004 -0.093530536 -0.06904658
0000a0 c4 4d a5 bd e1 63 f1 bc f1 89 ac 3d d7 d3 bb 3d
       -0.08071473 -0.029466571 0.08424748 0.091712646
0000b0 f6 bd 8e bc cb 7f a0 bd 3a bc 90 3c e1 21 22 bd
       -0.017424565 -0.078368746 0.017667878 -0.03958309
0000c0 0e 10 c3 3b 96 86 0c bd 9e 7a e7 bd c2 9e 25 3c
       0.0059528416 -0.03430804 -0.11302684 0.010108652
0000d0 33 38 a8 3c 77 1a 0b 3e 9f 9a 6c bc ea 02 96 bd
       0.02053461 0.13584314 -0.014441161 -0.073247746
0000e0 7d e5 53 bd a3 81 1b be 0a 47 b3 3d 97 8a 99 3d
       -0.05173253 -0.15186171 0.08753784 0.07497137
0000f0 46 64 39 3d ec 3a 87 bd b3 89 16 3d dd f4 91 3c
       0.045261644 -0.06603035 0.036752414 0.017816955
000100 b6 e6 4d be d1 af be bd f0 9e 25 3d f8 42 f1 3d
       -0.2010754 -0.09310878 0.040434778 0.117803514
000110 58 36 45 bd 32 14 48 bd 45 41 89 3c 60 99 41 bd
       -0.04814753 -0.048847385 0.016754756 -0.04726541
000120 94 7d a5 bd 4c b2 c6 3c d6 23 d9 3a 0d 3a 1e bd
       -0.08080593 0.02425494 0.0016566466 -0.03862958
000130 25 6c 04 3d 06 ba fb 3d 66 85 1d 3e 7e a4 af 3c
       0.032329697 0.122913405 0.15382919 0.02144074
000140 60 2c 29 bd 7f 71 4c bd cd 4c 91 bd 02 f8 1b be
       -0.041302085 -0.049912926 -0.07094727 -0.15231326
000150 7f ef 6d 3e a2 79 d7 3d 13 f3 25 3c d2 08 a1 3d
       0.23235892 0.105212465 0.010128754 0.078630105
000160 7b 70 7b bd a1 09 d0 bd f4 f5 a3 3d cb 7b 98 3d
       -0.061386567 -0.101580866 0.08005896 0.07445487
000170 80 b5 e8 3d f4 a4 84 3c b2 ad 64 3d a9 5b 51 bb
       0.113627434 0.016191937 0.05582971 -0.0031945503
000180 a6 93 87 3d 6b 01 1e 3d 2f de 75 3d 83 d2 89 bd
       0.066199586 0.03857557 0.060026344 -0.06729605
000190 cf 8e ea 3d de d8 93 3c 8c aa 9a 3d 93 f9 42 bd
       0.1145302 0.018047746 0.075520605 -0.047601294
0001a0 df c5 ae bd d6 6b 1f bd 00 a3 a6 3d 8f f2 43 bd
       -0.08533835 -0.0389212 0.081365585 -0.047838744
0001b0 55 4b 56 bd c5 8e a1 bd 40 04 f8 3d e4 ee f4 3b
       -0.052317936 -0.07888559 0.121101856 0.007474767
0001c0 68 f7 63 bd 72 40 e4 b9 90 0c 09 3d ef 24 ff bc
       -0.055655867 -0.00043535564 0.033459246 -0.031145541
0001d0 a7 46 9f bd ac 0b 01 3e f8 80 27 bd 63 58 b3 3d
       -0.07777148 0.12602109 -0.04089448 0.08757093
0001e0 1c ba 3c 3d e1 15 07 bd 12 1c 0a 3e 65 da 30 3d
       0.046075925 -0.03297985 0.1348727 0.043177027
0001f0 67 14 32 bd 93 31 73 bd 05 96 1d be f3 5d 9f 3d
       -0.04347649 -0.05937345 -0.15389259 0.07781591
000200 2a cd 9e be 2a 43 13 be 30 15 e1 bd 18 f6 de 3e
       -0.31015903 -0.1438109 -0.10990369 0.4354713
000210 3f 14 5d 3d 10 66 0a 3d eb 34 4f be f3 03 a8 bd
       0.053974386 0.03378874 -0.2023503 -0.08203878
000220 4c 72 8a 3e 79 82 0b 3e 0f 23 54 bd d4 ad a2 3d
       0.27040327 0.1362399 -0.051791247 0.07943311
000230 ef 4d 35 3e 25 94 2f 3a 80 28 2a 3e c2 c7 0a bd
       0.1770551 0.00066977955 0.16617012 -0.03388191
000240 84 db ea bd e2 f8 42 be f6 7d 9b 3d e7 82 05 be
       -0.114676505 -0.19040254 0.075923845 -0.13038217
000250 63 32 50 3e d1 95 9c 3a cc 94 e0 3d 16 68 38 3e
       0.20331721 0.0011946504 0.10965881 0.18008456
000260 86 98 0a 3d c6 57 1c bd bc 7a 20 3c c4 d8 af bd
       0.033836864 -0.038169645 0.009794887 -0.08586267
000270 92 2a 02 bd 86 f0 87 be 73 a1 e7 3c eb e9 f3 3b
       -0.03177888 -0.26550692 0.028275227 0.0074436567
000280 21 8b b7 3d f9 09 ab 3d d2 61 2c be cb 58 e0 3d
       0.089620836 0.083515115 -0.1683419 0.10954436
000290 7c 24 dd 3d e1 9c 68 be 5b 54 02 3d 38 f9 a4 3c
       0.107979745 -0.22716095 0.03181873 0.020138368
0002a0 e7 06 a8 3d 55 f6 f7 bd 06 6c 17 3e 8c 0a 57 3e
       0.082044415 -0.12107531 0.14787301 0.21000117
0002b0 dc 9d ab 3d 58 4f 02 be eb 24 10 bd 73 cc 2e bd
       0.08379719 -0.1272558 -0.035191458 -0.042675447
0002c0 85 f9 a9 bd 60 51 56 be 00 c7 90 bb ba 16 e1 bd
       -0.08299545 -0.2092948 -0.004418254 -0.10990663
0002d0 f9 e6 3c be 23 72 eb 3d 84 7d f8 3d eb 98 dc bd
       -0.18447484 0.11496379 0.12133315 -0.10771354
0002e0 65 a8 d0 3d 1a 61 c7 3c 32 d3 c9 bc a3 4f b8 bd
       0.10188369 0.024338294 -0.024636839 -0.089995645
0002f0 5f 49 34 be 0a 3f 73 bc d3 e3 d2 bc 84 44 76 bd
       -0.17606114 -0.014846573 -0.0257434 -0.060123935
000300 1a b9 52 3d e0 7b 48 bb e6 dc 20 3e f2 df 49 be
       0.051446058 -0.0030591413 0.15709266 -0.19714335
000310 dd fd 24 ba 54 66 22 3e b8 b8 be 3d 5e 69 d2 3d
       -0.0006293932 0.15859348 0.09312576 0.102740034
000320 ea ee d7 bd c4 68 71 3b 4a 1e 65 bd 4d 7a 26 bd
       -0.10543616 0.0036836127 -0.05593709 -0.04064398
000330 66 96 60 3d 55 f0 fb bd 83 0f 68 bd 75 5d 5d 3d
       0.05483093 -0.12301699 -0.056655418 0.054044206
000340 b7 3e 13 bd c4 2c dc bc 5b 82 20 be ac e3 83 3d
       -0.03594848 -0.026876815 -0.15674727 0.06439909
000350 91 6b 8c bd 3f b8 1e 3d d5 ca bc bd 54 2c 27 be
       -0.06856454 0.03874993 -0.09218375 -0.16325504
000360 14 60 98 3d 14 8e 65 bd 72 69 c0 3d 94 82 0d 3e
       0.074402004 -0.0560437 0.09395112 0.13819343
000370 60 da 8e bd c7 f1 57 3e 76 ac a0 3d cf cc 7c 3d
       -0.069752455 0.21088324 0.07845394 0.06171876
000380 99 d2 04 be b3 5e 68 bc bf fc 05 3e 44 9b 0d 3d
       -0.12970962 -0.014182734 0.13084696 0.0345719
000390 9c 11 d9 3d 1c 4c 61 3d 99 24 04 bd ca 3b 7e 3d
       0.10599062 0.055004224 -0.032261465 0.062068738
0003a0 0c 5d da 3d d7 34 2d 3d b9 f9 a6 bd 67 e7 b9 bd
       0.106622785 0.04228672 -0.081530996 -0.090773396
0003b0 d1 76 0a bd e7 b9 b5 3d fb e6 67 bd 2f 30 de bc
       -0.03380472 0.08873349 -0.056616765 -0.027122585
0003c0 b1 9d 0b be 72 6a 1a 3e 13 ba 54 bd 73 4c e9 bd
       -0.13634373 0.15079668 -0.051935267 -0.11391535
0003d0 e6 05 4f bb 02 a6 8e 3d cb 83 b6 3d 78 b1 1b 3e
       -0.003158921 0.06965257 0.08911856 0.15204418
0003e0 a1 5a 2a 3e c9 f7 dc 3c d4 0d 8e 3c 6c fc 22 bd
       0.16636135 0.026973622 0.017340578 -0.03979151
0003f0 59 f2 82 bd 3a 02 cc bd ab 77 1c 3e a1 ea 38 be
       -0.063938804 -0.09961362 0.15280025 -0.18058254

cell.gru.weight_hh f4 [192, 64]
000000 87 df 8f bd 2d 6d da bd 5b 53 0d 3e f0 c1 ce bc
       -0.07025056 -0.10665355 0.13801329 -0.025238961
000010 d3 03 b8 bd e8 17 04 bd 12 fd 24 3e 4a 3f 39 3a
       -0.089851044 -0.03224936 0.16112164 0.0007066621
000020 10 1f 50 3e 00 52 0e bd 8d 36 a0 3d 48 79 21 bd
       0.2032435 -0.03474617 0.07822905 -0.039422303
000030 0b 04 2a be ca 5a 88 bd 44 d4 28 3e 91 cd 94 3d
       -0.16603105 -0.06657942 0.16487223 0.07265771
000040 e9 23 1e bc 57 ba c0 3c 4e 05 0e 3e f0 9a 91 bd
       -0.009652116 0.023526354 0.13869211 -0.0710963
000050 f9 c6 da bc 78 8b 43 bd 02 6a 46 3e 0d 32 a0 3c
       -0.026706206 -0.04774043 0.19376376 0.019555116
000060 17 69 87 bd d5 60 3b 3c 7d 66 90 bd c6 cf 84 bd
       -0.06611841 0.011436661 -0.07050798 -0.06484942
000070 a3 74 a2 bd b1 22 e4 3c fc 13 c3 bd 08 38 b1 3c
       -0.07932403 0.027848573 -0.09525296 0.021633163
000080 e5 92 52 3d 73 29 84 bd 45 f3 13 bd b8 56 a1 bd
       0.05140962 -0.06453218 -0.03612067 -0.078778684
000090 fa af 22 3d ca 88 d2 3d 8f d4 2d bd df f1 e8 3d
       0.039718606 0.10279997 -0.04243904 0.11374258
0000a0 72 c8 39 3e 48 a9 c7 3d 66 9f a7 3d 0e a7 06 bd
       0.1814287 0.09749085 0.081847 -0.03287416
0000b0 8b 0d 5d 3e 1a 59 2b 3e 3d 57 d3 bd b4 bd df bd
       0.21587197 0.16733208 -0.10319374 -0.10924855
0000c0 06 d8 84 bd fe 94 53 bd a2 e0 53 bc 08 43 ab bc
       -0.06486516 -0.051655762 -0.012931975 -0.020905986
0000d0 4e 58 a5 bd 50 57 bc 3d b5 db b5 bc f9 67 0a bb
       -0.080734834 0.09196341 -0.022199491 -0.0021119101
0000e0 cf 97 a6 bb 4a fd 72 bc 94 43 30 be e4 54 da bd
       -0.005084015 -0.014830897 -0.17213279 -0.10660723
0000f0 5b 55 21 3c ae a2 99 bd 16 e9 ef 3d 36 86 3c 3e
       0.0098470105 -0.07501732 0.117143795 0.18410572
000100 99 f4 69 bc 10 e4 b9 bd fa bb 9d 3c ad 01 27 3e
       -0.014279508 -0.090767026 0.019254673 0.16309233
000110 de 88 8b bd 1f 6b bf bc 3f 25 13 3e 87 7c 89 bd
       -0.06813215 -0.023366509 0.14369677 -0.06713205
000120 3d f4 9e 3e 07 de 57 3d 2e 6b 30 bd 6d 97 8d 3d
       0.31045714 0.052701976 -0.043070965 0.06913648
000130 1c 48 22 be dd fe 46 3c f0 9a 64 3e ad f0 88 3d
       -0.1584782 0.012145725 0.22324729 0.0668653
000140 06 4e 1f 3e 79 70 d5 bd 6b 7f 01 3e 53 ff 2e 3d
       0.15557107 -0.10421843 0.12646262 0.042723965
000150 0b b9 ad bd d5 f0 5e bd bc 27 e4 3c be 1d f8 bd
       -0.0848256 -0.054428894 0.027850978 -0.12115048
000160 57 9b 07 bd c1 d4 07 bd 35 91 f1 bd 83 88 8f bd
       -0.033107128 -0.033161882 -0.11795274 -0.070084594
000170 6b 88 00 bd 27 65 94 3c ff 49 04 be c2 a5 80 3d
       -0.0313801 0.01811464 -0.12918852 0.06281616
000180 12 56 f4 bc 05 f0 34 3d 8d 6b a4 3d 98 fd 39 3c
       -0.029826198 0.044174213 0.08028326 0.011351965
000190 2a a3 f9 3d 3b 57 11 3d c2 35 a9 3c 45 ac f2 bd
       0.12189324 0.03548358 0.020655517 -0.11849264
0001a0 92 65 10 3e c5 96 f3 bd b5 a3 40 3e 7e 79 94 bd
       0.14101246 -0.118939914 0.1881245 -0.07249735
0001b0 c3 6e bc 3e df 17 4f 3e 3a ca 8b be f5 88 3f be
       0.36803254 0.2022395 -0.27302724 -0.18704589
0001c0 81 73 6f 3d 7f 59 67 bd 2a b5 65 3d e8 c7 fa bc
       0.058459762 -0.056481835 0.056080975 -0.0306129
0001d0 dd 06 3d bd 91 f4 31 3e 61 e1 71 be 16 82 a1 bd
       -0.046149123 0.17378451 -0.23621131 -0.0788614
0001e0 df 1a 97 3d f3 2e 28 be 67 c8 4e be c6 5b fa 3c
       0.07378172 -0.1642416 -0.20193635 0.03056134
0001f0 08 59 27 3b 9c 41 07 be 85 38 ec 3d 97 6d 74 3d
       0.0025535244 -0.13208622 0.11534218 0.059674826
000200 e4 a4 99 bd 88 cb 13 be c6 b2 9e bd 78 92 f8 3c
       -0.075021535 -0.1443311 -0.07748942 0.03034328
000210 b9 fc de 3c 60 11 b8 bd 03 39 b2 3d a5 35 23 be
       0.027220117 -0.08987689 0.0870228 -0.15938433
000220 3b 4e bf 3e 3d 6a c0 3d c3 0a 81 3d 0b a2 f4 bc
       0.37364373 0.09395263 0.06300881 -0.029862424
000230 fd d6 4f bd e4 8b 24 3e 49 fb e9 3d b8 c3 9a bc
       -0.05074214 0.16068989 0.11424882 -0.018892154
000240 e1 6b 7a 3c e3 4e 0f bd d9 b4 6a 3d 21 fa 98 bd
       0.015284509 -0.03498734 0.057301376 -0.07469583
000250 be 08 04 3e 78 7c 8a 3b 56 1c 64 bd 25 a1 89 3d
       0.1289396 0.0042262636 -0.055691086 0.06720189
000260 99 56 b3 3d 04 b2 56 bd 11 db 14 be 9f e3 70 be
       0.087567516 -0.052415863 -0.14536692 -0.2352433
000270 af db 20 3e f2 09 e9 bd 38 22 42 be 3d b0 e1 3d
       0.15708803 -0.1137885 -0.18958366 0.11019943
000280 15 de 11 3b 96 39 d6 3d 0d fa 5b 3d ac e9 0b 3e
       0.0022257615 0.104602024 0.053705264 0.13663357
000290 44 86 28 bd 51 55 a6 3d 00 91 0a 3e 0f 7e 35 bc
       -0.04114367 0.081217416 0.13531876 -0.011077418
0002a0 c4 5c 01 3e 03 0b aa bd a2 4f a8 3d e6 04 f0 bd
       0.12633044 -0.083028816 0.08218314 -0.11719684
0002b0 13 e5 93 3e c1 1c c5 3d 6b b5 b1 be 6e 35 30 be
       0.28885707 0.09624625 -0.34708723 -0.17207882
0002c0 6c 60 e2 bd cc ef 3e bc 4b a0 05 3e 42 52 61 3d
       -0.11053547 -0.011653852 0.13049428 0.055010088
0002d0 e6 d7 e5 bd 9a f4 c0 3b a6 e9 68 be a2 e1 aa bd
       -0.1122282 0.005888534 -0.2274538 -0.08343817
0002e0 68 c5 b9 3d 61 a6 89 bd c7 31 44 be 45 e7 fc bd
       0.090708554 -0.067211874 -0.19159614 -0.12348799
0002f0 77 be ee bd 9c 43 62 bd 40 29 2c 3d c8 5d 3d 3d
       -0.11657422 -0.05524026 0.042031527 0.046232015
000300 2a ac 97 3d 05 c8 57 3d a9 e9 28 bd 0b 34 12 be
       0.074058846 0.052680988 -0.04123846 -0.14277665
000310 b2 7c fd 3d 12 49 0b be 82 58 58 bd 03 3f 06 3e
       0.12377299 -0.13602093 -0.052818783 0.13109975
000320 70 03 0b bd 22 84 31 be 16 9e c9 bd 68 73 28 3d
       -0.033938825 -0.17335561 -0.098446056 0.041125685
000330 85 ef 53 3e 6e 08 5e 3c 38 f4 8e bd e1 a4 80 3a
       0.20696838 0.0135518145 -0.06980175 0.0009814763
000340 30 25 c2 3c 1d b8 0e be fe 26 bf bc e6 99 84 bd
       0.023699373 -0.13937421 -0.023334023 -0.06474666
000350 5a e1 f2 3c cb e2 74 3d ce 5b 4a bc a1 b3 c4 3d
       0.029648472 0.0597866 -0.0123509895 0.09604574
000360 05 f4 8c 3c 3f 90 75 3d 0e 1d 9a 3d 92 05 5b 3d
       0.017206201 0.059952017 0.07525073 0.05347211
000370 ae 2c 60 3d cf 5b d0 3d 3f b1 f8 3d 86 24 22 bd
       0.05473011 0.10173761 0.12143182 -0.039585613
000380 ff 09 34 bd 9f 60 13 3c df 4e 84 bc 85 f5 15 3d
       -0.043954846 0.008995204 -0.01615089 0.0366111
000390 f3 d3 7a 3c 72 ed c0 bd 92 f3 15 3c 0f 65 5c 3d
       0.015309322 -0.09420289 0.00915231 0.053807314
0003a0 19 49 3c be 50 5c 5f 3d 8f af 15 bd 50 2f 8e 3e
       -0.1838726 0.054531395 -0.03654438 0.27770472
0003b0 fb a3 58 be 5c f8 f5 bd 36 c1 0b 3e 33 5b 75 3d
       -0.21156304 -0.120102614 0.13647923 0.059901427
0003c0 a2 dc 05 3e 98 15 32 3e 92 7b b7 bd a6 1e 4b 3c
       0.13072446 0.1739105 -0.08959116 0.012397444
0003d0 87 09 86 bd 6d 4e 0d 3d eb be d0 3d 80 ca ab 3d
       -0.06544786 0.03449862 0.10192665 0.08388233
0003e0 48 1a 67 3d 79 5c 94 bd 76 9d a0 3d 75 5f de 3d
       0.056421548 -0.072442 0.07842533 0.10858051
0003f0 62 d6 9a ba 5c d9 02 3e b8 d4 d9 bd 3b 77 38 be
       -0.0011813159 0.12778229 -0.10636276 -0.18014233

cell.gru.bias_ih f4 [192]
000000 54 b7 3e 3d 56 7d 40 3b 3b 47 e0 bd 75 27 0f be
       0.046561554 0.002937158 -0.10951086 -0.13979895
000010 b2 06 d6 38 25 dd a2 3d 2d 29 7c be d6 7b 62 be
       0.00010205562 0.07952336 -0.24625082 -0.22117552
000020 62 71 9a bc e9 74 17 be 85 f5 cc bd b0 1a 8a 3d
       -0.018852893 -0.14790691 -0.10007767 0.067433715
000030 54 05 24 3e c8 86 86 bd b1 25 30 3d 39 b8 a5 3c
       0.16017658 -0.06568676 0.043004695 0.020229446
000040 eb d1 6f bd e3 e7 e0 bd d9 ff a1 bc e9 41 b2 bc
       -0.058549803 -0.10981729 -0.019775318 -0.021759944
000050 80 01 bd bd 47 50 a3 bb 2b 69 1a be 6d 6a 1e 3e
       -0.09228802 -0.004983935 -0.15079181 0.15470286
000060 eb 97 b5 bd a2 c1 e8 bb a7 f8 87 3d 6c 60 c1 bd
       -0.08866867 -0.007103161 0.066392235 -0.09442219
000070 94 26 2a be ce a9 e9 bc 70 0e 2f be ab fe 0a be
       -0.16616279 -0.028523352 -0.17095351 -0.1357371
000080 cd 23 5f 3e 5b 94 75 bd 20 26 0b 3c 0a da 83 3d
       0.21791 -0.059955936 0.008492976 0.06438072
000090 a8 5c 0c be 3e e5 0c 3d d8 cc 38 be a7 74 6f bd
       -0.1370722 0.03439831 -0.18046892 -0.058460858
0000a0 85 91 36 be 78 e8 1b be d6 b5 1d 3d 31 99 61 3d
       -0.17828949 -0.15225399 0.03850349 0.055077735
0000b0 1b d7 8b be 70 2a 5d be c6 1d 29 bd 56 85 bd bd
       -0.2731255 -0.2159822 -0.04128816 -0.092539474
0000c0 7b 9d 51 be d2 44 da 3d 82 e1 94 3d 1a 08 7b 3d
       -0.2047023 0.10657658 0.07269575 0.061287023
0000d0 7a f9 a5 3e 82 27 5e be 29 6b 37 3d f0 51 5e be
       0.32416898 -0.21694759 0.04477993 -0.21710944
0000e0 dd 6f 30 3d aa cf 9d bd 73 0c 49 3d c0 c4 52 3d
       0.04307543 -0.077056244 0.049084138 0.051457167
0000f0 b1 26 ed 3d 7d ca bf bd 8b 1c 77 bd 50 a8 91 39
       0.115796454 -0.093647934 -0.060329955 0.00027781958
000100 be 96 21 3e 99 08 ac bd e7 dc 5b 3e 27 48 3c 3d
       0.1578016 -0.084000774 0.21470986 0.045967247
000110 ec 53 17 3c 75 dd a9 be 47 e0 40 3e 4e 84 ef 3c
       0.009236317 -0.3317677 0.18835555 0.029237892
000120 9f 37 ba bc 71 0b 39 ba 42 81 1f 3d 20 89 62 be
       -0.0227316 -0.0007058895 0.03894163 -0.22122622
000130 c2 18 a3 3c be ba 85 bd 10 82 48 3e 1f 0f 00 be
       0.019909266 -0.06529759 0.19580865 -0.12505768
000140 ab 31 d2 3a fc 95 d5 3d 3a 89 d9 3c 26 bd bb bd
       0.0016036531 0.10428998 0.026554693 -0.091669366
000150 99 b4 b7 3d 20 5d c9 3d 17 db 4a 3d 44 88 ce bd
       0.08969993 0.09832215 0.049525347 -0.10084584
000160 33 be 21 bc aa be 52 3e ea c5 af 3d 74 ad d6 bc
       -0.009872007 0.20580545 0.08582671 -0.026205756
000170 ba d4 32 bd 10 81 f9 3d bc 6d ad bc 12 88 04 3c
       -0.043659903 0.1218282 -0.02117049 0.008089082
000180 8f ad a9 3c 9c 39 69 be ed 51 ef bb 91 b9 c1 3d
       0.020712642 -0.22775882 -0.0073034675 0.09459222
000190 b7 69 c7 bd 8e 1e 86 3d 4f d1 d3 3d cd a8 59 3e
       -0.097369604 0.065487966 0.10342657 0.21255799
0001a0 39 5c ba bd 18 cf 14 bc 57 1e fd 3d 50 59 1c bc
       -0.09099621 -0.009082578 0.123593025 -0.009542778
0001b0 ab 84 d2 bd 62 ca 71 3c 17 68 39 3e ac af 9c 3d
       -0.10279211 0.0147577245 0.18106113 0.07650694
0001c0 64 14 6a 3e 15 ef ef 3c 70 5d ee 3c f5 21 16 3d
       0.22859341 0.029288808 0.029097289 0.036653478
0001d0 6d 30 b2 be 6b 72 60 3c f0 ed 5d be a7 4b 13 be
       -0.3480257 0.013699154 -0.21672797 -0.14384328
0001e0 12 9c 99 3d 0d 00 05 be 77 c2 8d 3b 26 6b 03 3d
       0.07500471 -0.129883 0.0043261605 0.032084607
0001f0 62 3f b7 bd 49 d0 34 3e 4f 2b c7 3c 24 dc 4c ba
       -0.08947636 0.1765758 0.024312643 -0.0007814786
000200 ed 52 bc bd 60 7e da b9 43 4f ec 3c 9c f1 58 bd
       -0.09195504 -0.00041674357 0.028846389 -0.05296479
000210 fe 47 77 bc 4f d1 8e bc 07 36 85 bc 5a 2c 0c bd
       -0.015092848 -0.01743379 -0.016261114 -0.034221984
000220 a2 47 1b bd 4b c1 88 bd 56 d5 bf bd d6 5a 88 ba
       -0.03791011 -0.06677493 -0.093668625 -0.0010403048
000230 d2 e4 62 bd c0 5d 6c 3c ea b2 34 bc 1c 54 3d 3d
       -0.055394 0.014426649 -0.011028985 0.04622279
000240 4a 73 32 bd 9b 15 4f 3d 44 81 6c 3d e4 97 1a 3c
       -0.04356698 0.050557714 0.057740465 0.009435628
000250 02 3c ba 3c 33 12 a0 3d 39 8a 55 3d 56 b2 d8 bc
       0.022733692 0.07815971 0.052133773 -0.026452225
000260 26 83 83 3d 04 e3 0d 3d 7b b3 30 bd 83 3b 4d 3c
       0.06421499 0.034640327 -0.043139916 0.012526396
000270 a6 9b c8 bc 90 be e8 3b 24 6b 1c bd db 17 eb 3b
       -0.024488281 0.007102795 -0.038188115 0.0071744747
000280 45 af 63 3c 7b 74 9e bc de 58 aa 3b 2b fc 6d bc
       0.013896768 -0.019342652 0.005198582 -0.014525454
000290 fd 1a 0b 3c b2 61 95 bd b9 1c da bb e2 ff 4b 3c
       0.008490321 -0.072940245 -0.006656256 0.012451144
0002a0 d9 7a 4d bd 0e de 3e 3d 2f a0 cc 3b 73 c8 1a 3d
       -0.050165985 0.046598487 0.0062446813 0.03778882
0002b0 14 f2 ae bc 7c 83 1d 3d 6e 49 18 bd 01 bd ca bb
       -0.021355666 0.03845547 -0.037179403 -0.006187082
0002c0 e9 aa bb b9 c0 1d 41 bd b7 42 a8 bd 82 38 1e bd
       -0.00035794757 -0.047147512 -0.0821585 -0.03862811
0002d0 7e df c1 b9 6d df 32 3c 5a 81 d9 3c 0a f0 8d bd
       -0.00036978343 0.010917527 0.026550937 -0.069305494
0002e0 75 3f 74 3c c6 cd 66 3c f5 82 d5 3c 4a 07 11 3d
       0.014907707 0.014087146 0.026063422 0.035407342
0002f0 f6 f9 26 3d 14 4b 7a bd 96 e1 04 bd 69 5e 31 bc
       0.040765725 -0.061106756 -0.032441698 -0.010825732

cell.gru.bias_hh f4 [192]
000000 61 ef 89 bc 89 7c b8 3c e0 c7 d4 bd a8 75 5b 3c
       -0.016837778 0.02252032 -0.10389686 0.013394751
000010 e3 8a 0e 3e cb 34 ae bc 4d 05 87 be 27 a0 a9 bd
       0.13920169 -0.021265408 -0.26371232 -0.082825
000020 e0 2e 06 bd 8c c1 3c be f5 b7 e6 bc 99 57 18 bd
       -0.032759547 -0.18433207 -0.02816389 -0.037192915
000030 c7 73 01 3e 86 91 d7 bc 53 3f ae bd 9f d9 51 bd
       0.12641822 -0.026314508 -0.08508172 -0.05123293
000040 65 14 a5 bc f3 3b 73 3c 18 57 fe bd b0 c1 7b 3c
       -0.020151326 0.014845836 -0.124189556 0.015366003
000050 ec 68 82 bd 73 d0 fe 3d c3 45 50 bd 28 13 01 bd
       -0.063676685 0.12442102 -0.05084778 -0.03151241
000060 71 d6 1b bd ef ad 41 bd bd 0e 6c bc 41 f9 e0 bc
       -0.038046304 -0.047285017 -0.014407811 -0.027462604
000070 ed ef 2d 3d 24 dd 2e bd 0b 6c 02 be da 44 07 be
       0.04246514 -0.042691365 -0.12736528 -0.13209859
000080 46 ca e5 3d e3 9d b6 3d f9 8e cd 3d 7b 98 66 bd
       0.11220221 0.08916833 0.100370355 -0.05629776
000090 b4 1a c7 bd d6 95 65 bc 8e c7 9d bd 8e a9 4c be
       -0.0972189 -0.014012774 -0.07704078 -0.19986555
0000a0 8c 9f 4b bd ef 66 15 be 8f 4f 7a bd 16 d7 cd bd
       -0.049712703 -0.14590047 -0.06111103 -0.1005079
0000b0 4e 04 1f be fb fa 74 be 3f 66 10 be 7f bf 12 be
       -0.15528986 -0.23923866 -0.14101504 -0.14330862
0000c0 2b 9d d6 3c f6 64 fa 3d 08 91 2c bd eb 46 43 bc
       0.02619799 0.12226288 -0.0421305 -0.011918764
0000d0 49 36 5d 3e 1f e7 22 be 94 b0 53 3c 91 d4 27 be
       0.2160274 -0.15908478 0.0129205175 -0.16389681
0000e0 d7 ac ad 3c e7 52 19 3b e0 64 2e bd 5a ff fd 39
       0.02120058 0.002339536 -0.04257667 0.00048446172
0000f0 bc 11 dd bd d4 29 7d 3d 37 bb 10 3e eb 34 e1 bd
       -0.10794398 0.06180747 0.14133917 -0.109964214
000100 36 c9 5d 3e a9 9d 3d be 5d 5c fc 3d 83 96 51 3d
       0.21658787 -0.18517174 0.123223044 0.05116893
000110 59 a7 c9 bc ff 55 a7 be e2 36 0e 3e 77 ff 0b 3e
       -0.02461593 -0.32682797 0.13888124 0.13671671
000120 7b 85 0a be 2b c0 2e 3e ce 7b 93 bd 97 54 58 be
       -0.13527481 0.17065494 -0.07201348 -0.21126018
000130 84 d1 ca bb b0 29 90 3d 16 70 7f 3b 79 22 38 3c
       -0.006189527 0.07039201 0.003897672 0.011238688
000140 ea 13 f0 bd 03 b4 bf bc 6c 5d 16 bc c3 58 e1 bd
       -0.11722548 -0.023401266 -0.009177547 -0.11003258
000150 92 84 b9 3d 93 05 06 3d 85 f1 9c 3d 3a ae 19 be
       0.09058489 0.03272016 0.07663254 -0.15007868
000160 7f cf a8 bc 81 9b 67 3e 41 b3 a1 bd 92 9a b3 3d
       -0.020606754 0.22617914 -0.07895518 0.08769716
000170 90 ab fc 3b f9 be 9b 3d 32 dc 2e bd 19 07 34 3e
       0.0077108815 0.076047845 -0.042690463 0.17580833
000180 8c 7e 3c bc de de 14 be 04 d0 c7 bd 0d 22 10 3d
       -0.0115047805 -0.14538142 -0.09756473 0.035188723
000190 ec 5d 76 bd c8 90 18 bd cd 3a d9 3d bf b3 52 3b
       -0.060148165 -0.03724745 0.106069185 0.0032150594
0001a0 c2 2f db 3d 83 70 d1 3c 2e 7f d8 3d 84 83 ad bc
       0.107024685 0.025566345 0.105711326 -0.021180876
0001b0 fe b6 c8 3d cc 38 97 3c 84 0f 0b 3e 10 7f 52 3c
       0.09800528 0.0184597 0.13580137 0.012847677
0001c0 ec 83 3e 3e 90 b6 af bd 3f 45 0f be 09 5c 50 3d
       0.18605012 -0.08579743 -0.13991259 0.05086902
0001d0 65 9f e2 be 14 ff 42 be 45 57 73 bc f4 d3 08 be
       -0.44262233 -0.19042617 -0.01485235 -0.13362104
0001e0 1d 0b 89 3d 4a e7 e0 bc 4b 2a b6 3c 97 04 22 bd
       0.06691573 -0.027454037 0.022236964 -0.03955516
0001f0 b1 d6 a5 3d f6 da 5e 3e e5 64 8d bd 1c 44 43 bd
       0.0809759 0.21763214 -0.0690401 -0.047672376
000200 28 ee 03 3e b2 4f 41 3d 4c 70 25 3d b9 f1 3f 3d
       0.12883818 0.047195144 0.040390298 0.046861384
000210 a5 bc 85 3d a1 dd 8b 3d 81 1d 03 bd 2a a9 f6 3d
       0.06530122 0.06829382 -0.03201056 0.12043984
000220 75 f1 3d bd a0 fc ed 3d 73 ef d5 3d 79 86 52 3d
       -0.04637285 0.1162045 0.10446062 0.051397774
000230 a9 31 9e 3d 65 68 27 be d0 9c 84 3c 75 9e 48 3c
       0.07724316 -0.16348417 0.016188055 0.01224481
000240 3f a3 46 3d a5 06 94 bd 75 27 03 be ca e4 b5 bc
       0.048495527 -0.0722783 -0.1280802 -0.022203822
000250 0b 91 0f bd fb 2a 25 be f2 1a 75 bc f7 45 72 3d
       -0.035050433 -0.16129677 -0.014960038 0.059148755
000260 45 52 eb bd 35 6d 83 bd 9e 6c 01 3e 46 0e b3 3c
       -0.11490301 -0.06417314 0.1263909 0.021857392
000270 e0 0f df 3c 49 2f a2 bc 46 de c7 3d e3 2d 15 bd
       0.02722925 -0.019797938 0.09759192 -0.036420714
000280 f6 34 76 bd c5 0d 8b bd 23 50 a3 bc 03 c1 52 bc
       -0.0601091 -0.06789736 -0.019935673 -0.0128634
000290 15 32 6d 3d 07 88 3d 3d d6 42 0f bd 97 76 21 bd
       0.05790909 0.046272304 -0.03497585 -0.039419737
0002a0 ff ca aa 3d 92 6f ce bc 4d 35 4d bc b5 98 89 bd
       0.083395 -0.025199685 -0.012524915 -0.0671858
0002b0 65 90 57 bd 4c 12 8b bd 8b 99 6e 3d e8 b8 fb 3b
       -0.05262794 -0.06790599 0.0582519 0.0076819547
0002c0 ae 72 1e bc 3b ac 6e 3d e5 f4 56 3d 5e 78 f0 3d
       -0.009670896 0.05826972 0.052479643 0.11741708
0002d0 57 4e 13 3d b8 13 1e bd 57 80 27 3d 19 8f 67 3d
       0.035963383 -0.038593024 0.04089388 0.056532953
0002e0 91 f1 8e bd 50 fe 8c 3d 68 eb 3f bb 30 e7 b3 bd
       -0.06979669 0.06884444 -0.00292846 -0.0878433
0002f0 1a 7d ee bd 3b 64 29 3e 12 b6 49 3d 95 66 b8 3c
       -0.11644955 0.16542141 0.0492459 0.022509852

fc_out.weight f4 [6, 64]
000000 90 f5 e0 3d 47 26 b9 3d c7 2f ca bd 43 a9 4a be
       0.10984337 0.09040504 -0.09872394 -0.1979113
000010 5d d8 5c bd 90 37 9f bd bb 26 5e be ea 62 a2 3e
       -0.053917278 -0.077742696 -0.21694462 0.3171609
000020 9b 56 8a be d6 00 96 be 3f 6b de 3d 52 2d 9d 3d
       -0.270192 -0.29297513 0.10860299 0.0767466
000030 14 2d b1 bd 46 43 94 be d9 fe f8 bd 40 f5 04 3e
       -0.08651176 -0.28957576 -0.12157983 0.1298418
000040 da 83 1e 3e f5 8a 2f be d8 8b 43 3e 14 12 15 3e
       0.15479985 -0.17142852 0.19096315 0.14557678
000050 fc 96 5e 3e 3f c1 2a be 43 e5 21 be 92 82 ee 3d
       0.21737283 -0.1667528 -0.15810113 0.11645998
000060 6c e7 26 3e a2 69 58 be 12 b2 0f be 8f 60 a0 3e
       0.16299218 -0.21134046 -0.14032772 0.31323668
000070 39 ef 8c be 15 66 7f 3e 31 05 28 be 15 7e 75 be
       -0.27526262 0.24941285 -0.1640823 -0.23973878
000080 53 44 08 3e 44 5c ea bd 26 ca 00 3e 21 43 2b 3e
       0.13307314 -0.114433795 0.12577114 0.16724826
000090 e0 cd 99 3d 2c 5c eb 3d fb c3 7e 3e 45 11 5c 3e
       0.07509971 0.1149219 0.24879448 0.21490963
0000a0 c9 fc 93 be 0f 9f 20 3e 6a 08 35 be 8e 3c ff 3c
       -0.28903797 0.15685676 -0.17678991 0.031156804
0000b0 f4 85 94 be c2 a8 1c 3e 2f c6 60 3e c0 62 46 3e
       -0.29008448 0.15298751 0.21950601 0.19373608
0000c0 8c 16 72 3e b7 0d 5c be fe 56 c5 3d 4b 1f fe bd
       0.23641413 -0.21489607 0.09635733 -0.124083124
0000d0 6d 36 a3 bd 69 ea 94 3d 48 4d 67 bd fd 46 7d bd
       -0.07969365 0.07271273 -0.056470186 -0.061835278
0000e0 1c c6 0f 3e a3 f1 fa 3d 79 38 d4 bd c4 4e 6e bd
       0.14040416 0.1225312 -0.10362334 -0.058180586
0000f0 b2 60 23 be 73 92 78 3e c2 85 15 3e c4 27 59 3e
       -0.15954855 0.24274616 0.14601806 0.21206576
000100 a4 e5 1a 3e 4f b5 c4 3d a9 95 26 be 66 13 39 be
       0.15126663 0.09604894 -0.16268028 -0.18073806
000110 71 69 22 bd 05 50 c1 bd 51 7c 43 be ef 16 86 3e
       -0.039651338 -0.09439091 -0.19090392 0.26189372
000120 95 ac 67 be 1f 4d 2d be 3a 80 ca 3d 23 48 b0 3d
       -0.22624429 -0.1692395 0.098877385 0.08607509
000130 cf 4e 18 be 12 0b 43 be 33 d0 16 be 41 a5 18 3e
       -0.14873813 -0.19047192 -0.14727859 0.1490679
000140 93 c9 14 3e fa 46 35 be 03 0d 3d 3e 75 fa 0f 3e
       0.1453002 -0.17702857 0.18461995 0.14060386
000150 c5 35 23 3e 50 b0 1d be b1 bf 24 be c0 9c 1e 3e
       0.1593848 -0.15399289 -0.1608875 0.15489483
000160 e7 3e 1c 3e 6f 43 55 be 38 01 0e be ea 62 8c 3e
       0.1525837 -0.20826505 -0.13867652 0.27419215
000170 db e8 44 be 36 46 6f 3e 59 5a 1b be a1 67 76 be
       -0.19229452 0.23366627 -0.15171184 -0.24062969
000180 a6 7e 40 3e b0 b6 00 be ff 62 f4 3d 51 81 03 3e
       0.18798313 -0.1256969 0.119329445 0.12842299
000190 68 db e2 3d 72 8a d7 3d 5b ca 30 3e f9 0f 6c 3e
       0.11077005 0.10524453 0.17264692 0.23052968
0001a0 1a 51 8d be 05 e8 45 3e 2b 5b 4d be 1b d8 0f 3d
       -0.27600938 0.1932679 -0.20054309 0.035118204
0001b0 66 7f 53 be f4 14 3d 3e d0 c9 21 3e ef 1d 62 3e
       -0.20654067 0.18465024 0.15799642 0.22081731
0001c0 01 3d 31 3e b5 a5 f2 bd af 1d c6 3d e1 d0 0d be
       0.17308427 -0.11848012 0.096736304 -0.13849212
0001d0 b0 4b d0 bd 92 2a c2 3d f8 7a 9a bd 5e 3f f5 bd
       -0.10170686 0.09480776 -0.07542986 -0.11974977
0001e0 6e fc 10 3e d4 e6 1a 3e cf 50 22 be fb 14 ff bd
       0.14158794 0.15127116 -0.15851139 -0.124551736
0001f0 f0 67 ef bd f7 fc 54 3e fd 11 06 3e d4 9b 32 3e
       -0.116897464 0.20799623 0.130928 0.17442256
000200 7a 41 18 3e 4d 24 f6 3d 2e c8 05 be 99 59 35 be
       0.14868727 0.120186426 -0.13064644 -0.1770996
000210 ea 5b 98 bd b8 41 fb bd 41 71 38 be 9c 55 77 3e
       -0.07439406 -0.12268394 -0.18011953 0.24153751
000220 a0 4a 2c be 28 61 21 be 13 30 e5 3d 79 5c ce 3d
       -0.16825342 -0.15759718 0.1119081 0.100762315
000230 e8 42 1a be 28 91 1e be bb 82 07 be 68 f6 22 3e
       -0.15064585 -0.1548506 -0.13233463 0.15914309
000240 45 57 08 3e 2f 3a 3f be 98 36 0f 3e ff a8 f8 3d
       0.1331454 -0.18674539 0.1398567 0.121416084
000250 03 34 df 3d ea d7 48 be 37 8c 25 be 04 4d ff 3d
       0.10898592 -0.19613615 -0.16166769 0.124658614
000260 f0 a4 0b 3e a8 d8 1f be 8f 8c 17 be bb 69 20 3e
       0.13637137 -0.15609992 -0.14799713 0.15665333
000270 9a 10 3c be 34 2b 3c 3e 69 fb 1f be b5 f6 2f be
       -0.18365708 0.18375856 -0.15623249 -0.17183955
000280 03 bd 2c 3e 55 0f e9 bd db 89 04 3e 4b 0b c1 3d
       0.16868977 -0.113798775 0.12943213 0.09425982
000290 87 0e 3e 3e a8 0b f7 3d 1a d1 3b 3e 4d 85 64 3e
       0.18560229 0.1206277 0.18341485 0.22316475
0002a0 ff 55 4b be 86 fe 33 3e a8 fe 34 be 6b 70 0c 3e
       -0.19857024 0.17577562 -0.17675269 0.13714759
0002b0 b8 0b c6 bd bd 85 2c 3e ef fb a8 3d c8 4f 5d 3e
       -0.09670204 0.16847892 0.082511775 0.21612465
0002c0 45 c3 59 3e 8a f0 2e be 83 73 cc 3d db 5c 3a be
       0.21265896 -0.17083946 0.099829696 -0.18199484
0002d0 72 4b 1c be f7 4e 2b 3e 76 b4 cd bd f6 a9 10 be
       -0.15263155 0.16729341 -0.10044186 -0.14127335
0002e0 39 94 09 3e 92 56 34 3e ff 1f 22 be 28 02 17 be
       0.13435449 0.17611149 -0.15832518 -0.14746916
0002f0 bf 2e 0b be a6 f0 22 3e ef 2e 0a 3e 41 4e 15 3e
       -0.13592051 0.15912113 0.13494466 0.14580633
000300 c9 9e 39 3e 5a fe 0b 3e c3 8c 08 be 97 1d 36 be
       0.18126978 0.13671246 -0.13334946 -0.17784725
000310 ea fd b2 bd af 27 05 be ce 99 b5 bd 60 78 60 3e
       -0.087398365 -0.1300342 -0.088672265 0.2192092
000320 b7 ae 55 bd 16 d3 c6 bd 76 5d 18 3e 5e d7 d9 3d
       -0.052168574 -0.0970823 0.14879403 0.10636781
000330 c8 23 43 be 81 97 40 bd b8 6b 05 be 12 9c 28 3e
       -0.19056618 -0.047019485 -0.13029373 0.16465786
000340 6c 17 2d 3e f9 5c 4c be 0e f2 1d 3e f8 88 ee 3d
       0.16903466 -0.19957341 0.15424368 0.116472185
000350 74 46 13 3e 24 7f 27 be 67 73 1a be b7 c8 2c 3e
       0.14382344 -0.16357094 -0.15083085 0.16873442
000360 b7 03 17 3e cb 34 03 be 1d ad 1b be 25 fd 03 3e
       0.14747511 -0.12813108 -0.15202756 0.12889536
000370 1a a2 0b be 33 98 16 3e 2e 77 25 be da d0 04 be
       -0.13636056 0.14706497 -0.16158745 -0.12970296
000380 6f 3c 11 3e 31 b5 28 be 86 5b 09 3e 1f c0 02 3e
       0.1418321 -0.16475369 0.1341382 0.12768601
000390 12 9b 6c 3e 9b 35 0d 3e 8c 5f 02 3e 15 20 3a 3e
       0.2310603 0.1378998 0.1273176 0.18176301
0003a0 c9 eb 52 be 60 81 1a 3e 5d 24 19 be e3 a2 18 3e
       -0.20597757 0.15088415 -0.14955278 0.14905886
0003b0 a5 e7 75 bd 34 a1 05 3e 97 2c f3 3d 26 f6 16 3e
       -0.060035367 0.13049775 0.11873739 0.14742336
0003c0 64 3e 2e 3e c8 b0 0b be e2 04 c9 3d ea 7e 05 be
       0.17015988 -0.13641655 0.098153844 -0.13036695
0003d0 14 fc 3c be 76 07 6b 3e 7d 9d fd bd 13 18 34 be
       -0.18455535 0.22952065 -0.12383554 -0.17587309
0003e0 e6 c6 0a 3e 55 9c 1c 3e f1 31 0b be 04 11 23 be
       0.13552436 0.15294011 -0.1359327 -0.1592446
0003f0 23 28 35 be 52 7e 24 3e 79 31 04 3e 5b a3 db 3d
       -0.17691092 0.16063812 0.12909497 0.10724517

fc_out.bias f4 [6]
000000 b0 aa f1 3b f2 04 4a 3c 0c 48 6c 3c ae 98 98 3c
       0.007375084 0.012330281 0.014421474 0.01862749
000010 07 09 ac 3c 7c b8 d7 3c
       0.021000398 0.026333086
